…
I0124 03:47:36.187706    94 net.cpp:207] 
I0124 03:47:36.190385    94 layer_factory.hpp:114] Creating layer data
I0124 03:47:36.190564    94 net.cpp:262] Creating Layer data
I0124 03:47:36.190578    94 net.cpp:1686] data -> data
I0124 03:47:36.190598    94 net.cpp:1686] data -> label
W0124 03:47:36.190621    94 net.cpp:309] SetMinibatchSize 1
I0124 03:47:36.190851    99 db_lmdb.cpp:66] Opened lmdb trainval_lmdb
I0124 03:47:36.193425    94 annotated_data_layer.cpp:102] output data size: 64,3,300,300
I0124 03:47:36.261988    94 net.cpp:331] Setting up data
I0124 03:47:36.262022    94 net.cpp:338] Top shape: 64 3 300 300 (17280000)
I0124 03:47:36.262032    94 net.cpp:338] Top shape: 1 1 2 8 (16)
I0124 03:47:36.262040    94 net.cpp:347] Memory required for data: 69120064
I0124 03:47:36.262048    94 net.cpp:349] Biggest Memory of single blob: 69120000
I0124 03:47:36.262060    94 layer_factory.hpp:114] Creating layer data_data_0_split
I0124 03:47:36.262081    94 net.cpp:262] Creating Layer data_data_0_split
I0124 03:47:36.262089    94 net.cpp:1712] data_data_0_split <- data
I0124 03:47:36.262104    94 net.cpp:1686] data_data_0_split -> data_data_0_split_0
I0124 03:47:36.262117    94 net.cpp:1686] data_data_0_split -> data_data_0_split_1
I0124 03:47:36.262128    94 net.cpp:1686] data_data_0_split -> data_data_0_split_2
I0124 03:47:36.262138    94 net.cpp:1686] data_data_0_split -> data_data_0_split_3
I0124 03:47:36.262148    94 net.cpp:1686] data_data_0_split -> data_data_0_split_4
I0124 03:47:36.262159    94 net.cpp:1686] data_data_0_split -> data_data_0_split_5
I0124 03:47:36.262171    94 net.cpp:1686] data_data_0_split -> data_data_0_split_6
I0124 03:47:36.262199    94 net.cpp:331] Setting up data_data_0_split
I0124 03:47:36.262210    94 net.cpp:338] Top shape: 64 3 300 300 (17280000)
I0124 03:47:36.262218    94 net.cpp:338] Top shape: 64 3 300 300 (17280000)
I0124 03:47:36.262225    94 net.cpp:338] Top shape: 64 3 300 300 (17280000)
I0124 03:47:36.262233    94 net.cpp:338] Top shape: 64 3 300 300 (17280000)
I0124 03:47:36.262240    94 net.cpp:338] Top shape: 64 3 300 300 (17280000)
I0124 03:47:36.262248    94 net.cpp:338] Top shape: 64 3 300 300 (17280000)
I0124 03:47:36.262259    94 net.cpp:338] Top shape: 64 3 300 300 (17280000)
I0124 03:47:36.262264    94 net.cpp:347] Memory required for data: 552960064
I0124 03:47:36.262269    94 net.cpp:349] Biggest Memory of single blob: 69120000
I0124 03:47:36.262275    94 layer_factory.hpp:114] Creating layer Conv
I0124 03:47:36.262290    94 net.cpp:262] Creating Layer Conv
I0124 03:47:36.262295    94 net.cpp:1712] Conv <- data_data_0_split_0
I0124 03:47:36.262302    94 net.cpp:1686] Conv -> Conv
I0124 03:47:36.262388    94 net.cpp:331] Setting up Conv
I0124 03:47:36.262399    94 net.cpp:338] Top shape: 64 32 150 150 (46080000)
I0124 03:47:36.262404    94 net.cpp:347] Memory required for data: 737280064
I0124 03:47:36.262410    94 net.cpp:349] Biggest Memory of single blob: 184320000
I0124 03:47:36.262428    94 layer_factory.hpp:114] Creating layer Conv/relu
I0124 03:47:36.262439    94 net.cpp:262] Creating Layer Conv/relu
I0124 03:47:36.262446    94 net.cpp:1712] Conv/relu <- Conv
I0124 03:47:36.262456    94 net.cpp:1673] Conv/relu -> Conv (in-place)
I0124 03:47:36.262471    94 net.cpp:331] Setting up Conv/relu
I0124 03:47:36.262480    94 net.cpp:338] Top shape: 64 32 150 150 (46080000)
I0124 03:47:36.262485    94 net.cpp:347] Memory required for data: 921600064
I0124 03:47:36.262488    94 net.cpp:349] Biggest Memory of single blob: 184320000
I0124 03:47:36.262493    94 layer_factory.hpp:114] Creating layer conv/depthwise
I0124 03:47:36.262503    94 net.cpp:262] Creating Layer conv/depthwise
I0124 03:47:36.262508    94 net.cpp:1712] conv/depthwise <- Conv
I0124 03:47:36.262516    94 net.cpp:1686] conv/depthwise -> conv/depthwise
I0124 03:47:36.262547    94 net.cpp:331] Setting up conv/depthwise
I0124 03:47:36.262555    94 net.cpp:338] Top shape: 64 32 150 150 (46080000)
I0124 03:47:36.262560    94 net.cpp:347] Memory required for data: 1105920064
I0124 03:47:36.262565    94 net.cpp:349] Biggest Memory of single blob: 184320000
I0124 03:47:36.262612    94 layer_factory.hpp:114] Creating layer conv/depthwise/relu
I0124 03:47:36.262625    94 net.cpp:262] Creating Layer conv/depthwise/relu
I0124 03:47:36.262634    94 net.cpp:1712] conv/depthwise/relu <- conv/depthwise
I0124 03:47:36.262643    94 net.cpp:1673] conv/depthwise/relu -> conv/depthwise (in-place)
I0124 03:47:36.262655    94 net.cpp:331] Setting up conv/depthwise/relu
I0124 03:47:36.262662    94 net.cpp:338] Top shape: 64 32 150 150 (46080000)
I0124 03:47:36.262667    94 net.cpp:347] Memory required for data: 1290240064
I0124 03:47:36.262676    94 net.cpp:349] Biggest Memory of single blob: 184320000
I0124 03:47:36.262683    94 layer_factory.hpp:114] Creating layer conv/project
I0124 03:47:36.262697    94 net.cpp:262] Creating Layer conv/project
I0124 03:47:36.262706    94 net.cpp:1712] conv/project <- conv/depthwise
I0124 03:47:36.262714    94 net.cpp:1686] conv/project -> conv/project
I0124 03:47:36.262753    94 net.cpp:331] Setting up conv/project
I0124 03:47:36.262763    94 net.cpp:338] Top shape: 64 16 150 150 (23040000)
I0124 03:47:36.262770    94 net.cpp:347] Memory required for data: 1382400064
I0124 03:47:36.262778    94 net.cpp:349] Biggest Memory of single blob: 184320000
I0124 03:47:36.262789    94 layer_factory.hpp:114] Creating layer conv_1/expand
I0124 03:47:36.262797    94 net.cpp:262] Creating Layer conv_1/expand
I0124 03:47:36.262802    94 net.cpp:1712] conv_1/expand <- conv/project
I0124 03:47:36.262809    94 net.cpp:1686] conv_1/expand -> conv_1/expand
I0124 03:47:36.262866    94 net.cpp:331] Setting up conv_1/expand
I0124 03:47:36.262879    94 net.cpp:338] Top shape: 64 96 150 150 (138240000)
I0124 03:47:36.262884    94 net.cpp:347] Memory required for data: 1935360064
I0124 03:47:36.262889    94 net.cpp:349] Biggest Memory of single blob: 552960000
I0124 03:47:36.262897    94 layer_factory.hpp:114] Creating layer conv_1/expand/relu
I0124 03:47:36.262904    94 net.cpp:262] Creating Layer conv_1/expand/relu
I0124 03:47:36.262909    94 net.cpp:1712] conv_1/expand/relu <- conv_1/expand
I0124 03:47:36.262917    94 net.cpp:1673] conv_1/expand/relu -> conv_1/expand (in-place)
I0124 03:47:36.262925    94 net.cpp:331] Setting up conv_1/expand/relu
I0124 03:47:36.262933    94 net.cpp:338] Top shape: 64 96 150 150 (138240000)
I0124 03:47:36.262938    94 net.cpp:347] Memory required for data: 2488320064
I0124 03:47:36.262943    94 net.cpp:349] Biggest Memory of single blob: 552960000
I0124 03:47:36.262948    94 layer_factory.hpp:114] Creating layer conv_1/depthwise
I0124 03:47:36.262956    94 net.cpp:262] Creating Layer conv_1/depthwise
I0124 03:47:36.262961    94 net.cpp:1712] conv_1/depthwise <- conv_1/expand
I0124 03:47:36.262969    94 net.cpp:1686] conv_1/depthwise -> conv_1/depthwise
I0124 03:47:36.263000    94 net.cpp:331] Setting up conv_1/depthwise
I0124 03:47:36.263008    94 net.cpp:338] Top shape: 64 96 75 75 (34560000)
I0124 03:47:36.263012    94 net.cpp:347] Memory required for data: 2626560064
I0124 03:47:36.263017    94 net.cpp:349] Biggest Memory of single blob: 552960000
I0124 03:47:36.263025    94 layer_factory.hpp:114] Creating layer conv_1/depthwise/relu
I0124 03:47:36.263033    94 net.cpp:262] Creating Layer conv_1/depthwise/relu
I0124 03:47:36.263038    94 net.cpp:1712] conv_1/depthwise/relu <- conv_1/depthwise
I0124 03:47:36.263046    94 net.cpp:1673] conv_1/depthwise/relu -> conv_1/depthwise (in-place)
I0124 03:47:36.263056    94 net.cpp:331] Setting up conv_1/depthwise/relu
I0124 03:47:36.263062    94 net.cpp:338] Top shape: 64 96 75 75 (34560000)
I0124 03:47:36.263067    94 net.cpp:347] Memory required for data: 2764800064
I0124 03:47:36.263072    94 net.cpp:349] Biggest Memory of single blob: 552960000
I0124 03:47:36.263077    94 layer_factory.hpp:114] Creating layer conv_1/project
I0124 03:47:36.263085    94 net.cpp:262] Creating Layer conv_1/project
I0124 03:47:36.263090    94 net.cpp:1712] conv_1/project <- conv_1/depthwise
I0124 03:47:36.263098    94 net.cpp:1686] conv_1/project -> conv_1/project
I0124 03:47:36.263139    94 net.cpp:331] Setting up conv_1/project
I0124 03:47:36.263156    94 net.cpp:338] Top shape: 64 24 75 75 (8640000)
I0124 03:47:36.263161    94 net.cpp:347] Memory required for data: 2799360064
I0124 03:47:36.263165    94 net.cpp:349] Biggest Memory of single blob: 552960000
I0124 03:47:36.263172    94 layer_factory.hpp:114] Creating layer conv_1/project_conv_1/project_0_split
I0124 03:47:36.263180    94 net.cpp:262] Creating Layer conv_1/project_conv_1/project_0_split
I0124 03:47:36.263186    94 net.cpp:1712] conv_1/project_conv_1/project_0_split <- conv_1/project
I0124 03:47:36.263195    94 net.cpp:1686] conv_1/project_conv_1/project_0_split -> conv_1/project_conv_1/project_0_split_0
I0124 03:47:36.263203    94 net.cpp:1686] conv_1/project_conv_1/project_0_split -> conv_1/project_conv_1/project_0_split_1
I0124 03:47:36.263212    94 net.cpp:331] Setting up conv_1/project_conv_1/project_0_split
I0124 03:47:36.263218    94 net.cpp:338] Top shape: 64 24 75 75 (8640000)
I0124 03:47:36.263224    94 net.cpp:338] Top shape: 64 24 75 75 (8640000)
I0124 03:47:36.263228    94 net.cpp:347] Memory required for data: 2868480064
I0124 03:47:36.263232    94 net.cpp:349] Biggest Memory of single blob: 552960000
I0124 03:47:36.263237    94 layer_factory.hpp:114] Creating layer conv_2/expand
I0124 03:47:36.263247    94 net.cpp:262] Creating Layer conv_2/expand
I0124 03:47:36.263252    94 net.cpp:1712] conv_2/expand <- conv_1/project_conv_1/project_0_split_0
I0124 03:47:36.263259    94 net.cpp:1686] conv_2/expand -> conv_2/expand
I0124 03:47:36.263306    94 net.cpp:331] Setting up conv_2/expand
I0124 03:47:36.263314    94 net.cpp:338] Top shape: 64 144 75 75 (51840000)
I0124 03:47:36.263319    94 net.cpp:347] Memory required for data: 3075840064
I0124 03:47:36.263325    94 net.cpp:349] Biggest Memory of single blob: 552960000
I0124 03:47:36.263332    94 layer_factory.hpp:114] Creating layer conv_2/expand/relu
I0124 03:47:36.263339    94 net.cpp:262] Creating Layer conv_2/expand/relu
I0124 03:47:36.263345    94 net.cpp:1712] conv_2/expand/relu <- conv_2/expand
I0124 03:47:36.263355    94 net.cpp:1673] conv_2/expand/relu -> conv_2/expand (in-place)
I0124 03:47:36.263362    94 net.cpp:331] Setting up conv_2/expand/relu
I0124 03:47:36.263368    94 net.cpp:338] Top shape: 64 144 75 75 (51840000)
I0124 03:47:36.263373    94 net.cpp:347] Memory required for data: 3283200064
I0124 03:47:36.263377    94 net.cpp:349] Biggest Memory of single blob: 552960000
I0124 03:47:36.263383    94 layer_factory.hpp:114] Creating layer conv_2/depthwise
I0124 03:47:36.263396    94 net.cpp:262] Creating Layer conv_2/depthwise
I0124 03:47:36.263401    94 net.cpp:1712] conv_2/depthwise <- conv_2/expand
I0124 03:47:36.263408    94 net.cpp:1686] conv_2/depthwise -> conv_2/depthwise
I0124 03:47:36.263448    94 net.cpp:331] Setting up conv_2/depthwise
I0124 03:47:36.263456    94 net.cpp:338] Top shape: 64 144 75 75 (51840000)
I0124 03:47:36.263461    94 net.cpp:347] Memory required for data: 3490560064
I0124 03:47:36.263466    94 net.cpp:349] Biggest Memory of single blob: 552960000
I0124 03:47:36.263473    94 layer_factory.hpp:114] Creating layer conv_2/depthwise/relu
I0124 03:47:36.263481    94 net.cpp:262] Creating Layer conv_2/depthwise/relu
I0124 03:47:36.263486    94 net.cpp:1712] conv_2/depthwise/relu <- conv_2/depthwise
I0124 03:47:36.263494    94 net.cpp:1673] conv_2/depthwise/relu -> conv_2/depthwise (in-place)
I0124 03:47:36.263500    94 net.cpp:331] Setting up conv_2/depthwise/relu
I0124 03:47:36.263506    94 net.cpp:338] Top shape: 64 144 75 75 (51840000)
I0124 03:47:36.263511    94 net.cpp:347] Memory required for data: 3697920064
I0124 03:47:36.263516    94 net.cpp:349] Biggest Memory of single blob: 552960000
I0124 03:47:36.263522    94 layer_factory.hpp:114] Creating layer conv_2/project
I0124 03:47:36.263530    94 net.cpp:262] Creating Layer conv_2/project
I0124 03:47:36.263535    94 net.cpp:1712] conv_2/project <- conv_2/depthwise
I0124 03:47:36.263541    94 net.cpp:1686] conv_2/project -> conv_2/project
I0124 03:47:36.263599    94 net.cpp:331] Setting up conv_2/project
I0124 03:47:36.263608    94 net.cpp:338] Top shape: 64 24 75 75 (8640000)
I0124 03:47:36.263622    94 net.cpp:347] Memory required for data: 3732480064
I0124 03:47:36.263629    94 net.cpp:349] Biggest Memory of single blob: 552960000
I0124 03:47:36.263643    94 layer_factory.hpp:114] Creating layer conv_2/sum
I0124 03:47:36.263651    94 net.cpp:262] Creating Layer conv_2/sum
I0124 03:47:36.263656    94 net.cpp:1712] conv_2/sum <- conv_1/project_conv_1/project_0_split_1
I0124 03:47:36.263660    94 net.cpp:1712] conv_2/sum <- conv_2/project
I0124 03:47:36.263666    94 net.cpp:1686] conv_2/sum -> conv_2
I0124 03:47:36.263676    94 net.cpp:331] Setting up conv_2/sum
I0124 03:47:36.263682    94 net.cpp:338] Top shape: 64 24 75 75 (8640000)
I0124 03:47:36.263687    94 net.cpp:347] Memory required for data: 3767040064
I0124 03:47:36.263691    94 net.cpp:349] Biggest Memory of single blob: 552960000
I0124 03:47:36.263696    94 layer_factory.hpp:114] Creating layer conv_3/expand
I0124 03:47:36.263706    94 net.cpp:262] Creating Layer conv_3/expand
I0124 03:47:36.263711    94 net.cpp:1712] conv_3/expand <- conv_2
I0124 03:47:36.263720    94 net.cpp:1686] conv_3/expand -> conv_3/expand
I0124 03:47:36.263784    94 net.cpp:331] Setting up conv_3/expand
I0124 03:47:36.263792    94 net.cpp:338] Top shape: 64 144 75 75 (51840000)
I0124 03:47:36.263797    94 net.cpp:347] Memory required for data: 3974400064
I0124 03:47:36.263801    94 net.cpp:349] Biggest Memory of single blob: 552960000
I0124 03:47:36.263808    94 layer_factory.hpp:114] Creating layer conv_3/expand/relu
I0124 03:47:36.263815    94 net.cpp:262] Creating Layer conv_3/expand/relu
I0124 03:47:36.263821    94 net.cpp:1712] conv_3/expand/relu <- conv_3/expand
I0124 03:47:36.263828    94 net.cpp:1673] conv_3/expand/relu -> conv_3/expand (in-place)
I0124 03:47:36.263834    94 net.cpp:331] Setting up conv_3/expand/relu
I0124 03:47:36.263840    94 net.cpp:338] Top shape: 64 144 75 75 (51840000)
I0124 03:47:36.263844    94 net.cpp:347] Memory required for data: 4181760064
I0124 03:47:36.263849    94 net.cpp:349] Biggest Memory of single blob: 552960000
I0124 03:47:36.263854    94 layer_factory.hpp:114] Creating layer conv_3/depthwise
I0124 03:47:36.263867    94 net.cpp:262] Creating Layer conv_3/depthwise
I0124 03:47:36.263871    94 net.cpp:1712] conv_3/depthwise <- conv_3/expand
I0124 03:47:36.263880    94 net.cpp:1686] conv_3/depthwise -> conv_3/depthwise
I0124 03:47:36.263914    94 net.cpp:331] Setting up conv_3/depthwise
I0124 03:47:36.263922    94 net.cpp:338] Top shape: 64 144 38 38 (13307904)
I0124 03:47:36.263926    94 net.cpp:347] Memory required for data: 4234991680
I0124 03:47:36.263931    94 net.cpp:349] Biggest Memory of single blob: 552960000
I0124 03:47:36.263937    94 layer_factory.hpp:114] Creating layer conv_3/depthwise/relu
I0124 03:47:36.263944    94 net.cpp:262] Creating Layer conv_3/depthwise/relu
I0124 03:47:36.263950    94 net.cpp:1712] conv_3/depthwise/relu <- conv_3/depthwise
I0124 03:47:36.263957    94 net.cpp:1673] conv_3/depthwise/relu -> conv_3/depthwise (in-place)
I0124 03:47:36.263964    94 net.cpp:331] Setting up conv_3/depthwise/relu
I0124 03:47:36.263970    94 net.cpp:338] Top shape: 64 144 38 38 (13307904)
I0124 03:47:36.263974    94 net.cpp:347] Memory required for data: 4288223296
I0124 03:47:36.263980    94 net.cpp:349] Biggest Memory of single blob: 552960000
I0124 03:47:36.263984    94 layer_factory.hpp:114] Creating layer conv_3/project
I0124 03:47:36.263994    94 net.cpp:262] Creating Layer conv_3/project
I0124 03:47:36.263999    94 net.cpp:1712] conv_3/project <- conv_3/depthwise
I0124 03:47:36.264005    94 net.cpp:1686] conv_3/project -> conv_3/project
I0124 03:47:36.264060    94 net.cpp:331] Setting up conv_3/project
I0124 03:47:36.264066    94 net.cpp:338] Top shape: 64 32 38 38 (2957312)
I0124 03:47:36.264071    94 net.cpp:347] Memory required for data: 4300052544
I0124 03:47:36.264075    94 net.cpp:349] Biggest Memory of single blob: 552960000
I0124 03:47:36.264081    94 layer_factory.hpp:114] Creating layer conv_3/project_conv_3/project_0_split
I0124 03:47:36.264097    94 net.cpp:262] Creating Layer conv_3/project_conv_3/project_0_split
I0124 03:47:36.264103    94 net.cpp:1712] conv_3/project_conv_3/project_0_split <- conv_3/project
I0124 03:47:36.264111    94 net.cpp:1686] conv_3/project_conv_3/project_0_split -> conv_3/project_conv_3/project_0_split_0
I0124 03:47:36.264117    94 net.cpp:1686] conv_3/project_conv_3/project_0_split -> conv_3/project_conv_3/project_0_split_1
I0124 03:47:36.264127    94 net.cpp:331] Setting up conv_3/project_conv_3/project_0_split
I0124 03:47:36.264132    94 net.cpp:338] Top shape: 64 32 38 38 (2957312)
I0124 03:47:36.264138    94 net.cpp:338] Top shape: 64 32 38 38 (2957312)
I0124 03:47:36.264142    94 net.cpp:347] Memory required for data: 4323711040
I0124 03:47:36.264147    94 net.cpp:349] Biggest Memory of single blob: 552960000
I0124 03:47:36.264153    94 layer_factory.hpp:114] Creating layer conv_4/expand
I0124 03:47:36.264163    94 net.cpp:262] Creating Layer conv_4/expand
I0124 03:47:36.264166    94 net.cpp:1712] conv_4/expand <- conv_3/project_conv_3/project_0_split_0
I0124 03:47:36.264175    94 net.cpp:1686] conv_4/expand -> conv_4/expand
I0124 03:47:36.264245    94 net.cpp:331] Setting up conv_4/expand
I0124 03:47:36.264251    94 net.cpp:338] Top shape: 64 192 38 38 (17743872)
I0124 03:47:36.264256    94 net.cpp:347] Memory required for data: 4394686528
I0124 03:47:36.264259    94 net.cpp:349] Biggest Memory of single blob: 552960000
I0124 03:47:36.264266    94 layer_factory.hpp:114] Creating layer conv_4/expand/relu
I0124 03:47:36.264276    94 net.cpp:262] Creating Layer conv_4/expand/relu
I0124 03:47:36.264281    94 net.cpp:1712] conv_4/expand/relu <- conv_4/expand
I0124 03:47:36.264287    94 net.cpp:1673] conv_4/expand/relu -> conv_4/expand (in-place)
I0124 03:47:36.264294    94 net.cpp:331] Setting up conv_4/expand/relu
I0124 03:47:36.264299    94 net.cpp:338] Top shape: 64 192 38 38 (17743872)
I0124 03:47:36.264303    94 net.cpp:347] Memory required for data: 4465662016
I0124 03:47:36.264308    94 net.cpp:349] Biggest Memory of single blob: 552960000
I0124 03:47:36.264314    94 layer_factory.hpp:114] Creating layer conv_4/depthwise
I0124 03:47:36.264323    94 net.cpp:262] Creating Layer conv_4/depthwise
I0124 03:47:36.264328    94 net.cpp:1712] conv_4/depthwise <- conv_4/expand
I0124 03:47:36.264335    94 net.cpp:1686] conv_4/depthwise -> conv_4/depthwise
I0124 03:47:36.264372    94 net.cpp:331] Setting up conv_4/depthwise
I0124 03:47:36.264380    94 net.cpp:338] Top shape: 64 192 38 38 (17743872)
I0124 03:47:36.264384    94 net.cpp:347] Memory required for data: 4536637504
I0124 03:47:36.264387    94 net.cpp:349] Biggest Memory of single blob: 552960000
I0124 03:47:36.264392    94 layer_factory.hpp:114] Creating layer conv_4/depthwise/relu
I0124 03:47:36.264400    94 net.cpp:262] Creating Layer conv_4/depthwise/relu
I0124 03:47:36.264405    94 net.cpp:1712] conv_4/depthwise/relu <- conv_4/depthwise
I0124 03:47:36.264410    94 net.cpp:1673] conv_4/depthwise/relu -> conv_4/depthwise (in-place)
I0124 03:47:36.264417    94 net.cpp:331] Setting up conv_4/depthwise/relu
I0124 03:47:36.264423    94 net.cpp:338] Top shape: 64 192 38 38 (17743872)
I0124 03:47:36.264427    94 net.cpp:347] Memory required for data: 4607612992
I0124 03:47:36.264432    94 net.cpp:349] Biggest Memory of single blob: 552960000
I0124 03:47:36.264437    94 layer_factory.hpp:114] Creating layer conv_4/project
I0124 03:47:36.264449    94 net.cpp:262] Creating Layer conv_4/project
I0124 03:47:36.264454    94 net.cpp:1712] conv_4/project <- conv_4/depthwise
I0124 03:47:36.264461    94 net.cpp:1686] conv_4/project -> conv_4/project
I0124 03:47:36.264528    94 net.cpp:331] Setting up conv_4/project
I0124 03:47:36.264536    94 net.cpp:338] Top shape: 64 32 38 38 (2957312)
I0124 03:47:36.264541    94 net.cpp:347] Memory required for data: 4619442240
I0124 03:47:36.264545    94 net.cpp:349] Biggest Memory of single blob: 552960000
I0124 03:47:36.264551    94 layer_factory.hpp:114] Creating layer conv_4/sum
I0124 03:47:36.264559    94 net.cpp:262] Creating Layer conv_4/sum
I0124 03:47:36.264570    94 net.cpp:1712] conv_4/sum <- conv_3/project_conv_3/project_0_split_1
I0124 03:47:36.264576    94 net.cpp:1712] conv_4/sum <- conv_4/project
I0124 03:47:36.264583    94 net.cpp:1686] conv_4/sum -> conv_4
I0124 03:47:36.264591    94 net.cpp:331] Setting up conv_4/sum
I0124 03:47:36.264597    94 net.cpp:338] Top shape: 64 32 38 38 (2957312)
I0124 03:47:36.264602    94 net.cpp:347] Memory required for data: 4631271488
I0124 03:47:36.264605    94 net.cpp:349] Biggest Memory of single blob: 552960000
I0124 03:47:36.264611    94 layer_factory.hpp:114] Creating layer conv_4_conv_4/sum_0_split
I0124 03:47:36.264621    94 net.cpp:262] Creating Layer conv_4_conv_4/sum_0_split
I0124 03:47:36.264627    94 net.cpp:1712] conv_4_conv_4/sum_0_split <- conv_4
I0124 03:47:36.264633    94 net.cpp:1686] conv_4_conv_4/sum_0_split -> conv_4_conv_4/sum_0_split_0
I0124 03:47:36.264640    94 net.cpp:1686] conv_4_conv_4/sum_0_split -> conv_4_conv_4/sum_0_split_1
I0124 03:47:36.264649    94 net.cpp:331] Setting up conv_4_conv_4/sum_0_split
I0124 03:47:36.264655    94 net.cpp:338] Top shape: 64 32 38 38 (2957312)
I0124 03:47:36.264660    94 net.cpp:338] Top shape: 64 32 38 38 (2957312)
I0124 03:47:36.264664    94 net.cpp:347] Memory required for data: 4654929984
I0124 03:47:36.264669    94 net.cpp:349] Biggest Memory of single blob: 552960000
I0124 03:47:36.264675    94 layer_factory.hpp:114] Creating layer conv_5/expand
I0124 03:47:36.264688    94 net.cpp:262] Creating Layer conv_5/expand
I0124 03:47:36.264693    94 net.cpp:1712] conv_5/expand <- conv_4_conv_4/sum_0_split_0
I0124 03:47:36.264699    94 net.cpp:1686] conv_5/expand -> conv_5/expand
I0124 03:47:36.264770    94 net.cpp:331] Setting up conv_5/expand
I0124 03:47:36.264777    94 net.cpp:338] Top shape: 64 192 38 38 (17743872)
I0124 03:47:36.264782    94 net.cpp:347] Memory required for data: 4725905472
I0124 03:47:36.264787    94 net.cpp:349] Biggest Memory of single blob: 552960000
I0124 03:47:36.264793    94 layer_factory.hpp:114] Creating layer conv_5/expand/relu
I0124 03:47:36.264802    94 net.cpp:262] Creating Layer conv_5/expand/relu
I0124 03:47:36.264806    94 net.cpp:1712] conv_5/expand/relu <- conv_5/expand
I0124 03:47:36.264813    94 net.cpp:1673] conv_5/expand/relu -> conv_5/expand (in-place)
I0124 03:47:36.264822    94 net.cpp:331] Setting up conv_5/expand/relu
I0124 03:47:36.264828    94 net.cpp:338] Top shape: 64 192 38 38 (17743872)
I0124 03:47:36.264833    94 net.cpp:347] Memory required for data: 4796880960
I0124 03:47:36.264837    94 net.cpp:349] Biggest Memory of single blob: 552960000
I0124 03:47:36.264842    94 layer_factory.hpp:114] Creating layer conv_5/depthwise
I0124 03:47:36.264850    94 net.cpp:262] Creating Layer conv_5/depthwise
I0124 03:47:36.264855    94 net.cpp:1712] conv_5/depthwise <- conv_5/expand
I0124 03:47:36.264863    94 net.cpp:1686] conv_5/depthwise -> conv_5/depthwise
I0124 03:47:36.264899    94 net.cpp:331] Setting up conv_5/depthwise
I0124 03:47:36.264906    94 net.cpp:338] Top shape: 64 192 38 38 (17743872)
I0124 03:47:36.264910    94 net.cpp:347] Memory required for data: 4867856448
I0124 03:47:36.264915    94 net.cpp:349] Biggest Memory of single blob: 552960000
I0124 03:47:36.264925    94 layer_factory.hpp:114] Creating layer conv_5/depthwise/relu
I0124 03:47:36.264932    94 net.cpp:262] Creating Layer conv_5/depthwise/relu
I0124 03:47:36.264938    94 net.cpp:1712] conv_5/depthwise/relu <- conv_5/depthwise
I0124 03:47:36.264947    94 net.cpp:1673] conv_5/depthwise/relu -> conv_5/depthwise (in-place)
I0124 03:47:36.264957    94 net.cpp:331] Setting up conv_5/depthwise/relu
I0124 03:47:36.264966    94 net.cpp:338] Top shape: 64 192 38 38 (17743872)
I0124 03:47:36.264972    94 net.cpp:347] Memory required for data: 4938831936
I0124 03:47:36.264979    94 net.cpp:349] Biggest Memory of single blob: 552960000
I0124 03:47:36.264986    94 layer_factory.hpp:114] Creating layer conv_5/project
I0124 03:47:36.264999    94 net.cpp:262] Creating Layer conv_5/project
I0124 03:47:36.265007    94 net.cpp:1712] conv_5/project <- conv_5/depthwise
I0124 03:47:36.265025    94 net.cpp:1686] conv_5/project -> conv_5/project
I0124 03:47:36.265103    94 net.cpp:331] Setting up conv_5/project
I0124 03:47:36.265111    94 net.cpp:338] Top shape: 64 32 38 38 (2957312)
I0124 03:47:36.265117    94 net.cpp:347] Memory required for data: 4950661184
I0124 03:47:36.265123    94 net.cpp:349] Biggest Memory of single blob: 552960000
I0124 03:47:36.265131    94 layer_factory.hpp:114] Creating layer conv_5/sum
I0124 03:47:36.265142    94 net.cpp:262] Creating Layer conv_5/sum
I0124 03:47:36.265149    94 net.cpp:1712] conv_5/sum <- conv_4_conv_4/sum_0_split_1
I0124 03:47:36.265158    94 net.cpp:1712] conv_5/sum <- conv_5/project
I0124 03:47:36.265170    94 net.cpp:1686] conv_5/sum -> conv_5
I0124 03:47:36.265180    94 net.cpp:331] Setting up conv_5/sum
I0124 03:47:36.265187    94 net.cpp:338] Top shape: 64 32 38 38 (2957312)
I0124 03:47:36.265194    94 net.cpp:347] Memory required for data: 4962490432
I0124 03:47:36.265199    94 net.cpp:349] Biggest Memory of single blob: 552960000
I0124 03:47:36.265205    94 layer_factory.hpp:114] Creating layer conv_6/expand
I0124 03:47:36.265220    94 net.cpp:262] Creating Layer conv_6/expand
I0124 03:47:36.265226    94 net.cpp:1712] conv_6/expand <- conv_5
I0124 03:47:36.265236    94 net.cpp:1686] conv_6/expand -> conv_6/expand
I0124 03:47:36.265311    94 net.cpp:331] Setting up conv_6/expand
I0124 03:47:36.265318    94 net.cpp:338] Top shape: 64 192 38 38 (17743872)
I0124 03:47:36.265324    94 net.cpp:347] Memory required for data: 5033465920
I0124 03:47:36.265331    94 net.cpp:349] Biggest Memory of single blob: 552960000
I0124 03:47:36.265341    94 layer_factory.hpp:114] Creating layer conv_6/expand/relu
I0124 03:47:36.265349    94 net.cpp:262] Creating Layer conv_6/expand/relu
I0124 03:47:36.265357    94 net.cpp:1712] conv_6/expand/relu <- conv_6/expand
I0124 03:47:36.265370    94 net.cpp:1673] conv_6/expand/relu -> conv_6/expand (in-place)
I0124 03:47:36.265381    94 net.cpp:331] Setting up conv_6/expand/relu
I0124 03:47:36.265391    94 net.cpp:338] Top shape: 64 192 38 38 (17743872)
I0124 03:47:36.265398    94 net.cpp:347] Memory required for data: 5104441408
I0124 03:47:36.265405    94 net.cpp:349] Biggest Memory of single blob: 552960000
I0124 03:47:36.265413    94 layer_factory.hpp:114] Creating layer conv_6/depthwise
I0124 03:47:36.265425    94 net.cpp:262] Creating Layer conv_6/depthwise
I0124 03:47:36.265432    94 net.cpp:1712] conv_6/depthwise <- conv_6/expand
I0124 03:47:36.265444    94 net.cpp:1686] conv_6/depthwise -> conv_6/depthwise
I0124 03:47:36.265487    94 net.cpp:331] Setting up conv_6/depthwise
I0124 03:47:36.265496    94 net.cpp:338] Top shape: 64 192 19 19 (4435968)
I0124 03:47:36.265504    94 net.cpp:347] Memory required for data: 5122185280
I0124 03:47:36.265511    94 net.cpp:349] Biggest Memory of single blob: 552960000
I0124 03:47:36.265517    94 layer_factory.hpp:114] Creating layer conv_6/depthwise/relu
I0124 03:47:36.265527    94 net.cpp:262] Creating Layer conv_6/depthwise/relu
I0124 03:47:36.265532    94 net.cpp:1712] conv_6/depthwise/relu <- conv_6/depthwise
I0124 03:47:36.265537    94 net.cpp:1673] conv_6/depthwise/relu -> conv_6/depthwise (in-place)
I0124 03:47:36.265545    94 net.cpp:331] Setting up conv_6/depthwise/relu
I0124 03:47:36.265550    94 net.cpp:338] Top shape: 64 192 19 19 (4435968)
I0124 03:47:36.265554    94 net.cpp:347] Memory required for data: 5139929152
I0124 03:47:36.265558    94 net.cpp:349] Biggest Memory of single blob: 552960000
I0124 03:47:36.265563    94 layer_factory.hpp:114] Creating layer conv_6/project
I0124 03:47:36.265573    94 net.cpp:262] Creating Layer conv_6/project
I0124 03:47:36.265578    94 net.cpp:1712] conv_6/project <- conv_6/depthwise
I0124 03:47:36.265585    94 net.cpp:1686] conv_6/project -> conv_6/project
I0124 03:47:36.265713    94 net.cpp:331] Setting up conv_6/project
I0124 03:47:36.265720    94 net.cpp:338] Top shape: 64 64 19 19 (1478656)
I0124 03:47:36.265725    94 net.cpp:347] Memory required for data: 5145843776
I0124 03:47:36.265729    94 net.cpp:349] Biggest Memory of single blob: 552960000
I0124 03:47:36.265745    94 layer_factory.hpp:114] Creating layer conv_6/project_conv_6/project_0_split
I0124 03:47:36.265754    94 net.cpp:262] Creating Layer conv_6/project_conv_6/project_0_split
I0124 03:47:36.265759    94 net.cpp:1712] conv_6/project_conv_6/project_0_split <- conv_6/project
I0124 03:47:36.265765    94 net.cpp:1686] conv_6/project_conv_6/project_0_split -> conv_6/project_conv_6/project_0_split_0
I0124 03:47:36.265774    94 net.cpp:1686] conv_6/project_conv_6/project_0_split -> conv_6/project_conv_6/project_0_split_1
I0124 03:47:36.265782    94 net.cpp:331] Setting up conv_6/project_conv_6/project_0_split
I0124 03:47:36.265789    94 net.cpp:338] Top shape: 64 64 19 19 (1478656)
I0124 03:47:36.265797    94 net.cpp:338] Top shape: 64 64 19 19 (1478656)
I0124 03:47:36.265803    94 net.cpp:347] Memory required for data: 5157673024
I0124 03:47:36.265810    94 net.cpp:349] Biggest Memory of single blob: 552960000
I0124 03:47:36.265815    94 layer_factory.hpp:114] Creating layer conv_7/expand
I0124 03:47:36.265827    94 net.cpp:262] Creating Layer conv_7/expand
I0124 03:47:36.265834    94 net.cpp:1712] conv_7/expand <- conv_6/project_conv_6/project_0_split_0
I0124 03:47:36.265843    94 net.cpp:1686] conv_7/expand -> conv_7/expand
I0124 03:47:36.266077    94 net.cpp:331] Setting up conv_7/expand
I0124 03:47:36.266085    94 net.cpp:338] Top shape: 64 384 19 19 (8871936)
I0124 03:47:36.266089    94 net.cpp:347] Memory required for data: 5193160768
I0124 03:47:36.266093    94 net.cpp:349] Biggest Memory of single blob: 552960000
I0124 03:47:36.266100    94 layer_factory.hpp:114] Creating layer conv_7/expand/relu
I0124 03:47:36.266110    94 net.cpp:262] Creating Layer conv_7/expand/relu
I0124 03:47:36.266117    94 net.cpp:1712] conv_7/expand/relu <- conv_7/expand
I0124 03:47:36.266125    94 net.cpp:1673] conv_7/expand/relu -> conv_7/expand (in-place)
I0124 03:47:36.266134    94 net.cpp:331] Setting up conv_7/expand/relu
I0124 03:47:36.266139    94 net.cpp:338] Top shape: 64 384 19 19 (8871936)
I0124 03:47:36.266144    94 net.cpp:347] Memory required for data: 5228648512
I0124 03:47:36.266146    94 net.cpp:349] Biggest Memory of single blob: 552960000
I0124 03:47:36.266150    94 layer_factory.hpp:114] Creating layer conv_7/depthwise
I0124 03:47:36.266160    94 net.cpp:262] Creating Layer conv_7/depthwise
I0124 03:47:36.266165    94 net.cpp:1712] conv_7/depthwise <- conv_7/expand
I0124 03:47:36.266172    94 net.cpp:1686] conv_7/depthwise -> conv_7/depthwise
I0124 03:47:36.266227    94 net.cpp:331] Setting up conv_7/depthwise
I0124 03:47:36.266234    94 net.cpp:338] Top shape: 64 384 19 19 (8871936)
I0124 03:47:36.266238    94 net.cpp:347] Memory required for data: 5264136256
I0124 03:47:36.266242    94 net.cpp:349] Biggest Memory of single blob: 552960000
I0124 03:47:36.266249    94 layer_factory.hpp:114] Creating layer conv_7/depthwise/relu
I0124 03:47:36.266255    94 net.cpp:262] Creating Layer conv_7/depthwise/relu
I0124 03:47:36.266260    94 net.cpp:1712] conv_7/depthwise/relu <- conv_7/depthwise
I0124 03:47:36.266268    94 net.cpp:1673] conv_7/depthwise/relu -> conv_7/depthwise (in-place)
I0124 03:47:36.266278    94 net.cpp:331] Setting up conv_7/depthwise/relu
I0124 03:47:36.266285    94 net.cpp:338] Top shape: 64 384 19 19 (8871936)
I0124 03:47:36.266290    94 net.cpp:347] Memory required for data: 5299624000
I0124 03:47:36.266294    94 net.cpp:349] Biggest Memory of single blob: 552960000
I0124 03:47:36.266299    94 layer_factory.hpp:114] Creating layer conv_7/project
I0124 03:47:36.266307    94 net.cpp:262] Creating Layer conv_7/project
I0124 03:47:36.266312    94 net.cpp:1712] conv_7/project <- conv_7/depthwise
I0124 03:47:36.266321    94 net.cpp:1686] conv_7/project -> conv_7/project
I0124 03:47:36.266553    94 net.cpp:331] Setting up conv_7/project
I0124 03:47:36.266561    94 net.cpp:338] Top shape: 64 64 19 19 (1478656)
I0124 03:47:36.266566    94 net.cpp:347] Memory required for data: 5305538624
I0124 03:47:36.266571    94 net.cpp:349] Biggest Memory of single blob: 552960000
I0124 03:47:36.266585    94 layer_factory.hpp:114] Creating layer conv_7/sum
I0124 03:47:36.266597    94 net.cpp:262] Creating Layer conv_7/sum
I0124 03:47:36.266602    94 net.cpp:1712] conv_7/sum <- conv_6/project_conv_6/project_0_split_1
I0124 03:47:36.266608    94 net.cpp:1712] conv_7/sum <- conv_7/project
I0124 03:47:36.266613    94 net.cpp:1686] conv_7/sum -> conv_7
I0124 03:47:36.266621    94 net.cpp:331] Setting up conv_7/sum
I0124 03:47:36.266626    94 net.cpp:338] Top shape: 64 64 19 19 (1478656)
I0124 03:47:36.266629    94 net.cpp:347] Memory required for data: 5311453248
I0124 03:47:36.266634    94 net.cpp:349] Biggest Memory of single blob: 552960000
I0124 03:47:36.266639    94 layer_factory.hpp:114] Creating layer conv_7_conv_7/sum_0_split
I0124 03:47:36.266649    94 net.cpp:262] Creating Layer conv_7_conv_7/sum_0_split
I0124 03:47:36.266654    94 net.cpp:1712] conv_7_conv_7/sum_0_split <- conv_7
I0124 03:47:36.266660    94 net.cpp:1686] conv_7_conv_7/sum_0_split -> conv_7_conv_7/sum_0_split_0
I0124 03:47:36.266667    94 net.cpp:1686] conv_7_conv_7/sum_0_split -> conv_7_conv_7/sum_0_split_1
I0124 03:47:36.266675    94 net.cpp:331] Setting up conv_7_conv_7/sum_0_split
I0124 03:47:36.266680    94 net.cpp:338] Top shape: 64 64 19 19 (1478656)
I0124 03:47:36.266686    94 net.cpp:338] Top shape: 64 64 19 19 (1478656)
I0124 03:47:36.266691    94 net.cpp:347] Memory required for data: 5323282496
I0124 03:47:36.266695    94 net.cpp:349] Biggest Memory of single blob: 552960000
I0124 03:47:36.266700    94 layer_factory.hpp:114] Creating layer conv_8/expand
I0124 03:47:36.266712    94 net.cpp:262] Creating Layer conv_8/expand
I0124 03:47:36.266721    94 net.cpp:1712] conv_8/expand <- conv_7_conv_7/sum_0_split_0
I0124 03:47:36.266728    94 net.cpp:1686] conv_8/expand -> conv_8/expand
I0124 03:47:36.266963    94 net.cpp:331] Setting up conv_8/expand
I0124 03:47:36.266970    94 net.cpp:338] Top shape: 64 384 19 19 (8871936)
I0124 03:47:36.266974    94 net.cpp:347] Memory required for data: 5358770240
I0124 03:47:36.266979    94 net.cpp:349] Biggest Memory of single blob: 552960000
I0124 03:47:36.266985    94 layer_factory.hpp:114] Creating layer conv_8/expand/relu
I0124 03:47:36.266994    94 net.cpp:262] Creating Layer conv_8/expand/relu
I0124 03:47:36.266999    94 net.cpp:1712] conv_8/expand/relu <- conv_8/expand
I0124 03:47:36.267006    94 net.cpp:1673] conv_8/expand/relu -> conv_8/expand (in-place)
I0124 03:47:36.267014    94 net.cpp:331] Setting up conv_8/expand/relu
I0124 03:47:36.267021    94 net.cpp:338] Top shape: 64 384 19 19 (8871936)
I0124 03:47:36.267027    94 net.cpp:347] Memory required for data: 5394257984
I0124 03:47:36.267035    94 net.cpp:349] Biggest Memory of single blob: 552960000
I0124 03:47:36.267040    94 layer_factory.hpp:114] Creating layer conv_8/depthwise
I0124 03:47:36.267055    94 net.cpp:262] Creating Layer conv_8/depthwise
I0124 03:47:36.267060    94 net.cpp:1712] conv_8/depthwise <- conv_8/expand
I0124 03:47:36.267073    94 net.cpp:1686] conv_8/depthwise -> conv_8/depthwise
I0124 03:47:36.267135    94 net.cpp:331] Setting up conv_8/depthwise
I0124 03:47:36.267148    94 net.cpp:338] Top shape: 64 384 19 19 (8871936)
I0124 03:47:36.267153    94 net.cpp:347] Memory required for data: 5429745728
I0124 03:47:36.267158    94 net.cpp:349] Biggest Memory of single blob: 552960000
I0124 03:47:36.267164    94 layer_factory.hpp:114] Creating layer conv_8/depthwise/relu
I0124 03:47:36.267171    94 net.cpp:262] Creating Layer conv_8/depthwise/relu
I0124 03:47:36.267176    94 net.cpp:1712] conv_8/depthwise/relu <- conv_8/depthwise
I0124 03:47:36.267184    94 net.cpp:1673] conv_8/depthwise/relu -> conv_8/depthwise (in-place)
I0124 03:47:36.267191    94 net.cpp:331] Setting up conv_8/depthwise/relu
I0124 03:47:36.267197    94 net.cpp:338] Top shape: 64 384 19 19 (8871936)
I0124 03:47:36.267201    94 net.cpp:347] Memory required for data: 5465233472
I0124 03:47:36.267206    94 net.cpp:349] Biggest Memory of single blob: 552960000
I0124 03:47:36.267212    94 layer_factory.hpp:114] Creating layer conv_8/project
I0124 03:47:36.267227    94 net.cpp:262] Creating Layer conv_8/project
I0124 03:47:36.267235    94 net.cpp:1712] conv_8/project <- conv_8/depthwise
I0124 03:47:36.267246    94 net.cpp:1686] conv_8/project -> conv_8/project
I0124 03:47:36.267498    94 net.cpp:331] Setting up conv_8/project
I0124 03:47:36.267506    94 net.cpp:338] Top shape: 64 64 19 19 (1478656)
I0124 03:47:36.267511    94 net.cpp:347] Memory required for data: 5471148096
I0124 03:47:36.267515    94 net.cpp:349] Biggest Memory of single blob: 552960000
I0124 03:47:36.267522    94 layer_factory.hpp:114] Creating layer conv_8/sum
I0124 03:47:36.267531    94 net.cpp:262] Creating Layer conv_8/sum
I0124 03:47:36.267535    94 net.cpp:1712] conv_8/sum <- conv_7_conv_7/sum_0_split_1
I0124 03:47:36.267541    94 net.cpp:1712] conv_8/sum <- conv_8/project
I0124 03:47:36.267547    94 net.cpp:1686] conv_8/sum -> conv_8
I0124 03:47:36.267556    94 net.cpp:331] Setting up conv_8/sum
I0124 03:47:36.267562    94 net.cpp:338] Top shape: 64 64 19 19 (1478656)
I0124 03:47:36.267566    94 net.cpp:347] Memory required for data: 5477062720
I0124 03:47:36.267571    94 net.cpp:349] Biggest Memory of single blob: 552960000
I0124 03:47:36.267577    94 layer_factory.hpp:114] Creating layer conv_8_conv_8/sum_0_split
I0124 03:47:36.267587    94 net.cpp:262] Creating Layer conv_8_conv_8/sum_0_split
I0124 03:47:36.267594    94 net.cpp:1712] conv_8_conv_8/sum_0_split <- conv_8
I0124 03:47:36.267602    94 net.cpp:1686] conv_8_conv_8/sum_0_split -> conv_8_conv_8/sum_0_split_0
I0124 03:47:36.267609    94 net.cpp:1686] conv_8_conv_8/sum_0_split -> conv_8_conv_8/sum_0_split_1
I0124 03:47:36.267618    94 net.cpp:331] Setting up conv_8_conv_8/sum_0_split
I0124 03:47:36.267628    94 net.cpp:338] Top shape: 64 64 19 19 (1478656)
I0124 03:47:36.267638    94 net.cpp:338] Top shape: 64 64 19 19 (1478656)
I0124 03:47:36.267644    94 net.cpp:347] Memory required for data: 5488891968
I0124 03:47:36.267647    94 net.cpp:349] Biggest Memory of single blob: 552960000
I0124 03:47:36.267652    94 layer_factory.hpp:114] Creating layer conv_9/expand
I0124 03:47:36.267660    94 net.cpp:262] Creating Layer conv_9/expand
I0124 03:47:36.267665    94 net.cpp:1712] conv_9/expand <- conv_8_conv_8/sum_0_split_0
I0124 03:47:36.267673    94 net.cpp:1686] conv_9/expand -> conv_9/expand
I0124 03:47:36.267912    94 net.cpp:331] Setting up conv_9/expand
I0124 03:47:36.267922    94 net.cpp:338] Top shape: 64 384 19 19 (8871936)
I0124 03:47:36.267927    94 net.cpp:347] Memory required for data: 5524379712
I0124 03:47:36.267932    94 net.cpp:349] Biggest Memory of single blob: 552960000
I0124 03:47:36.267942    94 layer_factory.hpp:114] Creating layer conv_9/expand/relu
I0124 03:47:36.267951    94 net.cpp:262] Creating Layer conv_9/expand/relu
I0124 03:47:36.267957    94 net.cpp:1712] conv_9/expand/relu <- conv_9/expand
I0124 03:47:36.267966    94 net.cpp:1673] conv_9/expand/relu -> conv_9/expand (in-place)
I0124 03:47:36.267977    94 net.cpp:331] Setting up conv_9/expand/relu
I0124 03:47:36.267985    94 net.cpp:338] Top shape: 64 384 19 19 (8871936)
I0124 03:47:36.267990    94 net.cpp:347] Memory required for data: 5559867456
I0124 03:47:36.267994    94 net.cpp:349] Biggest Memory of single blob: 552960000
I0124 03:47:36.267998    94 layer_factory.hpp:114] Creating layer conv_9/depthwise
I0124 03:47:36.268008    94 net.cpp:262] Creating Layer conv_9/depthwise
I0124 03:47:36.268013    94 net.cpp:1712] conv_9/depthwise <- conv_9/expand
I0124 03:47:36.268020    94 net.cpp:1686] conv_9/depthwise -> conv_9/depthwise
I0124 03:47:36.268085    94 net.cpp:331] Setting up conv_9/depthwise
I0124 03:47:36.268092    94 net.cpp:338] Top shape: 64 384 19 19 (8871936)
I0124 03:47:36.268096    94 net.cpp:347] Memory required for data: 5595355200
I0124 03:47:36.268100    94 net.cpp:349] Biggest Memory of single blob: 552960000
I0124 03:47:36.268107    94 layer_factory.hpp:114] Creating layer conv_9/depthwise/relu
I0124 03:47:36.268116    94 net.cpp:262] Creating Layer conv_9/depthwise/relu
I0124 03:47:36.268131    94 net.cpp:1712] conv_9/depthwise/relu <- conv_9/depthwise
I0124 03:47:36.268142    94 net.cpp:1673] conv_9/depthwise/relu -> conv_9/depthwise (in-place)
I0124 03:47:36.268153    94 net.cpp:331] Setting up conv_9/depthwise/relu
I0124 03:47:36.268163    94 net.cpp:338] Top shape: 64 384 19 19 (8871936)
I0124 03:47:36.268172    94 net.cpp:347] Memory required for data: 5630842944
I0124 03:47:36.268178    94 net.cpp:349] Biggest Memory of single blob: 552960000
I0124 03:47:36.268185    94 layer_factory.hpp:114] Creating layer conv_9/project
I0124 03:47:36.268196    94 net.cpp:262] Creating Layer conv_9/project
I0124 03:47:36.268204    94 net.cpp:1712] conv_9/project <- conv_9/depthwise
I0124 03:47:36.268219    94 net.cpp:1686] conv_9/project -> conv_9/project
I0124 03:47:36.268465    94 net.cpp:331] Setting up conv_9/project
I0124 03:47:36.268472    94 net.cpp:338] Top shape: 64 64 19 19 (1478656)
I0124 03:47:36.268476    94 net.cpp:347] Memory required for data: 5636757568
I0124 03:47:36.268481    94 net.cpp:349] Biggest Memory of single blob: 552960000
I0124 03:47:36.268488    94 layer_factory.hpp:114] Creating layer conv_9/sum
I0124 03:47:36.268496    94 net.cpp:262] Creating Layer conv_9/sum
I0124 03:47:36.268501    94 net.cpp:1712] conv_9/sum <- conv_8_conv_8/sum_0_split_1
I0124 03:47:36.268507    94 net.cpp:1712] conv_9/sum <- conv_9/project
I0124 03:47:36.268515    94 net.cpp:1686] conv_9/sum -> conv_9
I0124 03:47:36.268524    94 net.cpp:331] Setting up conv_9/sum
I0124 03:47:36.268533    94 net.cpp:338] Top shape: 64 64 19 19 (1478656)
I0124 03:47:36.268539    94 net.cpp:347] Memory required for data: 5642672192
I0124 03:47:36.268546    94 net.cpp:349] Biggest Memory of single blob: 552960000
I0124 03:47:36.268551    94 layer_factory.hpp:114] Creating layer conv_10/expand
I0124 03:47:36.268564    94 net.cpp:262] Creating Layer conv_10/expand
I0124 03:47:36.268569    94 net.cpp:1712] conv_10/expand <- conv_9
I0124 03:47:36.268577    94 net.cpp:1686] conv_10/expand -> conv_10/expand
I0124 03:47:36.268810    94 net.cpp:331] Setting up conv_10/expand
I0124 03:47:36.268821    94 net.cpp:338] Top shape: 64 384 19 19 (8871936)
I0124 03:47:36.268824    94 net.cpp:347] Memory required for data: 5678159936
I0124 03:47:36.268829    94 net.cpp:349] Biggest Memory of single blob: 552960000
I0124 03:47:36.268836    94 layer_factory.hpp:114] Creating layer conv_10/expand/relu
I0124 03:47:36.268843    94 net.cpp:262] Creating Layer conv_10/expand/relu
I0124 03:47:36.268848    94 net.cpp:1712] conv_10/expand/relu <- conv_10/expand
I0124 03:47:36.268857    94 net.cpp:1673] conv_10/expand/relu -> conv_10/expand (in-place)
I0124 03:47:36.268865    94 net.cpp:331] Setting up conv_10/expand/relu
I0124 03:47:36.268875    94 net.cpp:338] Top shape: 64 384 19 19 (8871936)
I0124 03:47:36.268882    94 net.cpp:347] Memory required for data: 5713647680
I0124 03:47:36.268887    94 net.cpp:349] Biggest Memory of single blob: 552960000
I0124 03:47:36.268893    94 layer_factory.hpp:114] Creating layer conv_10/depthwise
I0124 03:47:36.268908    94 net.cpp:262] Creating Layer conv_10/depthwise
I0124 03:47:36.268915    94 net.cpp:1712] conv_10/depthwise <- conv_10/expand
I0124 03:47:36.268923    94 net.cpp:1686] conv_10/depthwise -> conv_10/depthwise
I0124 03:47:36.268990    94 net.cpp:331] Setting up conv_10/depthwise
I0124 03:47:36.268998    94 net.cpp:338] Top shape: 64 384 19 19 (8871936)
I0124 03:47:36.269002    94 net.cpp:347] Memory required for data: 5749135424
I0124 03:47:36.269007    94 net.cpp:349] Biggest Memory of single blob: 552960000
I0124 03:47:36.269014    94 layer_factory.hpp:114] Creating layer conv_10/depthwise/relu
I0124 03:47:36.269021    94 net.cpp:262] Creating Layer conv_10/depthwise/relu
I0124 03:47:36.269026    94 net.cpp:1712] conv_10/depthwise/relu <- conv_10/depthwise
I0124 03:47:36.269035    94 net.cpp:1673] conv_10/depthwise/relu -> conv_10/depthwise (in-place)
I0124 03:47:36.269043    94 net.cpp:331] Setting up conv_10/depthwise/relu
I0124 03:47:36.269049    94 net.cpp:338] Top shape: 64 384 19 19 (8871936)
I0124 03:47:36.269062    94 net.cpp:347] Memory required for data: 5784623168
I0124 03:47:36.269065    94 net.cpp:349] Biggest Memory of single blob: 552960000
I0124 03:47:36.269070    94 layer_factory.hpp:114] Creating layer conv_10/project
I0124 03:47:36.269081    94 net.cpp:262] Creating Layer conv_10/project
I0124 03:47:36.269088    94 net.cpp:1712] conv_10/project <- conv_10/depthwise
I0124 03:47:36.269096    94 net.cpp:1686] conv_10/project -> conv_10/project
I0124 03:47:36.269440    94 net.cpp:331] Setting up conv_10/project
I0124 03:47:36.269448    94 net.cpp:338] Top shape: 64 96 19 19 (2217984)
I0124 03:47:36.269454    94 net.cpp:347] Memory required for data: 5793495104
I0124 03:47:36.269457    94 net.cpp:349] Biggest Memory of single blob: 552960000
I0124 03:47:36.269469    94 layer_factory.hpp:114] Creating layer conv_10/project_conv_10/project_0_split
I0124 03:47:36.269479    94 net.cpp:262] Creating Layer conv_10/project_conv_10/project_0_split
I0124 03:47:36.269484    94 net.cpp:1712] conv_10/project_conv_10/project_0_split <- conv_10/project
I0124 03:47:36.269490    94 net.cpp:1686] conv_10/project_conv_10/project_0_split -> conv_10/project_conv_10/project_0_split_0
I0124 03:47:36.269497    94 net.cpp:1686] conv_10/project_conv_10/project_0_split -> conv_10/project_conv_10/project_0_split_1
I0124 03:47:36.269517    94 net.cpp:331] Setting up conv_10/project_conv_10/project_0_split
I0124 03:47:36.269523    94 net.cpp:338] Top shape: 64 96 19 19 (2217984)
I0124 03:47:36.269529    94 net.cpp:338] Top shape: 64 96 19 19 (2217984)
I0124 03:47:36.269533    94 net.cpp:347] Memory required for data: 5811238976
I0124 03:47:36.269537    94 net.cpp:349] Biggest Memory of single blob: 552960000
I0124 03:47:36.269546    94 layer_factory.hpp:114] Creating layer conv_11/expand
I0124 03:47:36.269558    94 net.cpp:262] Creating Layer conv_11/expand
I0124 03:47:36.269564    94 net.cpp:1712] conv_11/expand <- conv_10/project_conv_10/project_0_split_0
I0124 03:47:36.269572    94 net.cpp:1686] conv_11/expand -> conv_11/expand
I0124 03:47:36.270071    94 net.cpp:331] Setting up conv_11/expand
I0124 03:47:36.270081    94 net.cpp:338] Top shape: 64 576 19 19 (13307904)
I0124 03:47:36.270084    94 net.cpp:347] Memory required for data: 5864470592
I0124 03:47:36.270089    94 net.cpp:349] Biggest Memory of single blob: 552960000
I0124 03:47:36.270097    94 layer_factory.hpp:114] Creating layer conv_11/expand/relu
I0124 03:47:36.270104    94 net.cpp:262] Creating Layer conv_11/expand/relu
I0124 03:47:36.270110    94 net.cpp:1712] conv_11/expand/relu <- conv_11/expand
I0124 03:47:36.270121    94 net.cpp:1673] conv_11/expand/relu -> conv_11/expand (in-place)
I0124 03:47:36.270134    94 net.cpp:331] Setting up conv_11/expand/relu
I0124 03:47:36.270141    94 net.cpp:338] Top shape: 64 576 19 19 (13307904)
I0124 03:47:36.270149    94 net.cpp:347] Memory required for data: 5917702208
I0124 03:47:36.270156    94 net.cpp:349] Biggest Memory of single blob: 552960000
I0124 03:47:36.270164    94 layer_factory.hpp:114] Creating layer conv_11/depthwise
I0124 03:47:36.270179    94 net.cpp:262] Creating Layer conv_11/depthwise
I0124 03:47:36.270188    94 net.cpp:1712] conv_11/depthwise <- conv_11/expand
I0124 03:47:36.270200    94 net.cpp:1686] conv_11/depthwise -> conv_11/depthwise
I0124 03:47:36.270282    94 net.cpp:331] Setting up conv_11/depthwise
I0124 03:47:36.270290    94 net.cpp:338] Top shape: 64 576 19 19 (13307904)
I0124 03:47:36.270295    94 net.cpp:347] Memory required for data: 5970933824
I0124 03:47:36.270299    94 net.cpp:349] Biggest Memory of single blob: 552960000
I0124 03:47:36.270305    94 layer_factory.hpp:114] Creating layer conv_11/depthwise/relu
I0124 03:47:36.270313    94 net.cpp:262] Creating Layer conv_11/depthwise/relu
I0124 03:47:36.270318    94 net.cpp:1712] conv_11/depthwise/relu <- conv_11/depthwise
I0124 03:47:36.270325    94 net.cpp:1673] conv_11/depthwise/relu -> conv_11/depthwise (in-place)
I0124 03:47:36.270334    94 net.cpp:331] Setting up conv_11/depthwise/relu
I0124 03:47:36.270339    94 net.cpp:338] Top shape: 64 576 19 19 (13307904)
I0124 03:47:36.270351    94 net.cpp:347] Memory required for data: 6024165440
I0124 03:47:36.270357    94 net.cpp:349] Biggest Memory of single blob: 552960000
I0124 03:47:36.270362    94 layer_factory.hpp:114] Creating layer conv_11/project
I0124 03:47:36.270372    94 net.cpp:262] Creating Layer conv_11/project
I0124 03:47:36.270377    94 net.cpp:1712] conv_11/project <- conv_11/depthwise
I0124 03:47:36.270385    94 net.cpp:1686] conv_11/project -> conv_11/project
I0124 03:47:36.270893    94 net.cpp:331] Setting up conv_11/project
I0124 03:47:36.270905    94 net.cpp:338] Top shape: 64 96 19 19 (2217984)
I0124 03:47:36.270910    94 net.cpp:347] Memory required for data: 6033037376
I0124 03:47:36.270913    94 net.cpp:349] Biggest Memory of single blob: 552960000
I0124 03:47:36.270923    94 layer_factory.hpp:114] Creating layer conv_11/sum
I0124 03:47:36.270934    94 net.cpp:262] Creating Layer conv_11/sum
I0124 03:47:36.270941    94 net.cpp:1712] conv_11/sum <- conv_10/project_conv_10/project_0_split_1
I0124 03:47:36.270946    94 net.cpp:1712] conv_11/sum <- conv_11/project
I0124 03:47:36.270953    94 net.cpp:1686] conv_11/sum -> conv_11
I0124 03:47:36.270963    94 net.cpp:331] Setting up conv_11/sum
I0124 03:47:36.270972    94 net.cpp:338] Top shape: 64 96 19 19 (2217984)
I0124 03:47:36.270979    94 net.cpp:347] Memory required for data: 6041909312
I0124 03:47:36.270987    94 net.cpp:349] Biggest Memory of single blob: 552960000
I0124 03:47:36.270992    94 layer_factory.hpp:114] Creating layer conv_11_conv_11/sum_0_split
I0124 03:47:36.270999    94 net.cpp:262] Creating Layer conv_11_conv_11/sum_0_split
I0124 03:47:36.271005    94 net.cpp:1712] conv_11_conv_11/sum_0_split <- conv_11
I0124 03:47:36.271018    94 net.cpp:1686] conv_11_conv_11/sum_0_split -> conv_11_conv_11/sum_0_split_0
I0124 03:47:36.271028    94 net.cpp:1686] conv_11_conv_11/sum_0_split -> conv_11_conv_11/sum_0_split_1
I0124 03:47:36.271040    94 net.cpp:331] Setting up conv_11_conv_11/sum_0_split
I0124 03:47:36.271047    94 net.cpp:338] Top shape: 64 96 19 19 (2217984)
I0124 03:47:36.271054    94 net.cpp:338] Top shape: 64 96 19 19 (2217984)
I0124 03:47:36.271057    94 net.cpp:347] Memory required for data: 6059653184
I0124 03:47:36.271062    94 net.cpp:349] Biggest Memory of single blob: 552960000
I0124 03:47:36.271066    94 layer_factory.hpp:114] Creating layer conv_12/expand
I0124 03:47:36.271078    94 net.cpp:262] Creating Layer conv_12/expand
I0124 03:47:36.271085    94 net.cpp:1712] conv_12/expand <- conv_11_conv_11/sum_0_split_0
I0124 03:47:36.271097    94 net.cpp:1686] conv_12/expand -> conv_12/expand
I0124 03:47:36.271605    94 net.cpp:331] Setting up conv_12/expand
I0124 03:47:36.271615    94 net.cpp:338] Top shape: 64 576 19 19 (13307904)
I0124 03:47:36.271620    94 net.cpp:347] Memory required for data: 6112884800
I0124 03:47:36.271625    94 net.cpp:349] Biggest Memory of single blob: 552960000
I0124 03:47:36.271634    94 layer_factory.hpp:114] Creating layer conv_12/expand/relu
I0124 03:47:36.271642    94 net.cpp:262] Creating Layer conv_12/expand/relu
I0124 03:47:36.271648    94 net.cpp:1712] conv_12/expand/relu <- conv_12/expand
I0124 03:47:36.271657    94 net.cpp:1673] conv_12/expand/relu -> conv_12/expand (in-place)
I0124 03:47:36.271669    94 net.cpp:331] Setting up conv_12/expand/relu
I0124 03:47:36.271679    94 net.cpp:338] Top shape: 64 576 19 19 (13307904)
I0124 03:47:36.271687    94 net.cpp:347] Memory required for data: 6166116416
I0124 03:47:36.271692    94 net.cpp:349] Biggest Memory of single blob: 552960000
I0124 03:47:36.271695    94 layer_factory.hpp:114] Creating layer conv_12/depthwise
I0124 03:47:36.271705    94 net.cpp:262] Creating Layer conv_12/depthwise
I0124 03:47:36.271710    94 net.cpp:1712] conv_12/depthwise <- conv_12/expand
I0124 03:47:36.271718    94 net.cpp:1686] conv_12/depthwise -> conv_12/depthwise
I0124 03:47:36.271790    94 net.cpp:331] Setting up conv_12/depthwise
I0124 03:47:36.271797    94 net.cpp:338] Top shape: 64 576 19 19 (13307904)
I0124 03:47:36.271801    94 net.cpp:347] Memory required for data: 6219348032
I0124 03:47:36.271814    94 net.cpp:349] Biggest Memory of single blob: 552960000
I0124 03:47:36.271827    94 layer_factory.hpp:114] Creating layer conv_12/depthwise/relu
I0124 03:47:36.271838    94 net.cpp:262] Creating Layer conv_12/depthwise/relu
I0124 03:47:36.271847    94 net.cpp:1712] conv_12/depthwise/relu <- conv_12/depthwise
I0124 03:47:36.271859    94 net.cpp:1673] conv_12/depthwise/relu -> conv_12/depthwise (in-place)
I0124 03:47:36.271872    94 net.cpp:331] Setting up conv_12/depthwise/relu
I0124 03:47:36.271883    94 net.cpp:338] Top shape: 64 576 19 19 (13307904)
I0124 03:47:36.271889    94 net.cpp:347] Memory required for data: 6272579648
I0124 03:47:36.271896    94 net.cpp:349] Biggest Memory of single blob: 552960000
I0124 03:47:36.271904    94 layer_factory.hpp:114] Creating layer conv_12/project
I0124 03:47:36.271920    94 net.cpp:262] Creating Layer conv_12/project
I0124 03:47:36.271929    94 net.cpp:1712] conv_12/project <- conv_12/depthwise
I0124 03:47:36.271942    94 net.cpp:1686] conv_12/project -> conv_12/project
I0124 03:47:36.272450    94 net.cpp:331] Setting up conv_12/project
I0124 03:47:36.272459    94 net.cpp:338] Top shape: 64 96 19 19 (2217984)
I0124 03:47:36.272464    94 net.cpp:347] Memory required for data: 6281451584
I0124 03:47:36.272469    94 net.cpp:349] Biggest Memory of single blob: 552960000
I0124 03:47:36.272477    94 layer_factory.hpp:114] Creating layer conv_12/sum
I0124 03:47:36.272487    94 net.cpp:262] Creating Layer conv_12/sum
I0124 03:47:36.272493    94 net.cpp:1712] conv_12/sum <- conv_11_conv_11/sum_0_split_1
I0124 03:47:36.272500    94 net.cpp:1712] conv_12/sum <- conv_12/project
I0124 03:47:36.272507    94 net.cpp:1686] conv_12/sum -> conv_12
I0124 03:47:36.272516    94 net.cpp:331] Setting up conv_12/sum
I0124 03:47:36.272523    94 net.cpp:338] Top shape: 64 96 19 19 (2217984)
I0124 03:47:36.272531    94 net.cpp:347] Memory required for data: 6290323520
I0124 03:47:36.272537    94 net.cpp:349] Biggest Memory of single blob: 552960000
I0124 03:47:36.272545    94 layer_factory.hpp:114] Creating layer conv_13/expand
I0124 03:47:36.272562    94 net.cpp:262] Creating Layer conv_13/expand
I0124 03:47:36.272570    94 net.cpp:1712] conv_13/expand <- conv_12
I0124 03:47:36.272583    94 net.cpp:1686] conv_13/expand -> conv_13/expand
I0124 03:47:36.273083    94 net.cpp:331] Setting up conv_13/expand
I0124 03:47:36.273093    94 net.cpp:338] Top shape: 64 576 19 19 (13307904)
I0124 03:47:36.273097    94 net.cpp:347] Memory required for data: 6343555136
I0124 03:47:36.273102    94 net.cpp:349] Biggest Memory of single blob: 552960000
I0124 03:47:36.273109    94 layer_factory.hpp:114] Creating layer conv_13/expand/relu
I0124 03:47:36.273120    94 net.cpp:262] Creating Layer conv_13/expand/relu
I0124 03:47:36.273128    94 net.cpp:1712] conv_13/expand/relu <- conv_13/expand
I0124 03:47:36.273139    94 net.cpp:1673] conv_13/expand/relu -> conv_13/expand (in-place)
I0124 03:47:36.273152    94 net.cpp:331] Setting up conv_13/expand/relu
I0124 03:47:36.273162    94 net.cpp:338] Top shape: 64 576 19 19 (13307904)
I0124 03:47:36.273169    94 net.cpp:347] Memory required for data: 6396786752
I0124 03:47:36.273173    94 net.cpp:349] Biggest Memory of single blob: 552960000
I0124 03:47:36.273180    94 layer_factory.hpp:114] Creating layer conv_13/expand_conv_13/expand/relu_0_split
I0124 03:47:36.273193    94 net.cpp:262] Creating Layer conv_13/expand_conv_13/expand/relu_0_split
I0124 03:47:36.273200    94 net.cpp:1712] conv_13/expand_conv_13/expand/relu_0_split <- conv_13/expand
I0124 03:47:36.273208    94 net.cpp:1686] conv_13/expand_conv_13/expand/relu_0_split -> conv_13/expand_conv_13/expand/relu_0_split_0
I0124 03:47:36.273216    94 net.cpp:1686] conv_13/expand_conv_13/expand/relu_0_split -> conv_13/expand_conv_13/expand/relu_0_split_1
I0124 03:47:36.273222    94 net.cpp:1686] conv_13/expand_conv_13/expand/relu_0_split -> conv_13/expand_conv_13/expand/relu_0_split_2
I0124 03:47:36.273229    94 net.cpp:1686] conv_13/expand_conv_13/expand/relu_0_split -> conv_13/expand_conv_13/expand/relu_0_split_3
I0124 03:47:36.273252    94 net.cpp:331] Setting up conv_13/expand_conv_13/expand/relu_0_split
I0124 03:47:36.273258    94 net.cpp:338] Top shape: 64 576 19 19 (13307904)
I0124 03:47:36.273263    94 net.cpp:338] Top shape: 64 576 19 19 (13307904)
I0124 03:47:36.273267    94 net.cpp:338] Top shape: 64 576 19 19 (13307904)
I0124 03:47:36.273272    94 net.cpp:338] Top shape: 64 576 19 19 (13307904)
I0124 03:47:36.273277    94 net.cpp:347] Memory required for data: 6609713216
I0124 03:47:36.273280    94 net.cpp:349] Biggest Memory of single blob: 552960000
I0124 03:47:36.273285    94 layer_factory.hpp:114] Creating layer conv_13/depthwise
I0124 03:47:36.273298    94 net.cpp:262] Creating Layer conv_13/depthwise
I0124 03:47:36.273303    94 net.cpp:1712] conv_13/depthwise <- conv_13/expand_conv_13/expand/relu_0_split_0
I0124 03:47:36.273314    94 net.cpp:1686] conv_13/depthwise -> conv_13/depthwise
I0124 03:47:36.273387    94 net.cpp:331] Setting up conv_13/depthwise
I0124 03:47:36.273396    94 net.cpp:338] Top shape: 64 576 10 10 (3686400)
I0124 03:47:36.273401    94 net.cpp:347] Memory required for data: 6624458816
I0124 03:47:36.273407    94 net.cpp:349] Biggest Memory of single blob: 552960000
I0124 03:47:36.273416    94 layer_factory.hpp:114] Creating layer conv_13/depthwise/relu
I0124 03:47:36.273423    94 net.cpp:262] Creating Layer conv_13/depthwise/relu
I0124 03:47:36.273428    94 net.cpp:1712] conv_13/depthwise/relu <- conv_13/depthwise
I0124 03:47:36.273437    94 net.cpp:1673] conv_13/depthwise/relu -> conv_13/depthwise (in-place)
I0124 03:47:36.273443    94 net.cpp:331] Setting up conv_13/depthwise/relu
I0124 03:47:36.273449    94 net.cpp:338] Top shape: 64 576 10 10 (3686400)
I0124 03:47:36.273453    94 net.cpp:347] Memory required for data: 6639204416
I0124 03:47:36.273458    94 net.cpp:349] Biggest Memory of single blob: 552960000
I0124 03:47:36.273465    94 layer_factory.hpp:114] Creating layer conv_13/project
I0124 03:47:36.273481    94 net.cpp:262] Creating Layer conv_13/project
I0124 03:47:36.273488    94 net.cpp:1712] conv_13/project <- conv_13/depthwise
I0124 03:47:36.273504    94 net.cpp:1686] conv_13/project -> conv_13/project
I0124 03:47:36.274336    94 net.cpp:331] Setting up conv_13/project
I0124 03:47:36.274346    94 net.cpp:338] Top shape: 64 160 10 10 (1024000)
I0124 03:47:36.274350    94 net.cpp:347] Memory required for data: 6643300416
I0124 03:47:36.274356    94 net.cpp:349] Biggest Memory of single blob: 552960000
I0124 03:47:36.274366    94 layer_factory.hpp:114] Creating layer conv_13/project_conv_13/project_0_split
I0124 03:47:36.274379    94 net.cpp:262] Creating Layer conv_13/project_conv_13/project_0_split
I0124 03:47:36.274389    94 net.cpp:1712] conv_13/project_conv_13/project_0_split <- conv_13/project
I0124 03:47:36.274400    94 net.cpp:1686] conv_13/project_conv_13/project_0_split -> conv_13/project_conv_13/project_0_split_0
I0124 03:47:36.274412    94 net.cpp:1686] conv_13/project_conv_13/project_0_split -> conv_13/project_conv_13/project_0_split_1
I0124 03:47:36.274423    94 net.cpp:331] Setting up conv_13/project_conv_13/project_0_split
I0124 03:47:36.274432    94 net.cpp:338] Top shape: 64 160 10 10 (1024000)
I0124 03:47:36.274437    94 net.cpp:338] Top shape: 64 160 10 10 (1024000)
I0124 03:47:36.274442    94 net.cpp:347] Memory required for data: 6651492416
I0124 03:47:36.274447    94 net.cpp:349] Biggest Memory of single blob: 552960000
I0124 03:47:36.274453    94 layer_factory.hpp:114] Creating layer conv_14/expand
I0124 03:47:36.274464    94 net.cpp:262] Creating Layer conv_14/expand
I0124 03:47:36.274472    94 net.cpp:1712] conv_14/expand <- conv_13/project_conv_13/project_0_split_0
I0124 03:47:36.274485    94 net.cpp:1686] conv_14/expand -> conv_14/expand
I0124 03:47:36.275836    94 net.cpp:331] Setting up conv_14/expand
I0124 03:47:36.275846    94 net.cpp:338] Top shape: 64 960 10 10 (6144000)
I0124 03:47:36.275851    94 net.cpp:347] Memory required for data: 6676068416
I0124 03:47:36.275856    94 net.cpp:349] Biggest Memory of single blob: 552960000
I0124 03:47:36.275876    94 layer_factory.hpp:114] Creating layer conv_14/expand/relu
I0124 03:47:36.275892    94 net.cpp:262] Creating Layer conv_14/expand/relu
I0124 03:47:36.275899    94 net.cpp:1712] conv_14/expand/relu <- conv_14/expand
I0124 03:47:36.275909    94 net.cpp:1673] conv_14/expand/relu -> conv_14/expand (in-place)
I0124 03:47:36.275920    94 net.cpp:331] Setting up conv_14/expand/relu
I0124 03:47:36.275928    94 net.cpp:338] Top shape: 64 960 10 10 (6144000)
I0124 03:47:36.275934    94 net.cpp:347] Memory required for data: 6700644416
I0124 03:47:36.275940    94 net.cpp:349] Biggest Memory of single blob: 552960000
I0124 03:47:36.275949    94 layer_factory.hpp:114] Creating layer conv_14/depthwise
I0124 03:47:36.275966    94 net.cpp:262] Creating Layer conv_14/depthwise
I0124 03:47:36.275975    94 net.cpp:1712] conv_14/depthwise <- conv_14/expand
I0124 03:47:36.275990    94 net.cpp:1686] conv_14/depthwise -> conv_14/depthwise
I0124 03:47:36.276098    94 net.cpp:331] Setting up conv_14/depthwise
I0124 03:47:36.276108    94 net.cpp:338] Top shape: 64 960 10 10 (6144000)
I0124 03:47:36.276113    94 net.cpp:347] Memory required for data: 6725220416
I0124 03:47:36.276118    94 net.cpp:349] Biggest Memory of single blob: 552960000
I0124 03:47:36.276125    94 layer_factory.hpp:114] Creating layer conv_14/depthwise/relu
I0124 03:47:36.276139    94 net.cpp:262] Creating Layer conv_14/depthwise/relu
I0124 03:47:36.276149    94 net.cpp:1712] conv_14/depthwise/relu <- conv_14/depthwise
I0124 03:47:36.276156    94 net.cpp:1673] conv_14/depthwise/relu -> conv_14/depthwise (in-place)
I0124 03:47:36.276168    94 net.cpp:331] Setting up conv_14/depthwise/relu
I0124 03:47:36.276175    94 net.cpp:338] Top shape: 64 960 10 10 (6144000)
I0124 03:47:36.276180    94 net.cpp:347] Memory required for data: 6749796416
I0124 03:47:36.276185    94 net.cpp:349] Biggest Memory of single blob: 552960000
I0124 03:47:36.276192    94 layer_factory.hpp:114] Creating layer conv_14/project
I0124 03:47:36.276209    94 net.cpp:262] Creating Layer conv_14/project
I0124 03:47:36.276217    94 net.cpp:1712] conv_14/project <- conv_14/depthwise
I0124 03:47:36.276232    94 net.cpp:1686] conv_14/project -> conv_14/project
I0124 03:47:36.277609    94 net.cpp:331] Setting up conv_14/project
I0124 03:47:36.277621    94 net.cpp:338] Top shape: 64 160 10 10 (1024000)
I0124 03:47:36.277624    94 net.cpp:347] Memory required for data: 6753892416
I0124 03:47:36.277628    94 net.cpp:349] Biggest Memory of single blob: 552960000
I0124 03:47:36.277637    94 layer_factory.hpp:114] Creating layer conv_14/sum
I0124 03:47:36.277652    94 net.cpp:262] Creating Layer conv_14/sum
I0124 03:47:36.277658    94 net.cpp:1712] conv_14/sum <- conv_13/project_conv_13/project_0_split_1
I0124 03:47:36.277669    94 net.cpp:1712] conv_14/sum <- conv_14/project
I0124 03:47:36.277681    94 net.cpp:1686] conv_14/sum -> conv_14
I0124 03:47:36.277694    94 net.cpp:331] Setting up conv_14/sum
I0124 03:47:36.277705    94 net.cpp:338] Top shape: 64 160 10 10 (1024000)
I0124 03:47:36.277710    94 net.cpp:347] Memory required for data: 6757988416
I0124 03:47:36.277717    94 net.cpp:349] Biggest Memory of single blob: 552960000
I0124 03:47:36.277726    94 layer_factory.hpp:114] Creating layer conv_14_conv_14/sum_0_split
I0124 03:47:36.277736    94 net.cpp:262] Creating Layer conv_14_conv_14/sum_0_split
I0124 03:47:36.277741    94 net.cpp:1712] conv_14_conv_14/sum_0_split <- conv_14
I0124 03:47:36.277753    94 net.cpp:1686] conv_14_conv_14/sum_0_split -> conv_14_conv_14/sum_0_split_0
I0124 03:47:36.277761    94 net.cpp:1686] conv_14_conv_14/sum_0_split -> conv_14_conv_14/sum_0_split_1
I0124 03:47:36.277776    94 net.cpp:331] Setting up conv_14_conv_14/sum_0_split
I0124 03:47:36.277786    94 net.cpp:338] Top shape: 64 160 10 10 (1024000)
I0124 03:47:36.277794    94 net.cpp:338] Top shape: 64 160 10 10 (1024000)
I0124 03:47:36.277803    94 net.cpp:347] Memory required for data: 6766180416
I0124 03:47:36.277809    94 net.cpp:349] Biggest Memory of single blob: 552960000
I0124 03:47:36.277829    94 layer_factory.hpp:114] Creating layer conv_15/expand
I0124 03:47:36.277844    94 net.cpp:262] Creating Layer conv_15/expand
I0124 03:47:36.277851    94 net.cpp:1712] conv_15/expand <- conv_14_conv_14/sum_0_split_0
I0124 03:47:36.277860    94 net.cpp:1686] conv_15/expand -> conv_15/expand
I0124 03:47:36.279212    94 net.cpp:331] Setting up conv_15/expand
I0124 03:47:36.279222    94 net.cpp:338] Top shape: 64 960 10 10 (6144000)
I0124 03:47:36.279227    94 net.cpp:347] Memory required for data: 6790756416
I0124 03:47:36.279230    94 net.cpp:349] Biggest Memory of single blob: 552960000
I0124 03:47:36.279237    94 layer_factory.hpp:114] Creating layer conv_15/expand/relu
I0124 03:47:36.279249    94 net.cpp:262] Creating Layer conv_15/expand/relu
I0124 03:47:36.279258    94 net.cpp:1712] conv_15/expand/relu <- conv_15/expand
I0124 03:47:36.279265    94 net.cpp:1673] conv_15/expand/relu -> conv_15/expand (in-place)
I0124 03:47:36.279278    94 net.cpp:331] Setting up conv_15/expand/relu
I0124 03:47:36.279287    94 net.cpp:338] Top shape: 64 960 10 10 (6144000)
I0124 03:47:36.279294    94 net.cpp:347] Memory required for data: 6815332416
I0124 03:47:36.279302    94 net.cpp:349] Biggest Memory of single blob: 552960000
I0124 03:47:36.279309    94 layer_factory.hpp:114] Creating layer conv_15/depthwise
I0124 03:47:36.279320    94 net.cpp:262] Creating Layer conv_15/depthwise
I0124 03:47:36.279326    94 net.cpp:1712] conv_15/depthwise <- conv_15/expand
I0124 03:47:36.279338    94 net.cpp:1686] conv_15/depthwise -> conv_15/depthwise
I0124 03:47:36.279445    94 net.cpp:331] Setting up conv_15/depthwise
I0124 03:47:36.279454    94 net.cpp:338] Top shape: 64 960 10 10 (6144000)
I0124 03:47:36.279458    94 net.cpp:347] Memory required for data: 6839908416
I0124 03:47:36.279464    94 net.cpp:349] Biggest Memory of single blob: 552960000
I0124 03:47:36.279470    94 layer_factory.hpp:114] Creating layer conv_15/depthwise/relu
I0124 03:47:36.279479    94 net.cpp:262] Creating Layer conv_15/depthwise/relu
I0124 03:47:36.279485    94 net.cpp:1712] conv_15/depthwise/relu <- conv_15/depthwise
I0124 03:47:36.279493    94 net.cpp:1673] conv_15/depthwise/relu -> conv_15/depthwise (in-place)
I0124 03:47:36.279507    94 net.cpp:331] Setting up conv_15/depthwise/relu
I0124 03:47:36.279517    94 net.cpp:338] Top shape: 64 960 10 10 (6144000)
I0124 03:47:36.279525    94 net.cpp:347] Memory required for data: 6864484416
I0124 03:47:36.279531    94 net.cpp:349] Biggest Memory of single blob: 552960000
I0124 03:47:36.279536    94 layer_factory.hpp:114] Creating layer conv_15/project
I0124 03:47:36.279546    94 net.cpp:262] Creating Layer conv_15/project
I0124 03:47:36.279551    94 net.cpp:1712] conv_15/project <- conv_15/depthwise
I0124 03:47:36.279558    94 net.cpp:1686] conv_15/project -> conv_15/project
I0124 03:47:36.280906    94 net.cpp:331] Setting up conv_15/project
I0124 03:47:36.280917    94 net.cpp:338] Top shape: 64 160 10 10 (1024000)
I0124 03:47:36.280921    94 net.cpp:347] Memory required for data: 6868580416
I0124 03:47:36.280925    94 net.cpp:349] Biggest Memory of single blob: 552960000
I0124 03:47:36.280932    94 layer_factory.hpp:114] Creating layer conv_15/sum
I0124 03:47:36.280942    94 net.cpp:262] Creating Layer conv_15/sum
I0124 03:47:36.280951    94 net.cpp:1712] conv_15/sum <- conv_14_conv_14/sum_0_split_1
I0124 03:47:36.280959    94 net.cpp:1712] conv_15/sum <- conv_15/project
I0124 03:47:36.280972    94 net.cpp:1686] conv_15/sum -> conv_15
I0124 03:47:36.280984    94 net.cpp:331] Setting up conv_15/sum
I0124 03:47:36.280994    94 net.cpp:338] Top shape: 64 160 10 10 (1024000)
I0124 03:47:36.281002    94 net.cpp:347] Memory required for data: 6872676416
I0124 03:47:36.281008    94 net.cpp:349] Biggest Memory of single blob: 552960000
I0124 03:47:36.281014    94 layer_factory.hpp:114] Creating layer conv_16/expand
I0124 03:47:36.281029    94 net.cpp:262] Creating Layer conv_16/expand
I0124 03:47:36.281038    94 net.cpp:1712] conv_16/expand <- conv_15
I0124 03:47:36.281051    94 net.cpp:1686] conv_16/expand -> conv_16/expand
I0124 03:47:36.282434    94 net.cpp:331] Setting up conv_16/expand
I0124 03:47:36.282445    94 net.cpp:338] Top shape: 64 960 10 10 (6144000)
I0124 03:47:36.282449    94 net.cpp:347] Memory required for data: 6897252416
I0124 03:47:36.282454    94 net.cpp:349] Biggest Memory of single blob: 552960000
I0124 03:47:36.282461    94 layer_factory.hpp:114] Creating layer conv_16/expand/relu
I0124 03:47:36.282471    94 net.cpp:262] Creating Layer conv_16/expand/relu
I0124 03:47:36.282480    94 net.cpp:1712] conv_16/expand/relu <- conv_16/expand
I0124 03:47:36.282493    94 net.cpp:1673] conv_16/expand/relu -> conv_16/expand (in-place)
I0124 03:47:36.282505    94 net.cpp:331] Setting up conv_16/expand/relu
I0124 03:47:36.282513    94 net.cpp:338] Top shape: 64 960 10 10 (6144000)
I0124 03:47:36.282519    94 net.cpp:347] Memory required for data: 6921828416
I0124 03:47:36.282523    94 net.cpp:349] Biggest Memory of single blob: 552960000
I0124 03:47:36.282529    94 layer_factory.hpp:114] Creating layer conv_16/depthwise
I0124 03:47:36.282538    94 net.cpp:262] Creating Layer conv_16/depthwise
I0124 03:47:36.282543    94 net.cpp:1712] conv_16/depthwise <- conv_16/expand
I0124 03:47:36.282553    94 net.cpp:1686] conv_16/depthwise -> conv_16/depthwise
I0124 03:47:36.282675    94 net.cpp:331] Setting up conv_16/depthwise
I0124 03:47:36.282685    94 net.cpp:338] Top shape: 64 960 10 10 (6144000)
I0124 03:47:36.282689    94 net.cpp:347] Memory required for data: 6946404416
I0124 03:47:36.282693    94 net.cpp:349] Biggest Memory of single blob: 552960000
I0124 03:47:36.282701    94 layer_factory.hpp:114] Creating layer conv_16/depthwise/relu
I0124 03:47:36.282713    94 net.cpp:262] Creating Layer conv_16/depthwise/relu
I0124 03:47:36.282719    94 net.cpp:1712] conv_16/depthwise/relu <- conv_16/depthwise
I0124 03:47:36.282727    94 net.cpp:1673] conv_16/depthwise/relu -> conv_16/depthwise (in-place)
I0124 03:47:36.282734    94 net.cpp:331] Setting up conv_16/depthwise/relu
I0124 03:47:36.282740    94 net.cpp:338] Top shape: 64 960 10 10 (6144000)
I0124 03:47:36.282745    94 net.cpp:347] Memory required for data: 6970980416
I0124 03:47:36.282749    94 net.cpp:349] Biggest Memory of single blob: 552960000
I0124 03:47:36.282755    94 layer_factory.hpp:114] Creating layer conv_16/project
I0124 03:47:36.282765    94 net.cpp:262] Creating Layer conv_16/project
I0124 03:47:36.282773    94 net.cpp:1712] conv_16/project <- conv_16/depthwise
I0124 03:47:36.282788    94 net.cpp:1686] conv_16/project -> conv_16/project
I0124 03:47:36.285461    94 net.cpp:331] Setting up conv_16/project
I0124 03:47:36.285471    94 net.cpp:338] Top shape: 64 320 10 10 (2048000)
I0124 03:47:36.285476    94 net.cpp:347] Memory required for data: 6979172416
I0124 03:47:36.285480    94 net.cpp:349] Biggest Memory of single blob: 552960000
I0124 03:47:36.285488    94 layer_factory.hpp:114] Creating layer Conv_1
I0124 03:47:36.285507    94 net.cpp:262] Creating Layer Conv_1
I0124 03:47:36.285516    94 net.cpp:1712] Conv_1 <- conv_16/project
I0124 03:47:36.285524    94 net.cpp:1686] Conv_1 -> Conv_1
I0124 03:47:36.289093    94 net.cpp:331] Setting up Conv_1
I0124 03:47:36.289103    94 net.cpp:338] Top shape: 64 1280 10 10 (8192000)
I0124 03:47:36.289113    94 net.cpp:347] Memory required for data: 7011940416
I0124 03:47:36.289119    94 net.cpp:349] Biggest Memory of single blob: 552960000
I0124 03:47:36.289129    94 layer_factory.hpp:114] Creating layer Conv_1/relu
I0124 03:47:36.289140    94 net.cpp:262] Creating Layer Conv_1/relu
I0124 03:47:36.289149    94 net.cpp:1712] Conv_1/relu <- Conv_1
I0124 03:47:36.289158    94 net.cpp:1673] Conv_1/relu -> Conv_1 (in-place)
I0124 03:47:36.289168    94 net.cpp:331] Setting up Conv_1/relu
I0124 03:47:36.289180    94 net.cpp:338] Top shape: 64 1280 10 10 (8192000)
I0124 03:47:36.289186    94 net.cpp:347] Memory required for data: 7044708416
I0124 03:47:36.289193    94 net.cpp:349] Biggest Memory of single blob: 552960000
I0124 03:47:36.289199    94 layer_factory.hpp:114] Creating layer Conv_1_Conv_1/relu_0_split
I0124 03:47:36.289222    94 net.cpp:262] Creating Layer Conv_1_Conv_1/relu_0_split
I0124 03:47:36.289232    94 net.cpp:1712] Conv_1_Conv_1/relu_0_split <- Conv_1
I0124 03:47:36.289247    94 net.cpp:1686] Conv_1_Conv_1/relu_0_split -> Conv_1_Conv_1/relu_0_split_0
I0124 03:47:36.289260    94 net.cpp:1686] Conv_1_Conv_1/relu_0_split -> Conv_1_Conv_1/relu_0_split_1
I0124 03:47:36.289274    94 net.cpp:1686] Conv_1_Conv_1/relu_0_split -> Conv_1_Conv_1/relu_0_split_2
I0124 03:47:36.289286    94 net.cpp:1686] Conv_1_Conv_1/relu_0_split -> Conv_1_Conv_1/relu_0_split_3
I0124 03:47:36.289299    94 net.cpp:331] Setting up Conv_1_Conv_1/relu_0_split
I0124 03:47:36.289309    94 net.cpp:338] Top shape: 64 1280 10 10 (8192000)
I0124 03:47:36.289319    94 net.cpp:338] Top shape: 64 1280 10 10 (8192000)
I0124 03:47:36.289327    94 net.cpp:338] Top shape: 64 1280 10 10 (8192000)
I0124 03:47:36.289337    94 net.cpp:338] Top shape: 64 1280 10 10 (8192000)
I0124 03:47:36.289345    94 net.cpp:347] Memory required for data: 7175780416
I0124 03:47:36.289350    94 net.cpp:349] Biggest Memory of single blob: 552960000
I0124 03:47:36.289357    94 layer_factory.hpp:114] Creating layer layer_19_1_2
I0124 03:47:36.289376    94 net.cpp:262] Creating Layer layer_19_1_2
I0124 03:47:36.289383    94 net.cpp:1712] layer_19_1_2 <- Conv_1_Conv_1/relu_0_split_0
I0124 03:47:36.289394    94 net.cpp:1686] layer_19_1_2 -> layer_19_1_2
I0124 03:47:36.292248    94 net.cpp:331] Setting up layer_19_1_2
I0124 03:47:36.292258    94 net.cpp:338] Top shape: 64 256 10 10 (1638400)
I0124 03:47:36.292261    94 net.cpp:347] Memory required for data: 7182334016
I0124 03:47:36.292266    94 net.cpp:349] Biggest Memory of single blob: 552960000
I0124 03:47:36.292276    94 layer_factory.hpp:114] Creating layer layer_19_1_2/relu
I0124 03:47:36.292289    94 net.cpp:262] Creating Layer layer_19_1_2/relu
I0124 03:47:36.292296    94 net.cpp:1712] layer_19_1_2/relu <- layer_19_1_2
I0124 03:47:36.292307    94 net.cpp:1673] layer_19_1_2/relu -> layer_19_1_2 (in-place)
I0124 03:47:36.292320    94 net.cpp:331] Setting up layer_19_1_2/relu
I0124 03:47:36.292330    94 net.cpp:338] Top shape: 64 256 10 10 (1638400)
I0124 03:47:36.292338    94 net.cpp:347] Memory required for data: 7188887616
I0124 03:47:36.292344    94 net.cpp:349] Biggest Memory of single blob: 552960000
I0124 03:47:36.292351    94 layer_factory.hpp:114] Creating layer layer_19_2_2/depthwise
I0124 03:47:36.292369    94 net.cpp:262] Creating Layer layer_19_2_2/depthwise
I0124 03:47:36.292378    94 net.cpp:1712] layer_19_2_2/depthwise <- layer_19_1_2
I0124 03:47:36.292390    94 net.cpp:1686] layer_19_2_2/depthwise -> layer_19_2_2/depthwise
I0124 03:47:36.292438    94 net.cpp:331] Setting up layer_19_2_2/depthwise
I0124 03:47:36.292449    94 net.cpp:338] Top shape: 64 256 5 5 (409600)
I0124 03:47:36.292457    94 net.cpp:347] Memory required for data: 7190526016
I0124 03:47:36.292462    94 net.cpp:349] Biggest Memory of single blob: 552960000
I0124 03:47:36.292469    94 layer_factory.hpp:114] Creating layer layer_19_2_2/depthwise/relu
I0124 03:47:36.292477    94 net.cpp:262] Creating Layer layer_19_2_2/depthwise/relu
I0124 03:47:36.292482    94 net.cpp:1712] layer_19_2_2/depthwise/relu <- layer_19_2_2/depthwise
I0124 03:47:36.292490    94 net.cpp:1673] layer_19_2_2/depthwise/relu -> layer_19_2_2/depthwise (in-place)
I0124 03:47:36.292498    94 net.cpp:331] Setting up layer_19_2_2/depthwise/relu
I0124 03:47:36.292505    94 net.cpp:338] Top shape: 64 256 5 5 (409600)
I0124 03:47:36.292512    94 net.cpp:347] Memory required for data: 7192164416
I0124 03:47:36.292518    94 net.cpp:349] Biggest Memory of single blob: 552960000
I0124 03:47:36.292526    94 layer_factory.hpp:114] Creating layer layer_19_2_2
I0124 03:47:36.292538    94 net.cpp:262] Creating Layer layer_19_2_2
I0124 03:47:36.292543    94 net.cpp:1712] layer_19_2_2 <- layer_19_2_2/depthwise
I0124 03:47:36.292549    94 net.cpp:1686] layer_19_2_2 -> layer_19_2_2
I0124 03:47:36.293715    94 net.cpp:331] Setting up layer_19_2_2
I0124 03:47:36.293725    94 net.cpp:338] Top shape: 64 512 5 5 (819200)
I0124 03:47:36.293738    94 net.cpp:347] Memory required for data: 7195441216
I0124 03:47:36.293743    94 net.cpp:349] Biggest Memory of single blob: 552960000
I0124 03:47:36.293752    94 layer_factory.hpp:114] Creating layer layer_19_2_2/relu
I0124 03:47:36.293764    94 net.cpp:262] Creating Layer layer_19_2_2/relu
I0124 03:47:36.293772    94 net.cpp:1712] layer_19_2_2/relu <- layer_19_2_2
I0124 03:47:36.293783    94 net.cpp:1673] layer_19_2_2/relu -> layer_19_2_2 (in-place)
I0124 03:47:36.293795    94 net.cpp:331] Setting up layer_19_2_2/relu
I0124 03:47:36.293802    94 net.cpp:338] Top shape: 64 512 5 5 (819200)
I0124 03:47:36.293807    94 net.cpp:347] Memory required for data: 7198718016
I0124 03:47:36.293813    94 net.cpp:349] Biggest Memory of single blob: 552960000
I0124 03:47:36.293819    94 layer_factory.hpp:114] Creating layer layer_19_2_2_layer_19_2_2/relu_0_split
I0124 03:47:36.293828    94 net.cpp:262] Creating Layer layer_19_2_2_layer_19_2_2/relu_0_split
I0124 03:47:36.293834    94 net.cpp:1712] layer_19_2_2_layer_19_2_2/relu_0_split <- layer_19_2_2
I0124 03:47:36.293843    94 net.cpp:1686] layer_19_2_2_layer_19_2_2/relu_0_split -> layer_19_2_2_layer_19_2_2/relu_0_split_0
I0124 03:47:36.293851    94 net.cpp:1686] layer_19_2_2_layer_19_2_2/relu_0_split -> layer_19_2_2_layer_19_2_2/relu_0_split_1
I0124 03:47:36.293861    94 net.cpp:1686] layer_19_2_2_layer_19_2_2/relu_0_split -> layer_19_2_2_layer_19_2_2/relu_0_split_2
I0124 03:47:36.293869    94 net.cpp:1686] layer_19_2_2_layer_19_2_2/relu_0_split -> layer_19_2_2_layer_19_2_2/relu_0_split_3
I0124 03:47:36.293877    94 net.cpp:331] Setting up layer_19_2_2_layer_19_2_2/relu_0_split
I0124 03:47:36.293884    94 net.cpp:338] Top shape: 64 512 5 5 (819200)
I0124 03:47:36.293889    94 net.cpp:338] Top shape: 64 512 5 5 (819200)
I0124 03:47:36.293893    94 net.cpp:338] Top shape: 64 512 5 5 (819200)
I0124 03:47:36.293898    94 net.cpp:338] Top shape: 64 512 5 5 (819200)
I0124 03:47:36.293902    94 net.cpp:347] Memory required for data: 7211825216
I0124 03:47:36.293907    94 net.cpp:349] Biggest Memory of single blob: 552960000
I0124 03:47:36.293911    94 layer_factory.hpp:114] Creating layer layer_19_1_3
I0124 03:47:36.293922    94 net.cpp:262] Creating Layer layer_19_1_3
I0124 03:47:36.293929    94 net.cpp:1712] layer_19_1_3 <- layer_19_2_2_layer_19_2_2/relu_0_split_0
I0124 03:47:36.293938    94 net.cpp:1686] layer_19_1_3 -> layer_19_1_3
I0124 03:47:36.294524    94 net.cpp:331] Setting up layer_19_1_3
I0124 03:47:36.294533    94 net.cpp:338] Top shape: 64 128 5 5 (204800)
I0124 03:47:36.294538    94 net.cpp:347] Memory required for data: 7212644416
I0124 03:47:36.294541    94 net.cpp:349] Biggest Memory of single blob: 552960000
I0124 03:47:36.294548    94 layer_factory.hpp:114] Creating layer layer_19_1_3/relu
I0124 03:47:36.294560    94 net.cpp:262] Creating Layer layer_19_1_3/relu
I0124 03:47:36.294569    94 net.cpp:1712] layer_19_1_3/relu <- layer_19_1_3
I0124 03:47:36.294580    94 net.cpp:1673] layer_19_1_3/relu -> layer_19_1_3 (in-place)
I0124 03:47:36.294593    94 net.cpp:331] Setting up layer_19_1_3/relu
I0124 03:47:36.294603    94 net.cpp:338] Top shape: 64 128 5 5 (204800)
I0124 03:47:36.294608    94 net.cpp:347] Memory required for data: 7213463616
I0124 03:47:36.294612    94 net.cpp:349] Biggest Memory of single blob: 552960000
I0124 03:47:36.294617    94 layer_factory.hpp:114] Creating layer layer_19_2_3/depthwise
I0124 03:47:36.294629    94 net.cpp:262] Creating Layer layer_19_2_3/depthwise
I0124 03:47:36.294634    94 net.cpp:1712] layer_19_2_3/depthwise <- layer_19_1_3
I0124 03:47:36.294642    94 net.cpp:1686] layer_19_2_3/depthwise -> layer_19_2_3/depthwise
I0124 03:47:36.294679    94 net.cpp:331] Setting up layer_19_2_3/depthwise
I0124 03:47:36.294687    94 net.cpp:338] Top shape: 64 128 3 3 (73728)
I0124 03:47:36.294692    94 net.cpp:347] Memory required for data: 7213758528
I0124 03:47:36.294697    94 net.cpp:349] Biggest Memory of single blob: 552960000
I0124 03:47:36.294703    94 layer_factory.hpp:114] Creating layer layer_19_2_3/depthwise/relu
I0124 03:47:36.294721    94 net.cpp:262] Creating Layer layer_19_2_3/depthwise/relu
I0124 03:47:36.294728    94 net.cpp:1712] layer_19_2_3/depthwise/relu <- layer_19_2_3/depthwise
I0124 03:47:36.294737    94 net.cpp:1673] layer_19_2_3/depthwise/relu -> layer_19_2_3/depthwise (in-place)
I0124 03:47:36.294750    94 net.cpp:331] Setting up layer_19_2_3/depthwise/relu
I0124 03:47:36.294759    94 net.cpp:338] Top shape: 64 128 3 3 (73728)
I0124 03:47:36.294764    94 net.cpp:347] Memory required for data: 7214053440
I0124 03:47:36.294767    94 net.cpp:349] Biggest Memory of single blob: 552960000
I0124 03:47:36.294772    94 layer_factory.hpp:114] Creating layer layer_19_2_3
I0124 03:47:36.294785    94 net.cpp:262] Creating Layer layer_19_2_3
I0124 03:47:36.294790    94 net.cpp:1712] layer_19_2_3 <- layer_19_2_3/depthwise
I0124 03:47:36.294796    94 net.cpp:1686] layer_19_2_3 -> layer_19_2_3
I0124 03:47:36.295094    94 net.cpp:331] Setting up layer_19_2_3
I0124 03:47:36.295101    94 net.cpp:338] Top shape: 64 256 3 3 (147456)
I0124 03:47:36.295105    94 net.cpp:347] Memory required for data: 7214643264
I0124 03:47:36.295109    94 net.cpp:349] Biggest Memory of single blob: 552960000
I0124 03:47:36.295116    94 layer_factory.hpp:114] Creating layer layer_19_2_3/relu
I0124 03:47:36.295125    94 net.cpp:262] Creating Layer layer_19_2_3/relu
I0124 03:47:36.295130    94 net.cpp:1712] layer_19_2_3/relu <- layer_19_2_3
I0124 03:47:36.295135    94 net.cpp:1673] layer_19_2_3/relu -> layer_19_2_3 (in-place)
I0124 03:47:36.295142    94 net.cpp:331] Setting up layer_19_2_3/relu
I0124 03:47:36.295148    94 net.cpp:338] Top shape: 64 256 3 3 (147456)
I0124 03:47:36.295153    94 net.cpp:347] Memory required for data: 7215233088
I0124 03:47:36.295156    94 net.cpp:349] Biggest Memory of single blob: 552960000
I0124 03:47:36.295161    94 layer_factory.hpp:114] Creating layer layer_19_2_3_layer_19_2_3/relu_0_split
I0124 03:47:36.295171    94 net.cpp:262] Creating Layer layer_19_2_3_layer_19_2_3/relu_0_split
I0124 03:47:36.295176    94 net.cpp:1712] layer_19_2_3_layer_19_2_3/relu_0_split <- layer_19_2_3
I0124 03:47:36.295184    94 net.cpp:1686] layer_19_2_3_layer_19_2_3/relu_0_split -> layer_19_2_3_layer_19_2_3/relu_0_split_0
I0124 03:47:36.295192    94 net.cpp:1686] layer_19_2_3_layer_19_2_3/relu_0_split -> layer_19_2_3_layer_19_2_3/relu_0_split_1
I0124 03:47:36.295199    94 net.cpp:1686] layer_19_2_3_layer_19_2_3/relu_0_split -> layer_19_2_3_layer_19_2_3/relu_0_split_2
I0124 03:47:36.295207    94 net.cpp:1686] layer_19_2_3_layer_19_2_3/relu_0_split -> layer_19_2_3_layer_19_2_3/relu_0_split_3
I0124 03:47:36.295217    94 net.cpp:331] Setting up layer_19_2_3_layer_19_2_3/relu_0_split
I0124 03:47:36.295222    94 net.cpp:338] Top shape: 64 256 3 3 (147456)
I0124 03:47:36.295228    94 net.cpp:338] Top shape: 64 256 3 3 (147456)
I0124 03:47:36.295233    94 net.cpp:338] Top shape: 64 256 3 3 (147456)
I0124 03:47:36.295238    94 net.cpp:338] Top shape: 64 256 3 3 (147456)
I0124 03:47:36.295241    94 net.cpp:347] Memory required for data: 7217592384
I0124 03:47:36.295245    94 net.cpp:349] Biggest Memory of single blob: 552960000
I0124 03:47:36.295248    94 layer_factory.hpp:114] Creating layer layer_19_1_4
I0124 03:47:36.295258    94 net.cpp:262] Creating Layer layer_19_1_4
I0124 03:47:36.295264    94 net.cpp:1712] layer_19_1_4 <- layer_19_2_3_layer_19_2_3/relu_0_split_0
I0124 03:47:36.295270    94 net.cpp:1686] layer_19_1_4 -> layer_19_1_4
I0124 03:47:36.295565    94 net.cpp:331] Setting up layer_19_1_4
I0124 03:47:36.295573    94 net.cpp:338] Top shape: 64 128 3 3 (73728)
I0124 03:47:36.295578    94 net.cpp:347] Memory required for data: 7217887296
I0124 03:47:36.295581    94 net.cpp:349] Biggest Memory of single blob: 552960000
I0124 03:47:36.295588    94 layer_factory.hpp:114] Creating layer layer_19_1_4/relu
I0124 03:47:36.295595    94 net.cpp:262] Creating Layer layer_19_1_4/relu
I0124 03:47:36.295600    94 net.cpp:1712] layer_19_1_4/relu <- layer_19_1_4
I0124 03:47:36.295606    94 net.cpp:1673] layer_19_1_4/relu -> layer_19_1_4 (in-place)
I0124 03:47:36.295621    94 net.cpp:331] Setting up layer_19_1_4/relu
I0124 03:47:36.295627    94 net.cpp:338] Top shape: 64 128 3 3 (73728)
I0124 03:47:36.295632    94 net.cpp:347] Memory required for data: 7218182208
I0124 03:47:36.295639    94 net.cpp:349] Biggest Memory of single blob: 552960000
I0124 03:47:36.295644    94 layer_factory.hpp:114] Creating layer layer_19_2_4/depthwise
I0124 03:47:36.295655    94 net.cpp:262] Creating Layer layer_19_2_4/depthwise
I0124 03:47:36.295660    94 net.cpp:1712] layer_19_2_4/depthwise <- layer_19_1_4
I0124 03:47:36.295668    94 net.cpp:1686] layer_19_2_4/depthwise -> layer_19_2_4/depthwise
I0124 03:47:36.295698    94 net.cpp:331] Setting up layer_19_2_4/depthwise
I0124 03:47:36.295706    94 net.cpp:338] Top shape: 64 128 2 2 (32768)
I0124 03:47:36.295709    94 net.cpp:347] Memory required for data: 7218313280
I0124 03:47:36.295714    94 net.cpp:349] Biggest Memory of single blob: 552960000
I0124 03:47:36.295720    94 layer_factory.hpp:114] Creating layer layer_19_2_4/depthwise/relu
I0124 03:47:36.295732    94 net.cpp:262] Creating Layer layer_19_2_4/depthwise/relu
I0124 03:47:36.295738    94 net.cpp:1712] layer_19_2_4/depthwise/relu <- layer_19_2_4/depthwise
I0124 03:47:36.295744    94 net.cpp:1673] layer_19_2_4/depthwise/relu -> layer_19_2_4/depthwise (in-place)
I0124 03:47:36.295753    94 net.cpp:331] Setting up layer_19_2_4/depthwise/relu
I0124 03:47:36.295758    94 net.cpp:338] Top shape: 64 128 2 2 (32768)
I0124 03:47:36.295763    94 net.cpp:347] Memory required for data: 7218444352
I0124 03:47:36.295766    94 net.cpp:349] Biggest Memory of single blob: 552960000
I0124 03:47:36.295771    94 layer_factory.hpp:114] Creating layer layer_19_2_4
I0124 03:47:36.295780    94 net.cpp:262] Creating Layer layer_19_2_4
I0124 03:47:36.295786    94 net.cpp:1712] layer_19_2_4 <- layer_19_2_4/depthwise
I0124 03:47:36.295794    94 net.cpp:1686] layer_19_2_4 -> layer_19_2_4
I0124 03:47:36.296092    94 net.cpp:331] Setting up layer_19_2_4
I0124 03:47:36.296100    94 net.cpp:338] Top shape: 64 256 2 2 (65536)
I0124 03:47:36.296104    94 net.cpp:347] Memory required for data: 7218706496
I0124 03:47:36.296109    94 net.cpp:349] Biggest Memory of single blob: 552960000
I0124 03:47:36.296116    94 layer_factory.hpp:114] Creating layer layer_19_2_4/relu
I0124 03:47:36.296124    94 net.cpp:262] Creating Layer layer_19_2_4/relu
I0124 03:47:36.296131    94 net.cpp:1712] layer_19_2_4/relu <- layer_19_2_4
I0124 03:47:36.296137    94 net.cpp:1673] layer_19_2_4/relu -> layer_19_2_4 (in-place)
I0124 03:47:36.296144    94 net.cpp:331] Setting up layer_19_2_4/relu
I0124 03:47:36.296149    94 net.cpp:338] Top shape: 64 256 2 2 (65536)
I0124 03:47:36.296155    94 net.cpp:347] Memory required for data: 7218968640
I0124 03:47:36.296159    94 net.cpp:349] Biggest Memory of single blob: 552960000
I0124 03:47:36.296164    94 layer_factory.hpp:114] Creating layer layer_19_2_4_layer_19_2_4/relu_0_split
I0124 03:47:36.296173    94 net.cpp:262] Creating Layer layer_19_2_4_layer_19_2_4/relu_0_split
I0124 03:47:36.296178    94 net.cpp:1712] layer_19_2_4_layer_19_2_4/relu_0_split <- layer_19_2_4
I0124 03:47:36.296186    94 net.cpp:1686] layer_19_2_4_layer_19_2_4/relu_0_split -> layer_19_2_4_layer_19_2_4/relu_0_split_0
I0124 03:47:36.296193    94 net.cpp:1686] layer_19_2_4_layer_19_2_4/relu_0_split -> layer_19_2_4_layer_19_2_4/relu_0_split_1
I0124 03:47:36.296201    94 net.cpp:1686] layer_19_2_4_layer_19_2_4/relu_0_split -> layer_19_2_4_layer_19_2_4/relu_0_split_2
I0124 03:47:36.296208    94 net.cpp:1686] layer_19_2_4_layer_19_2_4/relu_0_split -> layer_19_2_4_layer_19_2_4/relu_0_split_3
I0124 03:47:36.296217    94 net.cpp:331] Setting up layer_19_2_4_layer_19_2_4/relu_0_split
I0124 03:47:36.296222    94 net.cpp:338] Top shape: 64 256 2 2 (65536)
I0124 03:47:36.296226    94 net.cpp:338] Top shape: 64 256 2 2 (65536)
I0124 03:47:36.296231    94 net.cpp:338] Top shape: 64 256 2 2 (65536)
I0124 03:47:36.296236    94 net.cpp:338] Top shape: 64 256 2 2 (65536)
I0124 03:47:36.296238    94 net.cpp:347] Memory required for data: 7220017216
I0124 03:47:36.296250    94 net.cpp:349] Biggest Memory of single blob: 552960000
I0124 03:47:36.296257    94 layer_factory.hpp:114] Creating layer layer_19_1_5
I0124 03:47:36.296267    94 net.cpp:262] Creating Layer layer_19_1_5
I0124 03:47:36.296273    94 net.cpp:1712] layer_19_1_5 <- layer_19_2_4_layer_19_2_4/relu_0_split_0
I0124 03:47:36.296280    94 net.cpp:1686] layer_19_1_5 -> layer_19_1_5
I0124 03:47:36.296435    94 net.cpp:331] Setting up layer_19_1_5
I0124 03:47:36.296442    94 net.cpp:338] Top shape: 64 64 2 2 (16384)
I0124 03:47:36.296447    94 net.cpp:347] Memory required for data: 7220082752
I0124 03:47:36.296452    94 net.cpp:349] Biggest Memory of single blob: 552960000
I0124 03:47:36.296458    94 layer_factory.hpp:114] Creating layer layer_19_1_5/relu
I0124 03:47:36.296465    94 net.cpp:262] Creating Layer layer_19_1_5/relu
I0124 03:47:36.296470    94 net.cpp:1712] layer_19_1_5/relu <- layer_19_1_5
I0124 03:47:36.296478    94 net.cpp:1673] layer_19_1_5/relu -> layer_19_1_5 (in-place)
I0124 03:47:36.296484    94 net.cpp:331] Setting up layer_19_1_5/relu
I0124 03:47:36.296491    94 net.cpp:338] Top shape: 64 64 2 2 (16384)
I0124 03:47:36.296496    94 net.cpp:347] Memory required for data: 7220148288
I0124 03:47:36.296501    94 net.cpp:349] Biggest Memory of single blob: 552960000
I0124 03:47:36.296506    94 layer_factory.hpp:114] Creating layer layer_19_2_5/depthwise
I0124 03:47:36.296517    94 net.cpp:262] Creating Layer layer_19_2_5/depthwise
I0124 03:47:36.296522    94 net.cpp:1712] layer_19_2_5/depthwise <- layer_19_1_5
I0124 03:47:36.296528    94 net.cpp:1686] layer_19_2_5/depthwise -> layer_19_2_5/depthwise
I0124 03:47:36.296552    94 net.cpp:331] Setting up layer_19_2_5/depthwise
I0124 03:47:36.296558    94 net.cpp:338] Top shape: 64 64 1 1 (4096)
I0124 03:47:36.296562    94 net.cpp:347] Memory required for data: 7220164672
I0124 03:47:36.296566    94 net.cpp:349] Biggest Memory of single blob: 552960000
I0124 03:47:36.296573    94 layer_factory.hpp:114] Creating layer layer_19_2_5/depthwise/relu
I0124 03:47:36.296583    94 net.cpp:262] Creating Layer layer_19_2_5/depthwise/relu
I0124 03:47:36.296588    94 net.cpp:1712] layer_19_2_5/depthwise/relu <- layer_19_2_5/depthwise
I0124 03:47:36.296594    94 net.cpp:1673] layer_19_2_5/depthwise/relu -> layer_19_2_5/depthwise (in-place)
I0124 03:47:36.296602    94 net.cpp:331] Setting up layer_19_2_5/depthwise/relu
I0124 03:47:36.296607    94 net.cpp:338] Top shape: 64 64 1 1 (4096)
I0124 03:47:36.296612    94 net.cpp:347] Memory required for data: 7220181056
I0124 03:47:36.296617    94 net.cpp:349] Biggest Memory of single blob: 552960000
I0124 03:47:36.296622    94 layer_factory.hpp:114] Creating layer layer_19_2_5
I0124 03:47:36.296633    94 net.cpp:262] Creating Layer layer_19_2_5
I0124 03:47:36.296638    94 net.cpp:1712] layer_19_2_5 <- layer_19_2_5/depthwise
I0124 03:47:36.296644    94 net.cpp:1686] layer_19_2_5 -> layer_19_2_5
I0124 03:47:36.296725    94 net.cpp:331] Setting up layer_19_2_5
I0124 03:47:36.296732    94 net.cpp:338] Top shape: 64 128 1 1 (8192)
I0124 03:47:36.296736    94 net.cpp:347] Memory required for data: 7220213824
I0124 03:47:36.296741    94 net.cpp:349] Biggest Memory of single blob: 552960000
I0124 03:47:36.296747    94 layer_factory.hpp:114] Creating layer layer_19_2_5/relu
I0124 03:47:36.296756    94 net.cpp:262] Creating Layer layer_19_2_5/relu
I0124 03:47:36.296761    94 net.cpp:1712] layer_19_2_5/relu <- layer_19_2_5
I0124 03:47:36.296766    94 net.cpp:1673] layer_19_2_5/relu -> layer_19_2_5 (in-place)
I0124 03:47:36.296772    94 net.cpp:331] Setting up layer_19_2_5/relu
I0124 03:47:36.296779    94 net.cpp:338] Top shape: 64 128 1 1 (8192)
I0124 03:47:36.296783    94 net.cpp:347] Memory required for data: 7220246592
I0124 03:47:36.296788    94 net.cpp:349] Biggest Memory of single blob: 552960000
I0124 03:47:36.296792    94 layer_factory.hpp:114] Creating layer layer_19_2_5_layer_19_2_5/relu_0_split
I0124 03:47:36.296800    94 net.cpp:262] Creating Layer layer_19_2_5_layer_19_2_5/relu_0_split
I0124 03:47:36.296811    94 net.cpp:1712] layer_19_2_5_layer_19_2_5/relu_0_split <- layer_19_2_5
I0124 03:47:36.296820    94 net.cpp:1686] layer_19_2_5_layer_19_2_5/relu_0_split -> layer_19_2_5_layer_19_2_5/relu_0_split_0
I0124 03:47:36.296828    94 net.cpp:1686] layer_19_2_5_layer_19_2_5/relu_0_split -> layer_19_2_5_layer_19_2_5/relu_0_split_1
I0124 03:47:36.296835    94 net.cpp:1686] layer_19_2_5_layer_19_2_5/relu_0_split -> layer_19_2_5_layer_19_2_5/relu_0_split_2
I0124 03:47:36.296844    94 net.cpp:331] Setting up layer_19_2_5_layer_19_2_5/relu_0_split
I0124 03:47:36.296850    94 net.cpp:338] Top shape: 64 128 1 1 (8192)
I0124 03:47:36.296856    94 net.cpp:338] Top shape: 64 128 1 1 (8192)
I0124 03:47:36.296861    94 net.cpp:338] Top shape: 64 128 1 1 (8192)
I0124 03:47:36.296866    94 net.cpp:347] Memory required for data: 7220344896
I0124 03:47:36.296870    94 net.cpp:349] Biggest Memory of single blob: 552960000
I0124 03:47:36.296875    94 layer_factory.hpp:114] Creating layer conv_13/expand_mbox_loc/depthwise
I0124 03:47:36.296885    94 net.cpp:262] Creating Layer conv_13/expand_mbox_loc/depthwise
I0124 03:47:36.296890    94 net.cpp:1712] conv_13/expand_mbox_loc/depthwise <- conv_13/expand_conv_13/expand/relu_0_split_1
I0124 03:47:36.296898    94 net.cpp:1686] conv_13/expand_mbox_loc/depthwise -> conv_13/expand_mbox_loc/depthwise
I0124 03:47:36.296958    94 net.cpp:331] Setting up conv_13/expand_mbox_loc/depthwise
I0124 03:47:36.296965    94 net.cpp:338] Top shape: 64 576 19 19 (13307904)
I0124 03:47:36.296968    94 net.cpp:347] Memory required for data: 7273576512
I0124 03:47:36.296972    94 net.cpp:349] Biggest Memory of single blob: 552960000
I0124 03:47:36.296985    94 layer_factory.hpp:114] Creating layer conv_13/expand_mbox_loc/depthwise/bn
I0124 03:47:36.296996    94 net.cpp:262] Creating Layer conv_13/expand_mbox_loc/depthwise/bn
I0124 03:47:36.297001    94 net.cpp:1712] conv_13/expand_mbox_loc/depthwise/bn <- conv_13/expand_mbox_loc/depthwise
I0124 03:47:36.297008    94 net.cpp:1673] conv_13/expand_mbox_loc/depthwise/bn -> conv_13/expand_mbox_loc/depthwise (in-place)
I0124 03:47:36.297030    94 net.cpp:331] Setting up conv_13/expand_mbox_loc/depthwise/bn
I0124 03:47:36.297037    94 net.cpp:338] Top shape: 64 576 19 19 (13307904)
I0124 03:47:36.297042    94 net.cpp:347] Memory required for data: 7326808128
I0124 03:47:36.297046    94 net.cpp:349] Biggest Memory of single blob: 552960000
I0124 03:47:36.297055    94 layer_factory.hpp:114] Creating layer conv_13/expand_mbox_loc/depthwise/relu
I0124 03:47:36.297065    94 net.cpp:262] Creating Layer conv_13/expand_mbox_loc/depthwise/relu
I0124 03:47:36.297070    94 net.cpp:1712] conv_13/expand_mbox_loc/depthwise/relu <- conv_13/expand_mbox_loc/depthwise
I0124 03:47:36.297075    94 net.cpp:1673] conv_13/expand_mbox_loc/depthwise/relu -> conv_13/expand_mbox_loc/depthwise (in-place)
I0124 03:47:36.297080    94 net.cpp:331] Setting up conv_13/expand_mbox_loc/depthwise/relu
I0124 03:47:36.297087    94 net.cpp:338] Top shape: 64 576 19 19 (13307904)
I0124 03:47:36.297091    94 net.cpp:347] Memory required for data: 7380039744
I0124 03:47:36.297096    94 net.cpp:349] Biggest Memory of single blob: 552960000
I0124 03:47:36.297101    94 layer_factory.hpp:114] Creating layer conv_13/expand_mbox_loc
I0124 03:47:36.297111    94 net.cpp:262] Creating Layer conv_13/expand_mbox_loc
I0124 03:47:36.297117    94 net.cpp:1712] conv_13/expand_mbox_loc <- conv_13/expand_mbox_loc/depthwise
I0124 03:47:36.297124    94 net.cpp:1686] conv_13/expand_mbox_loc -> conv_13/expand_mbox_loc
I0124 03:47:36.297199    94 net.cpp:331] Setting up conv_13/expand_mbox_loc
I0124 03:47:36.297209    94 net.cpp:338] Top shape: 64 12 19 19 (277248)
I0124 03:47:36.297216    94 net.cpp:347] Memory required for data: 7381148736
I0124 03:47:36.297222    94 net.cpp:349] Biggest Memory of single blob: 552960000
I0124 03:47:36.297230    94 layer_factory.hpp:114] Creating layer conv_13/expand_mbox_loc_perm
I0124 03:47:36.297240    94 net.cpp:262] Creating Layer conv_13/expand_mbox_loc_perm
I0124 03:47:36.297252    94 net.cpp:1712] conv_13/expand_mbox_loc_perm <- conv_13/expand_mbox_loc
I0124 03:47:36.297260    94 net.cpp:1686] conv_13/expand_mbox_loc_perm -> conv_13/expand_mbox_loc_perm
I0124 03:47:36.297281    94 net.cpp:331] Setting up conv_13/expand_mbox_loc_perm
I0124 03:47:36.297287    94 net.cpp:338] Top shape: 64 19 19 12 (277248)
I0124 03:47:36.297291    94 net.cpp:347] Memory required for data: 7382257728
I0124 03:47:36.297294    94 net.cpp:349] Biggest Memory of single blob: 552960000
I0124 03:47:36.297299    94 layer_factory.hpp:114] Creating layer conv_13/expand_mbox_loc_flat
I0124 03:47:36.297310    94 net.cpp:262] Creating Layer conv_13/expand_mbox_loc_flat
I0124 03:47:36.297317    94 net.cpp:1712] conv_13/expand_mbox_loc_flat <- conv_13/expand_mbox_loc_perm
I0124 03:47:36.297322    94 net.cpp:1686] conv_13/expand_mbox_loc_flat -> conv_13/expand_mbox_loc_flat
I0124 03:47:36.297331    94 net.cpp:331] Setting up conv_13/expand_mbox_loc_flat
I0124 03:47:36.297338    94 net.cpp:338] Top shape: 64 4332 (277248)
I0124 03:47:36.297343    94 net.cpp:347] Memory required for data: 7383366720
I0124 03:47:36.297346    94 net.cpp:349] Biggest Memory of single blob: 552960000
I0124 03:47:36.297350    94 layer_factory.hpp:114] Creating layer conv_13/expand_mbox_conf/depthwise
I0124 03:47:36.297361    94 net.cpp:262] Creating Layer conv_13/expand_mbox_conf/depthwise
I0124 03:47:36.297366    94 net.cpp:1712] conv_13/expand_mbox_conf/depthwise <- conv_13/expand_conv_13/expand/relu_0_split_2
I0124 03:47:36.297374    94 net.cpp:1686] conv_13/expand_mbox_conf/depthwise -> conv_13/expand_mbox_conf/depthwise
I0124 03:47:36.297433    94 net.cpp:331] Setting up conv_13/expand_mbox_conf/depthwise
I0124 03:47:36.297441    94 net.cpp:338] Top shape: 64 576 19 19 (13307904)
I0124 03:47:36.297444    94 net.cpp:347] Memory required for data: 7436598336
I0124 03:47:36.297448    94 net.cpp:349] Biggest Memory of single blob: 552960000
I0124 03:47:36.297456    94 layer_factory.hpp:114] Creating layer conv_13/expand_mbox_conf/depthwise/bn
I0124 03:47:36.297466    94 net.cpp:262] Creating Layer conv_13/expand_mbox_conf/depthwise/bn
I0124 03:47:36.297472    94 net.cpp:1712] conv_13/expand_mbox_conf/depthwise/bn <- conv_13/expand_mbox_conf/depthwise
I0124 03:47:36.297477    94 net.cpp:1673] conv_13/expand_mbox_conf/depthwise/bn -> conv_13/expand_mbox_conf/depthwise (in-place)
I0124 03:47:36.297497    94 net.cpp:331] Setting up conv_13/expand_mbox_conf/depthwise/bn
I0124 03:47:36.297513    94 net.cpp:338] Top shape: 64 576 19 19 (13307904)
I0124 03:47:36.297518    94 net.cpp:347] Memory required for data: 7489829952
I0124 03:47:36.297524    94 net.cpp:349] Biggest Memory of single blob: 552960000
I0124 03:47:36.297536    94 layer_factory.hpp:114] Creating layer conv_13/expand_mbox_conf/depthwise/relu
I0124 03:47:36.297546    94 net.cpp:262] Creating Layer conv_13/expand_mbox_conf/depthwise/relu
I0124 03:47:36.297552    94 net.cpp:1712] conv_13/expand_mbox_conf/depthwise/relu <- conv_13/expand_mbox_conf/depthwise
I0124 03:47:36.297561    94 net.cpp:1673] conv_13/expand_mbox_conf/depthwise/relu -> conv_13/expand_mbox_conf/depthwise (in-place)
I0124 03:47:36.297569    94 net.cpp:331] Setting up conv_13/expand_mbox_conf/depthwise/relu
I0124 03:47:36.297574    94 net.cpp:338] Top shape: 64 576 19 19 (13307904)
I0124 03:47:36.297580    94 net.cpp:347] Memory required for data: 7543061568
I0124 03:47:36.297582    94 net.cpp:349] Biggest Memory of single blob: 552960000
I0124 03:47:36.297586    94 layer_factory.hpp:114] Creating layer conv_13/expand_mbox_conf_new
I0124 03:47:36.297598    94 net.cpp:262] Creating Layer conv_13/expand_mbox_conf_new
I0124 03:47:36.297605    94 net.cpp:1712] conv_13/expand_mbox_conf_new <- conv_13/expand_mbox_conf/depthwise
I0124 03:47:36.297613    94 net.cpp:1686] conv_13/expand_mbox_conf_new -> conv_13/expand_mbox_conf_new
I0124 03:47:36.297956    94 net.cpp:331] Setting up conv_13/expand_mbox_conf_new
I0124 03:47:36.297966    94 net.cpp:338] Top shape: 64 63 19 19 (1455552)
I0124 03:47:36.297971    94 net.cpp:347] Memory required for data: 7548883776
I0124 03:47:36.297983    94 net.cpp:349] Biggest Memory of single blob: 552960000
I0124 03:47:36.297991    94 layer_factory.hpp:114] Creating layer conv_13/expand_mbox_conf_perm
I0124 03:47:36.297997    94 net.cpp:262] Creating Layer conv_13/expand_mbox_conf_perm
I0124 03:47:36.298002    94 net.cpp:1712] conv_13/expand_mbox_conf_perm <- conv_13/expand_mbox_conf_new
I0124 03:47:36.298012    94 net.cpp:1686] conv_13/expand_mbox_conf_perm -> conv_13/expand_mbox_conf_perm
I0124 03:47:36.298023    94 net.cpp:331] Setting up conv_13/expand_mbox_conf_perm
I0124 03:47:36.298029    94 net.cpp:338] Top shape: 64 19 19 63 (1455552)
I0124 03:47:36.298034    94 net.cpp:347] Memory required for data: 7554705984
I0124 03:47:36.298039    94 net.cpp:349] Biggest Memory of single blob: 552960000
I0124 03:47:36.298048    94 layer_factory.hpp:114] Creating layer conv_13/expand_mbox_conf_flat
I0124 03:47:36.298058    94 net.cpp:262] Creating Layer conv_13/expand_mbox_conf_flat
I0124 03:47:36.298063    94 net.cpp:1712] conv_13/expand_mbox_conf_flat <- conv_13/expand_mbox_conf_perm
I0124 03:47:36.298076    94 net.cpp:1686] conv_13/expand_mbox_conf_flat -> conv_13/expand_mbox_conf_flat
I0124 03:47:36.298090    94 net.cpp:331] Setting up conv_13/expand_mbox_conf_flat
I0124 03:47:36.298099    94 net.cpp:338] Top shape: 64 22743 (1455552)
I0124 03:47:36.298103    94 net.cpp:347] Memory required for data: 7560528192
I0124 03:47:36.298108    94 net.cpp:349] Biggest Memory of single blob: 552960000
I0124 03:47:36.298113    94 layer_factory.hpp:114] Creating layer conv_13/expand_mbox_priorbox
I0124 03:47:36.298120    94 net.cpp:262] Creating Layer conv_13/expand_mbox_priorbox
I0124 03:47:36.298127    94 net.cpp:1712] conv_13/expand_mbox_priorbox <- conv_13/expand_conv_13/expand/relu_0_split_3
I0124 03:47:36.298139    94 net.cpp:1712] conv_13/expand_mbox_priorbox <- data_data_0_split_1
I0124 03:47:36.298148    94 net.cpp:1686] conv_13/expand_mbox_priorbox -> conv_13/expand_mbox_priorbox
I0124 03:47:36.298163    94 net.cpp:331] Setting up conv_13/expand_mbox_priorbox
I0124 03:47:36.298171    94 net.cpp:338] Top shape: 1 2 4332 (8664)
I0124 03:47:36.298174    94 net.cpp:347] Memory required for data: 7560562848
I0124 03:47:36.298178    94 net.cpp:349] Biggest Memory of single blob: 552960000
I0124 03:47:36.298182    94 layer_factory.hpp:114] Creating layer Conv_1_mbox_loc/depthwise
I0124 03:47:36.298193    94 net.cpp:262] Creating Layer Conv_1_mbox_loc/depthwise
I0124 03:47:36.298199    94 net.cpp:1712] Conv_1_mbox_loc/depthwise <- Conv_1_Conv_1/relu_0_split_1
I0124 03:47:36.298208    94 net.cpp:1686] Conv_1_mbox_loc/depthwise -> Conv_1_mbox_loc/depthwise
I0124 03:47:36.298339    94 net.cpp:331] Setting up Conv_1_mbox_loc/depthwise
I0124 03:47:36.298347    94 net.cpp:338] Top shape: 64 1280 10 10 (8192000)
I0124 03:47:36.298352    94 net.cpp:347] Memory required for data: 7593330848
I0124 03:47:36.298355    94 net.cpp:349] Biggest Memory of single blob: 552960000
I0124 03:47:36.298362    94 layer_factory.hpp:114] Creating layer Conv_1_mbox_loc/depthwise/bn
I0124 03:47:36.298372    94 net.cpp:262] Creating Layer Conv_1_mbox_loc/depthwise/bn
I0124 03:47:36.298378    94 net.cpp:1712] Conv_1_mbox_loc/depthwise/bn <- Conv_1_mbox_loc/depthwise
I0124 03:47:36.298386    94 net.cpp:1673] Conv_1_mbox_loc/depthwise/bn -> Conv_1_mbox_loc/depthwise (in-place)
I0124 03:47:36.298418    94 net.cpp:331] Setting up Conv_1_mbox_loc/depthwise/bn
I0124 03:47:36.298425    94 net.cpp:338] Top shape: 64 1280 10 10 (8192000)
I0124 03:47:36.298431    94 net.cpp:347] Memory required for data: 7626098848
I0124 03:47:36.298439    94 net.cpp:349] Biggest Memory of single blob: 552960000
I0124 03:47:36.298449    94 layer_factory.hpp:114] Creating layer Conv_1_mbox_loc/depthwise/relu
I0124 03:47:36.298462    94 net.cpp:262] Creating Layer Conv_1_mbox_loc/depthwise/relu
I0124 03:47:36.298470    94 net.cpp:1712] Conv_1_mbox_loc/depthwise/relu <- Conv_1_mbox_loc/depthwise
I0124 03:47:36.298480    94 net.cpp:1673] Conv_1_mbox_loc/depthwise/relu -> Conv_1_mbox_loc/depthwise (in-place)
I0124 03:47:36.298498    94 net.cpp:331] Setting up Conv_1_mbox_loc/depthwise/relu
I0124 03:47:36.298509    94 net.cpp:338] Top shape: 64 1280 10 10 (8192000)
I0124 03:47:36.298514    94 net.cpp:347] Memory required for data: 7658866848
I0124 03:47:36.298518    94 net.cpp:349] Biggest Memory of single blob: 552960000
I0124 03:47:36.298523    94 layer_factory.hpp:114] Creating layer Conv_1_mbox_loc
I0124 03:47:36.298539    94 net.cpp:262] Creating Layer Conv_1_mbox_loc
I0124 03:47:36.298545    94 net.cpp:1712] Conv_1_mbox_loc <- Conv_1_mbox_loc/depthwise
I0124 03:47:36.298553    94 net.cpp:1686] Conv_1_mbox_loc -> Conv_1_mbox_loc
I0124 03:47:36.298848    94 net.cpp:331] Setting up Conv_1_mbox_loc
I0124 03:47:36.298858    94 net.cpp:338] Top shape: 64 24 10 10 (153600)
I0124 03:47:36.298862    94 net.cpp:347] Memory required for data: 7659481248
I0124 03:47:36.298867    94 net.cpp:349] Biggest Memory of single blob: 552960000
I0124 03:47:36.298874    94 layer_factory.hpp:114] Creating layer Conv_1_mbox_loc_perm
I0124 03:47:36.298882    94 net.cpp:262] Creating Layer Conv_1_mbox_loc_perm
I0124 03:47:36.298887    94 net.cpp:1712] Conv_1_mbox_loc_perm <- Conv_1_mbox_loc
I0124 03:47:36.298893    94 net.cpp:1686] Conv_1_mbox_loc_perm -> Conv_1_mbox_loc_perm
I0124 03:47:36.298907    94 net.cpp:331] Setting up Conv_1_mbox_loc_perm
I0124 03:47:36.298911    94 net.cpp:338] Top shape: 64 10 10 24 (153600)
I0124 03:47:36.298916    94 net.cpp:347] Memory required for data: 7660095648
I0124 03:47:36.298920    94 net.cpp:349] Biggest Memory of single blob: 552960000
I0124 03:47:36.298926    94 layer_factory.hpp:114] Creating layer Conv_1_mbox_loc_flat
I0124 03:47:36.298933    94 net.cpp:262] Creating Layer Conv_1_mbox_loc_flat
I0124 03:47:36.298939    94 net.cpp:1712] Conv_1_mbox_loc_flat <- Conv_1_mbox_loc_perm
I0124 03:47:36.298949    94 net.cpp:1686] Conv_1_mbox_loc_flat -> Conv_1_mbox_loc_flat
I0124 03:47:36.298960    94 net.cpp:331] Setting up Conv_1_mbox_loc_flat
I0124 03:47:36.298967    94 net.cpp:338] Top shape: 64 2400 (153600)
I0124 03:47:36.298974    94 net.cpp:347] Memory required for data: 7660710048
I0124 03:47:36.298979    94 net.cpp:349] Biggest Memory of single blob: 552960000
I0124 03:47:36.298985    94 layer_factory.hpp:114] Creating layer Conv_1_mbox_conf/depthwise
I0124 03:47:36.299000    94 net.cpp:262] Creating Layer Conv_1_mbox_conf/depthwise
I0124 03:47:36.299008    94 net.cpp:1712] Conv_1_mbox_conf/depthwise <- Conv_1_Conv_1/relu_0_split_2
I0124 03:47:36.299021    94 net.cpp:1686] Conv_1_mbox_conf/depthwise -> Conv_1_mbox_conf/depthwise
I0124 03:47:36.299156    94 net.cpp:331] Setting up Conv_1_mbox_conf/depthwise
I0124 03:47:36.299166    94 net.cpp:338] Top shape: 64 1280 10 10 (8192000)
I0124 03:47:36.299171    94 net.cpp:347] Memory required for data: 7693478048
I0124 03:47:36.299175    94 net.cpp:349] Biggest Memory of single blob: 552960000
I0124 03:47:36.299182    94 layer_factory.hpp:114] Creating layer Conv_1_mbox_conf/depthwise/bn
I0124 03:47:36.299191    94 net.cpp:262] Creating Layer Conv_1_mbox_conf/depthwise/bn
I0124 03:47:36.299196    94 net.cpp:1712] Conv_1_mbox_conf/depthwise/bn <- Conv_1_mbox_conf/depthwise
I0124 03:47:36.299203    94 net.cpp:1673] Conv_1_mbox_conf/depthwise/bn -> Conv_1_mbox_conf/depthwise (in-place)
I0124 03:47:36.299227    94 net.cpp:331] Setting up Conv_1_mbox_conf/depthwise/bn
I0124 03:47:36.299233    94 net.cpp:338] Top shape: 64 1280 10 10 (8192000)
I0124 03:47:36.299238    94 net.cpp:347] Memory required for data: 7726246048
I0124 03:47:36.299243    94 net.cpp:349] Biggest Memory of single blob: 552960000
I0124 03:47:36.299252    94 layer_factory.hpp:114] Creating layer Conv_1_mbox_conf/depthwise/relu
I0124 03:47:36.299264    94 net.cpp:262] Creating Layer Conv_1_mbox_conf/depthwise/relu
I0124 03:47:36.299271    94 net.cpp:1712] Conv_1_mbox_conf/depthwise/relu <- Conv_1_mbox_conf/depthwise
I0124 03:47:36.299281    94 net.cpp:1673] Conv_1_mbox_conf/depthwise/relu -> Conv_1_mbox_conf/depthwise (in-place)
I0124 03:47:36.299294    94 net.cpp:331] Setting up Conv_1_mbox_conf/depthwise/relu
I0124 03:47:36.299310    94 net.cpp:338] Top shape: 64 1280 10 10 (8192000)
I0124 03:47:36.299316    94 net.cpp:347] Memory required for data: 7759014048
I0124 03:47:36.299321    94 net.cpp:349] Biggest Memory of single blob: 552960000
I0124 03:47:36.299327    94 layer_factory.hpp:114] Creating layer Conv_1_mbox_conf_new
I0124 03:47:36.299338    94 net.cpp:262] Creating Layer Conv_1_mbox_conf_new
I0124 03:47:36.299345    94 net.cpp:1712] Conv_1_mbox_conf_new <- Conv_1_mbox_conf/depthwise
I0124 03:47:36.299352    94 net.cpp:1686] Conv_1_mbox_conf_new -> Conv_1_mbox_conf_new
I0124 03:47:36.300765    94 net.cpp:331] Setting up Conv_1_mbox_conf_new
I0124 03:47:36.300776    94 net.cpp:338] Top shape: 64 126 10 10 (806400)
I0124 03:47:36.300783    94 net.cpp:347] Memory required for data: 7762239648
I0124 03:47:36.300789    94 net.cpp:349] Biggest Memory of single blob: 552960000
I0124 03:47:36.300801    94 layer_factory.hpp:114] Creating layer Conv_1_mbox_conf_perm
I0124 03:47:36.300807    94 net.cpp:262] Creating Layer Conv_1_mbox_conf_perm
I0124 03:47:36.300815    94 net.cpp:1712] Conv_1_mbox_conf_perm <- Conv_1_mbox_conf_new
I0124 03:47:36.300828    94 net.cpp:1686] Conv_1_mbox_conf_perm -> Conv_1_mbox_conf_perm
I0124 03:47:36.300846    94 net.cpp:331] Setting up Conv_1_mbox_conf_perm
I0124 03:47:36.300859    94 net.cpp:338] Top shape: 64 10 10 126 (806400)
I0124 03:47:36.300866    94 net.cpp:347] Memory required for data: 7765465248
I0124 03:47:36.300871    94 net.cpp:349] Biggest Memory of single blob: 552960000
I0124 03:47:36.300879    94 layer_factory.hpp:114] Creating layer Conv_1_mbox_conf_flat
I0124 03:47:36.300887    94 net.cpp:262] Creating Layer Conv_1_mbox_conf_flat
I0124 03:47:36.300895    94 net.cpp:1712] Conv_1_mbox_conf_flat <- Conv_1_mbox_conf_perm
I0124 03:47:36.300907    94 net.cpp:1686] Conv_1_mbox_conf_flat -> Conv_1_mbox_conf_flat
I0124 03:47:36.300920    94 net.cpp:331] Setting up Conv_1_mbox_conf_flat
I0124 03:47:36.300930    94 net.cpp:338] Top shape: 64 12600 (806400)
I0124 03:47:36.300935    94 net.cpp:347] Memory required for data: 7768690848
I0124 03:47:36.300940    94 net.cpp:349] Biggest Memory of single blob: 552960000
I0124 03:47:36.300945    94 layer_factory.hpp:114] Creating layer Conv_1_mbox_priorbox
I0124 03:47:36.300951    94 net.cpp:262] Creating Layer Conv_1_mbox_priorbox
I0124 03:47:36.300957    94 net.cpp:1712] Conv_1_mbox_priorbox <- Conv_1_Conv_1/relu_0_split_3
I0124 03:47:36.300963    94 net.cpp:1712] Conv_1_mbox_priorbox <- data_data_0_split_2
I0124 03:47:36.300972    94 net.cpp:1686] Conv_1_mbox_priorbox -> Conv_1_mbox_priorbox
I0124 03:47:36.300981    94 net.cpp:331] Setting up Conv_1_mbox_priorbox
I0124 03:47:36.300990    94 net.cpp:338] Top shape: 1 2 2400 (4800)
I0124 03:47:36.300997    94 net.cpp:347] Memory required for data: 7768710048
I0124 03:47:36.301004    94 net.cpp:349] Biggest Memory of single blob: 552960000
I0124 03:47:36.301012    94 layer_factory.hpp:114] Creating layer layer_19_2_2_mbox_loc/depthwise
I0124 03:47:36.301030    94 net.cpp:262] Creating Layer layer_19_2_2_mbox_loc/depthwise
I0124 03:47:36.301039    94 net.cpp:1712] layer_19_2_2_mbox_loc/depthwise <- layer_19_2_2_layer_19_2_2/relu_0_split_1
I0124 03:47:36.301049    94 net.cpp:1686] layer_19_2_2_mbox_loc/depthwise -> layer_19_2_2_mbox_loc/depthwise
I0124 03:47:36.301116    94 net.cpp:331] Setting up layer_19_2_2_mbox_loc/depthwise
I0124 03:47:36.301126    94 net.cpp:338] Top shape: 64 512 5 5 (819200)
I0124 03:47:36.301129    94 net.cpp:347] Memory required for data: 7771986848
I0124 03:47:36.301133    94 net.cpp:349] Biggest Memory of single blob: 552960000
I0124 03:47:36.301141    94 layer_factory.hpp:114] Creating layer layer_19_2_2_mbox_loc/depthwise/bn
I0124 03:47:36.301149    94 net.cpp:262] Creating Layer layer_19_2_2_mbox_loc/depthwise/bn
I0124 03:47:36.301154    94 net.cpp:1712] layer_19_2_2_mbox_loc/depthwise/bn <- layer_19_2_2_mbox_loc/depthwise
I0124 03:47:36.301162    94 net.cpp:1673] layer_19_2_2_mbox_loc/depthwise/bn -> layer_19_2_2_mbox_loc/depthwise (in-place)
I0124 03:47:36.301201    94 net.cpp:331] Setting up layer_19_2_2_mbox_loc/depthwise/bn
I0124 03:47:36.301209    94 net.cpp:338] Top shape: 64 512 5 5 (819200)
I0124 03:47:36.301214    94 net.cpp:347] Memory required for data: 7775263648
I0124 03:47:36.301220    94 net.cpp:349] Biggest Memory of single blob: 552960000
I0124 03:47:36.301231    94 layer_factory.hpp:114] Creating layer layer_19_2_2_mbox_loc/depthwise/relu
I0124 03:47:36.301241    94 net.cpp:262] Creating Layer layer_19_2_2_mbox_loc/depthwise/relu
I0124 03:47:36.301246    94 net.cpp:1712] layer_19_2_2_mbox_loc/depthwise/relu <- layer_19_2_2_mbox_loc/depthwise
I0124 03:47:36.301259    94 net.cpp:1673] layer_19_2_2_mbox_loc/depthwise/relu -> layer_19_2_2_mbox_loc/depthwise (in-place)
I0124 03:47:36.301270    94 net.cpp:331] Setting up layer_19_2_2_mbox_loc/depthwise/relu
I0124 03:47:36.301277    94 net.cpp:338] Top shape: 64 512 5 5 (819200)
I0124 03:47:36.301280    94 net.cpp:347] Memory required for data: 7778540448
I0124 03:47:36.301285    94 net.cpp:349] Biggest Memory of single blob: 552960000
I0124 03:47:36.301291    94 layer_factory.hpp:114] Creating layer layer_19_2_2_mbox_loc
I0124 03:47:36.301303    94 net.cpp:262] Creating Layer layer_19_2_2_mbox_loc
I0124 03:47:36.301309    94 net.cpp:1712] layer_19_2_2_mbox_loc <- layer_19_2_2_mbox_loc/depthwise
I0124 03:47:36.301321    94 net.cpp:1686] layer_19_2_2_mbox_loc -> layer_19_2_2_mbox_loc
I0124 03:47:36.301455    94 net.cpp:331] Setting up layer_19_2_2_mbox_loc
I0124 03:47:36.301463    94 net.cpp:338] Top shape: 64 24 5 5 (38400)
I0124 03:47:36.301467    94 net.cpp:347] Memory required for data: 7778694048
I0124 03:47:36.301471    94 net.cpp:349] Biggest Memory of single blob: 552960000
I0124 03:47:36.301479    94 layer_factory.hpp:114] Creating layer layer_19_2_2_mbox_loc_perm
I0124 03:47:36.301492    94 net.cpp:262] Creating Layer layer_19_2_2_mbox_loc_perm
I0124 03:47:36.301506    94 net.cpp:1712] layer_19_2_2_mbox_loc_perm <- layer_19_2_2_mbox_loc
I0124 03:47:36.301517    94 net.cpp:1686] layer_19_2_2_mbox_loc_perm -> layer_19_2_2_mbox_loc_perm
I0124 03:47:36.301529    94 net.cpp:331] Setting up layer_19_2_2_mbox_loc_perm
I0124 03:47:36.301537    94 net.cpp:338] Top shape: 64 5 5 24 (38400)
I0124 03:47:36.301540    94 net.cpp:347] Memory required for data: 7778847648
I0124 03:47:36.301548    94 net.cpp:349] Biggest Memory of single blob: 552960000
I0124 03:47:36.301553    94 layer_factory.hpp:114] Creating layer layer_19_2_2_mbox_loc_flat
I0124 03:47:36.301560    94 net.cpp:262] Creating Layer layer_19_2_2_mbox_loc_flat
I0124 03:47:36.301566    94 net.cpp:1712] layer_19_2_2_mbox_loc_flat <- layer_19_2_2_mbox_loc_perm
I0124 03:47:36.301578    94 net.cpp:1686] layer_19_2_2_mbox_loc_flat -> layer_19_2_2_mbox_loc_flat
I0124 03:47:36.301591    94 net.cpp:331] Setting up layer_19_2_2_mbox_loc_flat
I0124 03:47:36.301600    94 net.cpp:338] Top shape: 64 600 (38400)
I0124 03:47:36.301606    94 net.cpp:347] Memory required for data: 7779001248
I0124 03:47:36.301611    94 net.cpp:349] Biggest Memory of single blob: 552960000
I0124 03:47:36.301617    94 layer_factory.hpp:114] Creating layer layer_19_2_2_mbox_conf/depthwise
I0124 03:47:36.301635    94 net.cpp:262] Creating Layer layer_19_2_2_mbox_conf/depthwise
I0124 03:47:36.301645    94 net.cpp:1712] layer_19_2_2_mbox_conf/depthwise <- layer_19_2_2_layer_19_2_2/relu_0_split_2
I0124 03:47:36.301654    94 net.cpp:1686] layer_19_2_2_mbox_conf/depthwise -> layer_19_2_2_mbox_conf/depthwise
I0124 03:47:36.301720    94 net.cpp:331] Setting up layer_19_2_2_mbox_conf/depthwise
I0124 03:47:36.301728    94 net.cpp:338] Top shape: 64 512 5 5 (819200)
I0124 03:47:36.301733    94 net.cpp:347] Memory required for data: 7782278048
I0124 03:47:36.301738    94 net.cpp:349] Biggest Memory of single blob: 552960000
I0124 03:47:36.301744    94 layer_factory.hpp:114] Creating layer layer_19_2_2_mbox_conf/depthwise/bn
I0124 03:47:36.301753    94 net.cpp:262] Creating Layer layer_19_2_2_mbox_conf/depthwise/bn
I0124 03:47:36.301759    94 net.cpp:1712] layer_19_2_2_mbox_conf/depthwise/bn <- layer_19_2_2_mbox_conf/depthwise
I0124 03:47:36.301774    94 net.cpp:1673] layer_19_2_2_mbox_conf/depthwise/bn -> layer_19_2_2_mbox_conf/depthwise (in-place)
I0124 03:47:36.301800    94 net.cpp:331] Setting up layer_19_2_2_mbox_conf/depthwise/bn
I0124 03:47:36.301811    94 net.cpp:338] Top shape: 64 512 5 5 (819200)
I0124 03:47:36.301817    94 net.cpp:347] Memory required for data: 7785554848
I0124 03:47:36.301826    94 net.cpp:349] Biggest Memory of single blob: 552960000
I0124 03:47:36.301838    94 layer_factory.hpp:114] Creating layer layer_19_2_2_mbox_conf/depthwise/relu
I0124 03:47:36.301849    94 net.cpp:262] Creating Layer layer_19_2_2_mbox_conf/depthwise/relu
I0124 03:47:36.301856    94 net.cpp:1712] layer_19_2_2_mbox_conf/depthwise/relu <- layer_19_2_2_mbox_conf/depthwise
I0124 03:47:36.301864    94 net.cpp:1673] layer_19_2_2_mbox_conf/depthwise/relu -> layer_19_2_2_mbox_conf/depthwise (in-place)
I0124 03:47:36.301874    94 net.cpp:331] Setting up layer_19_2_2_mbox_conf/depthwise/relu
I0124 03:47:36.301882    94 net.cpp:338] Top shape: 64 512 5 5 (819200)
I0124 03:47:36.301887    94 net.cpp:347] Memory required for data: 7788831648
I0124 03:47:36.301889    94 net.cpp:349] Biggest Memory of single blob: 552960000
I0124 03:47:36.301895    94 layer_factory.hpp:114] Creating layer layer_19_2_2_mbox_conf_new
I0124 03:47:36.301908    94 net.cpp:262] Creating Layer layer_19_2_2_mbox_conf_new
I0124 03:47:36.301918    94 net.cpp:1712] layer_19_2_2_mbox_conf_new <- layer_19_2_2_mbox_conf/depthwise
I0124 03:47:36.301928    94 net.cpp:1686] layer_19_2_2_mbox_conf_new -> layer_19_2_2_mbox_conf_new
I0124 03:47:36.302505    94 net.cpp:331] Setting up layer_19_2_2_mbox_conf_new
I0124 03:47:36.302515    94 net.cpp:338] Top shape: 64 126 5 5 (201600)
I0124 03:47:36.302518    94 net.cpp:347] Memory required for data: 7789638048
I0124 03:47:36.302525    94 net.cpp:349] Biggest Memory of single blob: 552960000
I0124 03:47:36.302534    94 layer_factory.hpp:114] Creating layer layer_19_2_2_mbox_conf_perm
I0124 03:47:36.302546    94 net.cpp:262] Creating Layer layer_19_2_2_mbox_conf_perm
I0124 03:47:36.302556    94 net.cpp:1712] layer_19_2_2_mbox_conf_perm <- layer_19_2_2_mbox_conf_new
I0124 03:47:36.302567    94 net.cpp:1686] layer_19_2_2_mbox_conf_perm -> layer_19_2_2_mbox_conf_perm
I0124 03:47:36.302587    94 net.cpp:331] Setting up layer_19_2_2_mbox_conf_perm
I0124 03:47:36.302600    94 net.cpp:338] Top shape: 64 5 5 126 (201600)
I0124 03:47:36.302606    94 net.cpp:347] Memory required for data: 7790444448
I0124 03:47:36.302611    94 net.cpp:349] Biggest Memory of single blob: 552960000
I0124 03:47:36.302616    94 layer_factory.hpp:114] Creating layer layer_19_2_2_mbox_conf_flat
I0124 03:47:36.302629    94 net.cpp:262] Creating Layer layer_19_2_2_mbox_conf_flat
I0124 03:47:36.302637    94 net.cpp:1712] layer_19_2_2_mbox_conf_flat <- layer_19_2_2_mbox_conf_perm
I0124 03:47:36.302645    94 net.cpp:1686] layer_19_2_2_mbox_conf_flat -> layer_19_2_2_mbox_conf_flat
I0124 03:47:36.302654    94 net.cpp:331] Setting up layer_19_2_2_mbox_conf_flat
I0124 03:47:36.302660    94 net.cpp:338] Top shape: 64 3150 (201600)
I0124 03:47:36.302664    94 net.cpp:347] Memory required for data: 7791250848
I0124 03:47:36.302668    94 net.cpp:349] Biggest Memory of single blob: 552960000
I0124 03:47:36.302675    94 layer_factory.hpp:114] Creating layer layer_19_2_2_mbox_priorbox
I0124 03:47:36.302680    94 net.cpp:262] Creating Layer layer_19_2_2_mbox_priorbox
I0124 03:47:36.302690    94 net.cpp:1712] layer_19_2_2_mbox_priorbox <- layer_19_2_2_layer_19_2_2/relu_0_split_3
I0124 03:47:36.302698    94 net.cpp:1712] layer_19_2_2_mbox_priorbox <- data_data_0_split_3
I0124 03:47:36.302714    94 net.cpp:1686] layer_19_2_2_mbox_priorbox -> layer_19_2_2_mbox_priorbox
I0124 03:47:36.302726    94 net.cpp:331] Setting up layer_19_2_2_mbox_priorbox
I0124 03:47:36.302733    94 net.cpp:338] Top shape: 1 2 600 (1200)
I0124 03:47:36.302739    94 net.cpp:347] Memory required for data: 7791255648
I0124 03:47:36.302747    94 net.cpp:349] Biggest Memory of single blob: 552960000
I0124 03:47:36.302764    94 layer_factory.hpp:114] Creating layer layer_19_2_3_mbox_loc/depthwise
I0124 03:47:36.302784    94 net.cpp:262] Creating Layer layer_19_2_3_mbox_loc/depthwise
I0124 03:47:36.302794    94 net.cpp:1712] layer_19_2_3_mbox_loc/depthwise <- layer_19_2_3_layer_19_2_3/relu_0_split_1
I0124 03:47:36.302807    94 net.cpp:1686] layer_19_2_3_mbox_loc/depthwise -> layer_19_2_3_mbox_loc/depthwise
I0124 03:47:36.302850    94 net.cpp:331] Setting up layer_19_2_3_mbox_loc/depthwise
I0124 03:47:36.302861    94 net.cpp:338] Top shape: 64 256 3 3 (147456)
I0124 03:47:36.302870    94 net.cpp:347] Memory required for data: 7791845472
I0124 03:47:36.302876    94 net.cpp:349] Biggest Memory of single blob: 552960000
I0124 03:47:36.302886    94 layer_factory.hpp:114] Creating layer layer_19_2_3_mbox_loc/depthwise/bn
I0124 03:47:36.302897    94 net.cpp:262] Creating Layer layer_19_2_3_mbox_loc/depthwise/bn
I0124 03:47:36.302903    94 net.cpp:1712] layer_19_2_3_mbox_loc/depthwise/bn <- layer_19_2_3_mbox_loc/depthwise
I0124 03:47:36.302909    94 net.cpp:1673] layer_19_2_3_mbox_loc/depthwise/bn -> layer_19_2_3_mbox_loc/depthwise (in-place)
I0124 03:47:36.302934    94 net.cpp:331] Setting up layer_19_2_3_mbox_loc/depthwise/bn
I0124 03:47:36.302942    94 net.cpp:338] Top shape: 64 256 3 3 (147456)
I0124 03:47:36.302948    94 net.cpp:347] Memory required for data: 7792435296
I0124 03:47:36.302955    94 net.cpp:349] Biggest Memory of single blob: 552960000
I0124 03:47:36.302968    94 layer_factory.hpp:114] Creating layer layer_19_2_3_mbox_loc/depthwise/relu
I0124 03:47:36.302979    94 net.cpp:262] Creating Layer layer_19_2_3_mbox_loc/depthwise/relu
I0124 03:47:36.302986    94 net.cpp:1712] layer_19_2_3_mbox_loc/depthwise/relu <- layer_19_2_3_mbox_loc/depthwise
I0124 03:47:36.302991    94 net.cpp:1673] layer_19_2_3_mbox_loc/depthwise/relu -> layer_19_2_3_mbox_loc/depthwise (in-place)
I0124 03:47:36.303004    94 net.cpp:331] Setting up layer_19_2_3_mbox_loc/depthwise/relu
I0124 03:47:36.303014    94 net.cpp:338] Top shape: 64 256 3 3 (147456)
I0124 03:47:36.303018    94 net.cpp:347] Memory required for data: 7793025120
I0124 03:47:36.303022    94 net.cpp:349] Biggest Memory of single blob: 552960000
I0124 03:47:36.303026    94 layer_factory.hpp:114] Creating layer layer_19_2_3_mbox_loc
I0124 03:47:36.303043    94 net.cpp:262] Creating Layer layer_19_2_3_mbox_loc
I0124 03:47:36.303050    94 net.cpp:1712] layer_19_2_3_mbox_loc <- layer_19_2_3_mbox_loc/depthwise
I0124 03:47:36.303059    94 net.cpp:1686] layer_19_2_3_mbox_loc -> layer_19_2_3_mbox_loc
I0124 03:47:36.303126    94 net.cpp:331] Setting up layer_19_2_3_mbox_loc
I0124 03:47:36.303135    94 net.cpp:338] Top shape: 64 24 3 3 (13824)
I0124 03:47:36.303143    94 net.cpp:347] Memory required for data: 7793080416
I0124 03:47:36.303149    94 net.cpp:349] Biggest Memory of single blob: 552960000
I0124 03:47:36.303158    94 layer_factory.hpp:114] Creating layer layer_19_2_3_mbox_loc_perm
I0124 03:47:36.303166    94 net.cpp:262] Creating Layer layer_19_2_3_mbox_loc_perm
I0124 03:47:36.303171    94 net.cpp:1712] layer_19_2_3_mbox_loc_perm <- layer_19_2_3_mbox_loc
I0124 03:47:36.303179    94 net.cpp:1686] layer_19_2_3_mbox_loc_perm -> layer_19_2_3_mbox_loc_perm
I0124 03:47:36.303198    94 net.cpp:331] Setting up layer_19_2_3_mbox_loc_perm
I0124 03:47:36.303205    94 net.cpp:338] Top shape: 64 3 3 24 (13824)
I0124 03:47:36.303210    94 net.cpp:347] Memory required for data: 7793135712
I0124 03:47:36.303215    94 net.cpp:349] Biggest Memory of single blob: 552960000
I0124 03:47:36.303218    94 layer_factory.hpp:114] Creating layer layer_19_2_3_mbox_loc_flat
I0124 03:47:36.303232    94 net.cpp:262] Creating Layer layer_19_2_3_mbox_loc_flat
I0124 03:47:36.303241    94 net.cpp:1712] layer_19_2_3_mbox_loc_flat <- layer_19_2_3_mbox_loc_perm
I0124 03:47:36.303248    94 net.cpp:1686] layer_19_2_3_mbox_loc_flat -> layer_19_2_3_mbox_loc_flat
I0124 03:47:36.303261    94 net.cpp:331] Setting up layer_19_2_3_mbox_loc_flat
I0124 03:47:36.303270    94 net.cpp:338] Top shape: 64 216 (13824)
I0124 03:47:36.303288    94 net.cpp:347] Memory required for data: 7793191008
I0124 03:47:36.303295    94 net.cpp:349] Biggest Memory of single blob: 552960000
I0124 03:47:36.303300    94 layer_factory.hpp:114] Creating layer layer_19_2_3_mbox_conf/depthwise
I0124 03:47:36.303311    94 net.cpp:262] Creating Layer layer_19_2_3_mbox_conf/depthwise
I0124 03:47:36.303315    94 net.cpp:1712] layer_19_2_3_mbox_conf/depthwise <- layer_19_2_3_layer_19_2_3/relu_0_split_2
I0124 03:47:36.303331    94 net.cpp:1686] layer_19_2_3_mbox_conf/depthwise -> layer_19_2_3_mbox_conf/depthwise
I0124 03:47:36.303387    94 net.cpp:331] Setting up layer_19_2_3_mbox_conf/depthwise
I0124 03:47:36.303397    94 net.cpp:338] Top shape: 64 256 3 3 (147456)
I0124 03:47:36.303401    94 net.cpp:347] Memory required for data: 7793780832
I0124 03:47:36.303406    94 net.cpp:349] Biggest Memory of single blob: 552960000
I0124 03:47:36.303411    94 layer_factory.hpp:114] Creating layer layer_19_2_3_mbox_conf/depthwise/bn
I0124 03:47:36.303421    94 net.cpp:262] Creating Layer layer_19_2_3_mbox_conf/depthwise/bn
I0124 03:47:36.303426    94 net.cpp:1712] layer_19_2_3_mbox_conf/depthwise/bn <- layer_19_2_3_mbox_conf/depthwise
I0124 03:47:36.303433    94 net.cpp:1673] layer_19_2_3_mbox_conf/depthwise/bn -> layer_19_2_3_mbox_conf/depthwise (in-place)
I0124 03:47:36.303449    94 net.cpp:331] Setting up layer_19_2_3_mbox_conf/depthwise/bn
I0124 03:47:36.303455    94 net.cpp:338] Top shape: 64 256 3 3 (147456)
I0124 03:47:36.303462    94 net.cpp:347] Memory required for data: 7794370656
I0124 03:47:36.303467    94 net.cpp:349] Biggest Memory of single blob: 552960000
I0124 03:47:36.303481    94 layer_factory.hpp:114] Creating layer layer_19_2_3_mbox_conf/depthwise/relu
I0124 03:47:36.303490    94 net.cpp:262] Creating Layer layer_19_2_3_mbox_conf/depthwise/relu
I0124 03:47:36.303495    94 net.cpp:1712] layer_19_2_3_mbox_conf/depthwise/relu <- layer_19_2_3_mbox_conf/depthwise
I0124 03:47:36.303501    94 net.cpp:1673] layer_19_2_3_mbox_conf/depthwise/relu -> layer_19_2_3_mbox_conf/depthwise (in-place)
I0124 03:47:36.303508    94 net.cpp:331] Setting up layer_19_2_3_mbox_conf/depthwise/relu
I0124 03:47:36.303514    94 net.cpp:338] Top shape: 64 256 3 3 (147456)
I0124 03:47:36.303519    94 net.cpp:347] Memory required for data: 7794960480
I0124 03:47:36.303522    94 net.cpp:349] Biggest Memory of single blob: 552960000
I0124 03:47:36.303527    94 layer_factory.hpp:114] Creating layer layer_19_2_3_mbox_conf_new
I0124 03:47:36.303537    94 net.cpp:262] Creating Layer layer_19_2_3_mbox_conf_new
I0124 03:47:36.303542    94 net.cpp:1712] layer_19_2_3_mbox_conf_new <- layer_19_2_3_mbox_conf/depthwise
I0124 03:47:36.303551    94 net.cpp:1686] layer_19_2_3_mbox_conf_new -> layer_19_2_3_mbox_conf_new
I0124 03:47:36.303859    94 net.cpp:331] Setting up layer_19_2_3_mbox_conf_new
I0124 03:47:36.303871    94 net.cpp:338] Top shape: 64 126 3 3 (72576)
I0124 03:47:36.303879    94 net.cpp:347] Memory required for data: 7795250784
I0124 03:47:36.303884    94 net.cpp:349] Biggest Memory of single blob: 552960000
I0124 03:47:36.303892    94 layer_factory.hpp:114] Creating layer layer_19_2_3_mbox_conf_perm
I0124 03:47:36.303900    94 net.cpp:262] Creating Layer layer_19_2_3_mbox_conf_perm
I0124 03:47:36.303905    94 net.cpp:1712] layer_19_2_3_mbox_conf_perm <- layer_19_2_3_mbox_conf_new
I0124 03:47:36.303913    94 net.cpp:1686] layer_19_2_3_mbox_conf_perm -> layer_19_2_3_mbox_conf_perm
I0124 03:47:36.303925    94 net.cpp:331] Setting up layer_19_2_3_mbox_conf_perm
I0124 03:47:36.303932    94 net.cpp:338] Top shape: 64 3 3 126 (72576)
I0124 03:47:36.303936    94 net.cpp:347] Memory required for data: 7795541088
I0124 03:47:36.303939    94 net.cpp:349] Biggest Memory of single blob: 552960000
I0124 03:47:36.303943    94 layer_factory.hpp:114] Creating layer layer_19_2_3_mbox_conf_flat
I0124 03:47:36.303951    94 net.cpp:262] Creating Layer layer_19_2_3_mbox_conf_flat
I0124 03:47:36.303958    94 net.cpp:1712] layer_19_2_3_mbox_conf_flat <- layer_19_2_3_mbox_conf_perm
I0124 03:47:36.303979    94 net.cpp:1686] layer_19_2_3_mbox_conf_flat -> layer_19_2_3_mbox_conf_flat
I0124 03:47:36.303989    94 net.cpp:331] Setting up layer_19_2_3_mbox_conf_flat
I0124 03:47:36.303994    94 net.cpp:338] Top shape: 64 1134 (72576)
I0124 03:47:36.303999    94 net.cpp:347] Memory required for data: 7795831392
I0124 03:47:36.304003    94 net.cpp:349] Biggest Memory of single blob: 552960000
I0124 03:47:36.304008    94 layer_factory.hpp:114] Creating layer layer_19_2_3_mbox_priorbox
I0124 03:47:36.304016    94 net.cpp:262] Creating Layer layer_19_2_3_mbox_priorbox
I0124 03:47:36.304021    94 net.cpp:1712] layer_19_2_3_mbox_priorbox <- layer_19_2_3_layer_19_2_3/relu_0_split_3
I0124 03:47:36.304028    94 net.cpp:1712] layer_19_2_3_mbox_priorbox <- data_data_0_split_4
I0124 03:47:36.304035    94 net.cpp:1686] layer_19_2_3_mbox_priorbox -> layer_19_2_3_mbox_priorbox
I0124 03:47:36.304044    94 net.cpp:331] Setting up layer_19_2_3_mbox_priorbox
I0124 03:47:36.304054    94 net.cpp:338] Top shape: 1 2 216 (432)
I0124 03:47:36.304060    94 net.cpp:347] Memory required for data: 7795833120
I0124 03:47:36.304067    94 net.cpp:349] Biggest Memory of single blob: 552960000
I0124 03:47:36.304075    94 layer_factory.hpp:114] Creating layer layer_19_2_4_mbox_loc/depthwise
I0124 03:47:36.304091    94 net.cpp:262] Creating Layer layer_19_2_4_mbox_loc/depthwise
I0124 03:47:36.304100    94 net.cpp:1712] layer_19_2_4_mbox_loc/depthwise <- layer_19_2_4_layer_19_2_4/relu_0_split_1
I0124 03:47:36.304106    94 net.cpp:1686] layer_19_2_4_mbox_loc/depthwise -> layer_19_2_4_mbox_loc/depthwise
I0124 03:47:36.304144    94 net.cpp:331] Setting up layer_19_2_4_mbox_loc/depthwise
I0124 03:47:36.304152    94 net.cpp:338] Top shape: 64 256 2 2 (65536)
I0124 03:47:36.304155    94 net.cpp:347] Memory required for data: 7796095264
I0124 03:47:36.304160    94 net.cpp:349] Biggest Memory of single blob: 552960000
I0124 03:47:36.304168    94 layer_factory.hpp:114] Creating layer layer_19_2_4_mbox_loc/depthwise/bn
I0124 03:47:36.304183    94 net.cpp:262] Creating Layer layer_19_2_4_mbox_loc/depthwise/bn
I0124 03:47:36.304191    94 net.cpp:1712] layer_19_2_4_mbox_loc/depthwise/bn <- layer_19_2_4_mbox_loc/depthwise
I0124 03:47:36.304199    94 net.cpp:1673] layer_19_2_4_mbox_loc/depthwise/bn -> layer_19_2_4_mbox_loc/depthwise (in-place)
I0124 03:47:36.304222    94 net.cpp:331] Setting up layer_19_2_4_mbox_loc/depthwise/bn
I0124 03:47:36.304230    94 net.cpp:338] Top shape: 64 256 2 2 (65536)
I0124 03:47:36.304235    94 net.cpp:347] Memory required for data: 7796357408
I0124 03:47:36.304240    94 net.cpp:349] Biggest Memory of single blob: 552960000
I0124 03:47:36.304250    94 layer_factory.hpp:114] Creating layer layer_19_2_4_mbox_loc/depthwise/relu
I0124 03:47:36.304260    94 net.cpp:262] Creating Layer layer_19_2_4_mbox_loc/depthwise/relu
I0124 03:47:36.304270    94 net.cpp:1712] layer_19_2_4_mbox_loc/depthwise/relu <- layer_19_2_4_mbox_loc/depthwise
I0124 03:47:36.304277    94 net.cpp:1673] layer_19_2_4_mbox_loc/depthwise/relu -> layer_19_2_4_mbox_loc/depthwise (in-place)
I0124 03:47:36.304286    94 net.cpp:331] Setting up layer_19_2_4_mbox_loc/depthwise/relu
I0124 03:47:36.304294    94 net.cpp:338] Top shape: 64 256 2 2 (65536)
I0124 03:47:36.304301    94 net.cpp:347] Memory required for data: 7796619552
I0124 03:47:36.304306    94 net.cpp:349] Biggest Memory of single blob: 552960000
I0124 03:47:36.304311    94 layer_factory.hpp:114] Creating layer layer_19_2_4_mbox_loc
I0124 03:47:36.304322    94 net.cpp:262] Creating Layer layer_19_2_4_mbox_loc
I0124 03:47:36.304327    94 net.cpp:1712] layer_19_2_4_mbox_loc <- layer_19_2_4_mbox_loc/depthwise
I0124 03:47:36.304337    94 net.cpp:1686] layer_19_2_4_mbox_loc -> layer_19_2_4_mbox_loc
I0124 03:47:36.304420    94 net.cpp:331] Setting up layer_19_2_4_mbox_loc
I0124 03:47:36.304430    94 net.cpp:338] Top shape: 64 24 2 2 (6144)
I0124 03:47:36.304433    94 net.cpp:347] Memory required for data: 7796644128
I0124 03:47:36.304437    94 net.cpp:349] Biggest Memory of single blob: 552960000
I0124 03:47:36.304452    94 layer_factory.hpp:114] Creating layer layer_19_2_4_mbox_loc_perm
I0124 03:47:36.304461    94 net.cpp:262] Creating Layer layer_19_2_4_mbox_loc_perm
I0124 03:47:36.304466    94 net.cpp:1712] layer_19_2_4_mbox_loc_perm <- layer_19_2_4_mbox_loc
I0124 03:47:36.304472    94 net.cpp:1686] layer_19_2_4_mbox_loc_perm -> layer_19_2_4_mbox_loc_perm
I0124 03:47:36.304491    94 net.cpp:331] Setting up layer_19_2_4_mbox_loc_perm
I0124 03:47:36.304499    94 net.cpp:338] Top shape: 64 2 2 24 (6144)
I0124 03:47:36.304504    94 net.cpp:347] Memory required for data: 7796668704
I0124 03:47:36.304512    94 net.cpp:349] Biggest Memory of single blob: 552960000
I0124 03:47:36.304519    94 layer_factory.hpp:114] Creating layer layer_19_2_4_mbox_loc_flat
I0124 03:47:36.304530    94 net.cpp:262] Creating Layer layer_19_2_4_mbox_loc_flat
I0124 03:47:36.304536    94 net.cpp:1712] layer_19_2_4_mbox_loc_flat <- layer_19_2_4_mbox_loc_perm
I0124 03:47:36.304543    94 net.cpp:1686] layer_19_2_4_mbox_loc_flat -> layer_19_2_4_mbox_loc_flat
I0124 03:47:36.304553    94 net.cpp:331] Setting up layer_19_2_4_mbox_loc_flat
I0124 03:47:36.304561    94 net.cpp:338] Top shape: 64 96 (6144)
I0124 03:47:36.304569    94 net.cpp:347] Memory required for data: 7796693280
I0124 03:47:36.304575    94 net.cpp:349] Biggest Memory of single blob: 552960000
I0124 03:47:36.304579    94 layer_factory.hpp:114] Creating layer layer_19_2_4_mbox_conf/depthwise
I0124 03:47:36.304597    94 net.cpp:262] Creating Layer layer_19_2_4_mbox_conf/depthwise
I0124 03:47:36.304607    94 net.cpp:1712] layer_19_2_4_mbox_conf/depthwise <- layer_19_2_4_layer_19_2_4/relu_0_split_2
I0124 03:47:36.304620    94 net.cpp:1686] layer_19_2_4_mbox_conf/depthwise -> layer_19_2_4_mbox_conf/depthwise
I0124 03:47:36.304677    94 net.cpp:331] Setting up layer_19_2_4_mbox_conf/depthwise
I0124 03:47:36.304684    94 net.cpp:338] Top shape: 64 256 2 2 (65536)
I0124 03:47:36.304689    94 net.cpp:347] Memory required for data: 7796955424
I0124 03:47:36.304694    94 net.cpp:349] Biggest Memory of single blob: 552960000
I0124 03:47:36.304702    94 layer_factory.hpp:114] Creating layer layer_19_2_4_mbox_conf/depthwise/bn
I0124 03:47:36.304710    94 net.cpp:262] Creating Layer layer_19_2_4_mbox_conf/depthwise/bn
I0124 03:47:36.304716    94 net.cpp:1712] layer_19_2_4_mbox_conf/depthwise/bn <- layer_19_2_4_mbox_conf/depthwise
I0124 03:47:36.304724    94 net.cpp:1673] layer_19_2_4_mbox_conf/depthwise/bn -> layer_19_2_4_mbox_conf/depthwise (in-place)
I0124 03:47:36.304740    94 net.cpp:331] Setting up layer_19_2_4_mbox_conf/depthwise/bn
I0124 03:47:36.304749    94 net.cpp:338] Top shape: 64 256 2 2 (65536)
I0124 03:47:36.304755    94 net.cpp:347] Memory required for data: 7797217568
I0124 03:47:36.304764    94 net.cpp:349] Biggest Memory of single blob: 552960000
I0124 03:47:36.304774    94 layer_factory.hpp:114] Creating layer layer_19_2_4_mbox_conf/depthwise/relu
I0124 03:47:36.304782    94 net.cpp:262] Creating Layer layer_19_2_4_mbox_conf/depthwise/relu
I0124 03:47:36.304790    94 net.cpp:1712] layer_19_2_4_mbox_conf/depthwise/relu <- layer_19_2_4_mbox_conf/depthwise
I0124 03:47:36.304802    94 net.cpp:1673] layer_19_2_4_mbox_conf/depthwise/relu -> layer_19_2_4_mbox_conf/depthwise (in-place)
I0124 03:47:36.304813    94 net.cpp:331] Setting up layer_19_2_4_mbox_conf/depthwise/relu
I0124 03:47:36.304823    94 net.cpp:338] Top shape: 64 256 2 2 (65536)
I0124 03:47:36.304831    94 net.cpp:347] Memory required for data: 7797479712
I0124 03:47:36.304836    94 net.cpp:349] Biggest Memory of single blob: 552960000
I0124 03:47:36.304839    94 layer_factory.hpp:114] Creating layer layer_19_2_4_mbox_conf_new
I0124 03:47:36.304848    94 net.cpp:262] Creating Layer layer_19_2_4_mbox_conf_new
I0124 03:47:36.304853    94 net.cpp:1712] layer_19_2_4_mbox_conf_new <- layer_19_2_4_mbox_conf/depthwise
I0124 03:47:36.304864    94 net.cpp:1686] layer_19_2_4_mbox_conf_new -> layer_19_2_4_mbox_conf_new
I0124 03:47:36.305174    94 net.cpp:331] Setting up layer_19_2_4_mbox_conf_new
I0124 03:47:36.305183    94 net.cpp:338] Top shape: 64 126 2 2 (32256)
I0124 03:47:36.305194    94 net.cpp:347] Memory required for data: 7797608736
I0124 03:47:36.305199    94 net.cpp:349] Biggest Memory of single blob: 552960000
I0124 03:47:36.305207    94 layer_factory.hpp:114] Creating layer layer_19_2_4_mbox_conf_perm
I0124 03:47:36.305214    94 net.cpp:262] Creating Layer layer_19_2_4_mbox_conf_perm
I0124 03:47:36.305219    94 net.cpp:1712] layer_19_2_4_mbox_conf_perm <- layer_19_2_4_mbox_conf_new
I0124 03:47:36.305228    94 net.cpp:1686] layer_19_2_4_mbox_conf_perm -> layer_19_2_4_mbox_conf_perm
I0124 03:47:36.305243    94 net.cpp:331] Setting up layer_19_2_4_mbox_conf_perm
I0124 03:47:36.305253    94 net.cpp:338] Top shape: 64 2 2 126 (32256)
I0124 03:47:36.305259    94 net.cpp:347] Memory required for data: 7797737760
I0124 03:47:36.305263    94 net.cpp:349] Biggest Memory of single blob: 552960000
I0124 03:47:36.305271    94 layer_factory.hpp:114] Creating layer layer_19_2_4_mbox_conf_flat
I0124 03:47:36.305284    94 net.cpp:262] Creating Layer layer_19_2_4_mbox_conf_flat
I0124 03:47:36.305290    94 net.cpp:1712] layer_19_2_4_mbox_conf_flat <- layer_19_2_4_mbox_conf_perm
I0124 03:47:36.305299    94 net.cpp:1686] layer_19_2_4_mbox_conf_flat -> layer_19_2_4_mbox_conf_flat
I0124 03:47:36.305307    94 net.cpp:331] Setting up layer_19_2_4_mbox_conf_flat
I0124 03:47:36.305313    94 net.cpp:338] Top shape: 64 504 (32256)
I0124 03:47:36.305317    94 net.cpp:347] Memory required for data: 7797866784
I0124 03:47:36.305321    94 net.cpp:349] Biggest Memory of single blob: 552960000
I0124 03:47:36.305326    94 layer_factory.hpp:114] Creating layer layer_19_2_4_mbox_priorbox
I0124 03:47:36.305333    94 net.cpp:262] Creating Layer layer_19_2_4_mbox_priorbox
I0124 03:47:36.305338    94 net.cpp:1712] layer_19_2_4_mbox_priorbox <- layer_19_2_4_layer_19_2_4/relu_0_split_3
I0124 03:47:36.305343    94 net.cpp:1712] layer_19_2_4_mbox_priorbox <- data_data_0_split_5
I0124 03:47:36.305352    94 net.cpp:1686] layer_19_2_4_mbox_priorbox -> layer_19_2_4_mbox_priorbox
I0124 03:47:36.305362    94 net.cpp:331] Setting up layer_19_2_4_mbox_priorbox
I0124 03:47:36.305368    94 net.cpp:338] Top shape: 1 2 96 (192)
I0124 03:47:36.305372    94 net.cpp:347] Memory required for data: 7797867552
I0124 03:47:36.305375    94 net.cpp:349] Biggest Memory of single blob: 552960000
I0124 03:47:36.305379    94 layer_factory.hpp:114] Creating layer layer_19_2_5_mbox_loc/depthwise
I0124 03:47:36.305394    94 net.cpp:262] Creating Layer layer_19_2_5_mbox_loc/depthwise
I0124 03:47:36.305403    94 net.cpp:1712] layer_19_2_5_mbox_loc/depthwise <- layer_19_2_5_layer_19_2_5/relu_0_split_0
I0124 03:47:36.305413    94 net.cpp:1686] layer_19_2_5_mbox_loc/depthwise -> layer_19_2_5_mbox_loc/depthwise
I0124 03:47:36.305456    94 net.cpp:331] Setting up layer_19_2_5_mbox_loc/depthwise
I0124 03:47:36.305467    94 net.cpp:338] Top shape: 64 128 1 1 (8192)
I0124 03:47:36.305474    94 net.cpp:347] Memory required for data: 7797900320
I0124 03:47:36.305481    94 net.cpp:349] Biggest Memory of single blob: 552960000
I0124 03:47:36.305488    94 layer_factory.hpp:114] Creating layer layer_19_2_5_mbox_loc/depthwise/bn
I0124 03:47:36.305506    94 net.cpp:262] Creating Layer layer_19_2_5_mbox_loc/depthwise/bn
I0124 03:47:36.305516    94 net.cpp:1712] layer_19_2_5_mbox_loc/depthwise/bn <- layer_19_2_5_mbox_loc/depthwise
I0124 03:47:36.305531    94 net.cpp:1673] layer_19_2_5_mbox_loc/depthwise/bn -> layer_19_2_5_mbox_loc/depthwise (in-place)
I0124 03:47:36.305552    94 net.cpp:331] Setting up layer_19_2_5_mbox_loc/depthwise/bn
I0124 03:47:36.305562    94 net.cpp:338] Top shape: 64 128 1 1 (8192)
I0124 03:47:36.305569    94 net.cpp:347] Memory required for data: 7797933088
I0124 03:47:36.305577    94 net.cpp:349] Biggest Memory of single blob: 552960000
I0124 03:47:36.305588    94 layer_factory.hpp:114] Creating layer layer_19_2_5_mbox_loc/depthwise/relu
I0124 03:47:36.305598    94 net.cpp:262] Creating Layer layer_19_2_5_mbox_loc/depthwise/relu
I0124 03:47:36.305605    94 net.cpp:1712] layer_19_2_5_mbox_loc/depthwise/relu <- layer_19_2_5_mbox_loc/depthwise
I0124 03:47:36.305625    94 net.cpp:1673] layer_19_2_5_mbox_loc/depthwise/relu -> layer_19_2_5_mbox_loc/depthwise (in-place)
I0124 03:47:36.305634    94 net.cpp:331] Setting up layer_19_2_5_mbox_loc/depthwise/relu
I0124 03:47:36.305639    94 net.cpp:338] Top shape: 64 128 1 1 (8192)
I0124 03:47:36.305644    94 net.cpp:347] Memory required for data: 7797965856
I0124 03:47:36.305651    94 net.cpp:349] Biggest Memory of single blob: 552960000
I0124 03:47:36.305660    94 layer_factory.hpp:114] Creating layer layer_19_2_5_mbox_loc
I0124 03:47:36.305672    94 net.cpp:262] Creating Layer layer_19_2_5_mbox_loc
I0124 03:47:36.305678    94 net.cpp:1712] layer_19_2_5_mbox_loc <- layer_19_2_5_mbox_loc/depthwise
I0124 03:47:36.305685    94 net.cpp:1686] layer_19_2_5_mbox_loc -> layer_19_2_5_mbox_loc
I0124 03:47:36.305738    94 net.cpp:331] Setting up layer_19_2_5_mbox_loc
I0124 03:47:36.305747    94 net.cpp:338] Top shape: 64 24 1 1 (1536)
I0124 03:47:36.305752    94 net.cpp:347] Memory required for data: 7797972000
I0124 03:47:36.305754    94 net.cpp:349] Biggest Memory of single blob: 552960000
I0124 03:47:36.305765    94 layer_factory.hpp:114] Creating layer layer_19_2_5_mbox_loc_perm
I0124 03:47:36.305780    94 net.cpp:262] Creating Layer layer_19_2_5_mbox_loc_perm
I0124 03:47:36.305786    94 net.cpp:1712] layer_19_2_5_mbox_loc_perm <- layer_19_2_5_mbox_loc
I0124 03:47:36.305794    94 net.cpp:1686] layer_19_2_5_mbox_loc_perm -> layer_19_2_5_mbox_loc_perm
I0124 03:47:36.305804    94 net.cpp:331] Setting up layer_19_2_5_mbox_loc_perm
I0124 03:47:36.305814    94 net.cpp:338] Top shape: 64 1 1 24 (1536)
I0124 03:47:36.305821    94 net.cpp:347] Memory required for data: 7797978144
I0124 03:47:36.305828    94 net.cpp:349] Biggest Memory of single blob: 552960000
I0124 03:47:36.305835    94 layer_factory.hpp:114] Creating layer layer_19_2_5_mbox_loc_flat
I0124 03:47:36.305845    94 net.cpp:262] Creating Layer layer_19_2_5_mbox_loc_flat
I0124 03:47:36.305853    94 net.cpp:1712] layer_19_2_5_mbox_loc_flat <- layer_19_2_5_mbox_loc_perm
I0124 03:47:36.305864    94 net.cpp:1686] layer_19_2_5_mbox_loc_flat -> layer_19_2_5_mbox_loc_flat
I0124 03:47:36.305876    94 net.cpp:331] Setting up layer_19_2_5_mbox_loc_flat
I0124 03:47:36.305882    94 net.cpp:338] Top shape: 64 24 (1536)
I0124 03:47:36.305886    94 net.cpp:347] Memory required for data: 7797984288
I0124 03:47:36.305889    94 net.cpp:349] Biggest Memory of single blob: 552960000
I0124 03:47:36.305896    94 layer_factory.hpp:114] Creating layer layer_19_2_5_mbox_conf/depthwise
I0124 03:47:36.305910    94 net.cpp:262] Creating Layer layer_19_2_5_mbox_conf/depthwise
I0124 03:47:36.305919    94 net.cpp:1712] layer_19_2_5_mbox_conf/depthwise <- layer_19_2_5_layer_19_2_5/relu_0_split_1
I0124 03:47:36.305932    94 net.cpp:1686] layer_19_2_5_mbox_conf/depthwise -> layer_19_2_5_mbox_conf/depthwise
I0124 03:47:36.305972    94 net.cpp:331] Setting up layer_19_2_5_mbox_conf/depthwise
I0124 03:47:36.305986    94 net.cpp:338] Top shape: 64 128 1 1 (8192)
I0124 03:47:36.305991    94 net.cpp:347] Memory required for data: 7798017056
I0124 03:47:36.305996    94 net.cpp:349] Biggest Memory of single blob: 552960000
I0124 03:47:36.306003    94 layer_factory.hpp:114] Creating layer layer_19_2_5_mbox_conf/depthwise/bn
I0124 03:47:36.306015    94 net.cpp:262] Creating Layer layer_19_2_5_mbox_conf/depthwise/bn
I0124 03:47:36.306021    94 net.cpp:1712] layer_19_2_5_mbox_conf/depthwise/bn <- layer_19_2_5_mbox_conf/depthwise
I0124 03:47:36.306030    94 net.cpp:1673] layer_19_2_5_mbox_conf/depthwise/bn -> layer_19_2_5_mbox_conf/depthwise (in-place)
I0124 03:47:36.306053    94 net.cpp:331] Setting up layer_19_2_5_mbox_conf/depthwise/bn
I0124 03:47:36.306061    94 net.cpp:338] Top shape: 64 128 1 1 (8192)
I0124 03:47:36.306064    94 net.cpp:347] Memory required for data: 7798049824
I0124 03:47:36.306069    94 net.cpp:349] Biggest Memory of single blob: 552960000
I0124 03:47:36.306080    94 layer_factory.hpp:114] Creating layer layer_19_2_5_mbox_conf/depthwise/relu
I0124 03:47:36.306090    94 net.cpp:262] Creating Layer layer_19_2_5_mbox_conf/depthwise/relu
I0124 03:47:36.306104    94 net.cpp:1712] layer_19_2_5_mbox_conf/depthwise/relu <- layer_19_2_5_mbox_conf/depthwise
I0124 03:47:36.306113    94 net.cpp:1673] layer_19_2_5_mbox_conf/depthwise/relu -> layer_19_2_5_mbox_conf/depthwise (in-place)
I0124 03:47:36.306123    94 net.cpp:331] Setting up layer_19_2_5_mbox_conf/depthwise/relu
I0124 03:47:36.306129    94 net.cpp:338] Top shape: 64 128 1 1 (8192)
I0124 03:47:36.306136    94 net.cpp:347] Memory required for data: 7798082592
I0124 03:47:36.306143    94 net.cpp:349] Biggest Memory of single blob: 552960000
I0124 03:47:36.306150    94 layer_factory.hpp:114] Creating layer layer_19_2_5_mbox_conf_new
I0124 03:47:36.306166    94 net.cpp:262] Creating Layer layer_19_2_5_mbox_conf_new
I0124 03:47:36.306174    94 net.cpp:1712] layer_19_2_5_mbox_conf_new <- layer_19_2_5_mbox_conf/depthwise
I0124 03:47:36.306181    94 net.cpp:1686] layer_19_2_5_mbox_conf_new -> layer_19_2_5_mbox_conf_new
I0124 03:47:36.306349    94 net.cpp:331] Setting up layer_19_2_5_mbox_conf_new
I0124 03:47:36.306358    94 net.cpp:338] Top shape: 64 126 1 1 (8064)
I0124 03:47:36.306365    94 net.cpp:347] Memory required for data: 7798114848
I0124 03:47:36.306370    94 net.cpp:349] Biggest Memory of single blob: 552960000
I0124 03:47:36.306380    94 layer_factory.hpp:114] Creating layer layer_19_2_5_mbox_conf_perm
I0124 03:47:36.306391    94 net.cpp:262] Creating Layer layer_19_2_5_mbox_conf_perm
I0124 03:47:36.306399    94 net.cpp:1712] layer_19_2_5_mbox_conf_perm <- layer_19_2_5_mbox_conf_new
I0124 03:47:36.306409    94 net.cpp:1686] layer_19_2_5_mbox_conf_perm -> layer_19_2_5_mbox_conf_perm
I0124 03:47:36.306421    94 net.cpp:331] Setting up layer_19_2_5_mbox_conf_perm
I0124 03:47:36.306428    94 net.cpp:338] Top shape: 64 1 1 126 (8064)
I0124 03:47:36.306432    94 net.cpp:347] Memory required for data: 7798147104
I0124 03:47:36.306438    94 net.cpp:349] Biggest Memory of single blob: 552960000
I0124 03:47:36.306445    94 layer_factory.hpp:114] Creating layer layer_19_2_5_mbox_conf_flat
I0124 03:47:36.306457    94 net.cpp:262] Creating Layer layer_19_2_5_mbox_conf_flat
I0124 03:47:36.306464    94 net.cpp:1712] layer_19_2_5_mbox_conf_flat <- layer_19_2_5_mbox_conf_perm
I0124 03:47:36.306475    94 net.cpp:1686] layer_19_2_5_mbox_conf_flat -> layer_19_2_5_mbox_conf_flat
I0124 03:47:36.306485    94 net.cpp:331] Setting up layer_19_2_5_mbox_conf_flat
…
I0124 03:47:36.359102    94 net.cpp:1712] layer_19_1_4 <- layer_19_2_3_layer_19_2_3/relu_0_split_0
I0124 03:47:36.359110    94 net.cpp:1686] layer_19_1_4 -> layer_19_1_4
I0124 03:47:36.359411    94 net.cpp:331] Setting up layer_19_1_4
I0124 03:47:36.359418    94 net.cpp:338] Top shape: 8 128 3 3 (9216)
I0124 03:47:36.359423    94 net.cpp:347] Memory required for data: 531251808
I0124 03:47:36.359427    94 net.cpp:349] Biggest Memory of single blob: 69120000
I0124 03:47:36.359434    94 layer_factory.hpp:114] Creating layer layer_19_2_4/depthwise
I0124 03:47:36.359445    94 net.cpp:262] Creating Layer layer_19_2_4/depthwise
I0124 03:47:36.359458    94 net.cpp:1712] layer_19_2_4/depthwise <- layer_19_1_4
I0124 03:47:36.359467    94 net.cpp:1686] layer_19_2_4/depthwise -> layer_19_2_4/depthwise
I0124 03:47:36.359503    94 net.cpp:331] Setting up layer_19_2_4/depthwise
I0124 03:47:36.359511    94 net.cpp:338] Top shape: 8 128 2 2 (4096)
I0124 03:47:36.359516    94 net.cpp:347] Memory required for data: 531268192
I0124 03:47:36.359520    94 net.cpp:349] Biggest Memory of single blob: 69120000
I0124 03:47:36.359526    94 layer_factory.hpp:114] Creating layer layer_19_2_4
I0124 03:47:36.359536    94 net.cpp:262] Creating Layer layer_19_2_4
I0124 03:47:36.359544    94 net.cpp:1712] layer_19_2_4 <- layer_19_2_4/depthwise
I0124 03:47:36.359553    94 net.cpp:1686] layer_19_2_4 -> layer_19_2_4
I0124 03:47:36.359858    94 net.cpp:331] Setting up layer_19_2_4
I0124 03:47:36.359866    94 net.cpp:338] Top shape: 8 256 2 2 (8192)
I0124 03:47:36.359871    94 net.cpp:347] Memory required for data: 531300960
I0124 03:47:36.359875    94 net.cpp:349] Biggest Memory of single blob: 69120000
I0124 03:47:36.359882    94 layer_factory.hpp:114] Creating layer layer_19_2_4_layer_19_2_4/relu_0_split
I0124 03:47:36.359891    94 net.cpp:262] Creating Layer layer_19_2_4_layer_19_2_4/relu_0_split
I0124 03:47:36.359896    94 net.cpp:1712] layer_19_2_4_layer_19_2_4/relu_0_split <- layer_19_2_4
I0124 03:47:36.359903    94 net.cpp:1686] layer_19_2_4_layer_19_2_4/relu_0_split -> layer_19_2_4_layer_19_2_4/relu_0_split_0
I0124 03:47:36.359911    94 net.cpp:1686] layer_19_2_4_layer_19_2_4/relu_0_split -> layer_19_2_4_layer_19_2_4/relu_0_split_1
I0124 03:47:36.359918    94 net.cpp:1686] layer_19_2_4_layer_19_2_4/relu_0_split -> layer_19_2_4_layer_19_2_4/relu_0_split_2
I0124 03:47:36.359925    94 net.cpp:1686] layer_19_2_4_layer_19_2_4/relu_0_split -> layer_19_2_4_layer_19_2_4/relu_0_split_3
I0124 03:47:36.359935    94 net.cpp:331] Setting up layer_19_2_4_layer_19_2_4/relu_0_split
I0124 03:47:36.359942    94 net.cpp:338] Top shape: 8 256 2 2 (8192)
I0124 03:47:36.359951    94 net.cpp:338] Top shape: 8 256 2 2 (8192)
I0124 03:47:36.359958    94 net.cpp:338] Top shape: 8 256 2 2 (8192)
I0124 03:47:36.359963    94 net.cpp:338] Top shape: 8 256 2 2 (8192)
I0124 03:47:36.359967    94 net.cpp:347] Memory required for data: 531432032
I0124 03:47:36.359972    94 net.cpp:349] Biggest Memory of single blob: 69120000
I0124 03:47:36.359978    94 layer_factory.hpp:114] Creating layer layer_19_1_5
I0124 03:47:36.359988    94 net.cpp:262] Creating Layer layer_19_1_5
I0124 03:47:36.359993    94 net.cpp:1712] layer_19_1_5 <- layer_19_2_4_layer_19_2_4/relu_0_split_0
I0124 03:47:36.360000    94 net.cpp:1686] layer_19_1_5 -> layer_19_1_5
I0124 03:47:36.360159    94 net.cpp:331] Setting up layer_19_1_5
I0124 03:47:36.360167    94 net.cpp:338] Top shape: 8 64 2 2 (2048)
I0124 03:47:36.360172    94 net.cpp:347] Memory required for data: 531440224
I0124 03:47:36.360175    94 net.cpp:349] Biggest Memory of single blob: 69120000
I0124 03:47:36.360181    94 layer_factory.hpp:114] Creating layer layer_19_2_5/depthwise
I0124 03:47:36.360193    94 net.cpp:262] Creating Layer layer_19_2_5/depthwise
I0124 03:47:36.360198    94 net.cpp:1712] layer_19_2_5/depthwise <- layer_19_1_5
I0124 03:47:36.360206    94 net.cpp:1686] layer_19_2_5/depthwise -> layer_19_2_5/depthwise
I0124 03:47:36.360229    94 net.cpp:331] Setting up layer_19_2_5/depthwise
I0124 03:47:36.360236    94 net.cpp:338] Top shape: 8 64 1 1 (512)
I0124 03:47:36.360242    94 net.cpp:347] Memory required for data: 531442272
I0124 03:47:36.360250    94 net.cpp:349] Biggest Memory of single blob: 69120000
I0124 03:47:36.360260    94 layer_factory.hpp:114] Creating layer layer_19_2_5
I0124 03:47:36.360272    94 net.cpp:262] Creating Layer layer_19_2_5
I0124 03:47:36.360280    94 net.cpp:1712] layer_19_2_5 <- layer_19_2_5/depthwise
I0124 03:47:36.360291    94 net.cpp:1686] layer_19_2_5 -> layer_19_2_5
I0124 03:47:36.360378    94 net.cpp:331] Setting up layer_19_2_5
I0124 03:47:36.360384    94 net.cpp:338] Top shape: 8 128 1 1 (1024)
I0124 03:47:36.360396    94 net.cpp:347] Memory required for data: 531446368
I0124 03:47:36.360411    94 net.cpp:349] Biggest Memory of single blob: 69120000
I0124 03:47:36.360420    94 layer_factory.hpp:114] Creating layer layer_19_2_5_layer_19_2_5/relu_0_split
I0124 03:47:36.360431    94 net.cpp:262] Creating Layer layer_19_2_5_layer_19_2_5/relu_0_split
I0124 03:47:36.360440    94 net.cpp:1712] layer_19_2_5_layer_19_2_5/relu_0_split <- layer_19_2_5
I0124 03:47:36.360452    94 net.cpp:1686] layer_19_2_5_layer_19_2_5/relu_0_split -> layer_19_2_5_layer_19_2_5/relu_0_split_0
I0124 03:47:36.360466    94 net.cpp:1686] layer_19_2_5_layer_19_2_5/relu_0_split -> layer_19_2_5_layer_19_2_5/relu_0_split_1
I0124 03:47:36.360481    94 net.cpp:1686] layer_19_2_5_layer_19_2_5/relu_0_split -> layer_19_2_5_layer_19_2_5/relu_0_split_2
I0124 03:47:36.360492    94 net.cpp:331] Setting up layer_19_2_5_layer_19_2_5/relu_0_split
I0124 03:47:36.360500    94 net.cpp:338] Top shape: 8 128 1 1 (1024)
I0124 03:47:36.360507    94 net.cpp:338] Top shape: 8 128 1 1 (1024)
I0124 03:47:36.360515    94 net.cpp:338] Top shape: 8 128 1 1 (1024)
I0124 03:47:36.360522    94 net.cpp:347] Memory required for data: 531458656
I0124 03:47:36.360529    94 net.cpp:349] Biggest Memory of single blob: 69120000
I0124 03:47:36.360535    94 layer_factory.hpp:114] Creating layer conv_13/expand_mbox_loc/depthwise
I0124 03:47:36.360551    94 net.cpp:262] Creating Layer conv_13/expand_mbox_loc/depthwise
I0124 03:47:36.360560    94 net.cpp:1712] conv_13/expand_mbox_loc/depthwise <- conv_13/expand_conv_13/expand/relu_0_split_1
I0124 03:47:36.360569    94 net.cpp:1686] conv_13/expand_mbox_loc/depthwise -> conv_13/expand_mbox_loc/depthwise
I0124 03:47:36.360637    94 net.cpp:331] Setting up conv_13/expand_mbox_loc/depthwise
I0124 03:47:36.360646    94 net.cpp:338] Top shape: 8 576 19 19 (1663488)
I0124 03:47:36.360651    94 net.cpp:347] Memory required for data: 538112608
I0124 03:47:36.360654    94 net.cpp:349] Biggest Memory of single blob: 69120000
I0124 03:47:36.360675    94 layer_factory.hpp:114] Creating layer conv_13/expand_mbox_loc
I0124 03:47:36.360688    94 net.cpp:262] Creating Layer conv_13/expand_mbox_loc
I0124 03:47:36.360693    94 net.cpp:1712] conv_13/expand_mbox_loc <- conv_13/expand_mbox_loc/depthwise
I0124 03:47:36.360702    94 net.cpp:1686] conv_13/expand_mbox_loc -> conv_13/expand_mbox_loc
I0124 03:47:36.360785    94 net.cpp:331] Setting up conv_13/expand_mbox_loc
I0124 03:47:36.360792    94 net.cpp:338] Top shape: 8 12 19 19 (34656)
I0124 03:47:36.360796    94 net.cpp:347] Memory required for data: 538251232
I0124 03:47:36.360801    94 net.cpp:349] Biggest Memory of single blob: 69120000
I0124 03:47:36.360810    94 layer_factory.hpp:114] Creating layer conv_13/expand_mbox_loc_perm
I0124 03:47:36.360818    94 net.cpp:262] Creating Layer conv_13/expand_mbox_loc_perm
I0124 03:47:36.360827    94 net.cpp:1712] conv_13/expand_mbox_loc_perm <- conv_13/expand_mbox_loc
I0124 03:47:36.360836    94 net.cpp:1686] conv_13/expand_mbox_loc_perm -> conv_13/expand_mbox_loc_perm
I0124 03:47:36.360855    94 net.cpp:331] Setting up conv_13/expand_mbox_loc_perm
I0124 03:47:36.360863    94 net.cpp:338] Top shape: 8 19 19 12 (34656)
I0124 03:47:36.360869    94 net.cpp:347] Memory required for data: 538389856
I0124 03:47:36.360877    94 net.cpp:349] Biggest Memory of single blob: 69120000
I0124 03:47:36.360883    94 layer_factory.hpp:114] Creating layer conv_13/expand_mbox_loc_flat
I0124 03:47:36.360894    94 net.cpp:262] Creating Layer conv_13/expand_mbox_loc_flat
I0124 03:47:36.360904    94 net.cpp:1712] conv_13/expand_mbox_loc_flat <- conv_13/expand_mbox_loc_perm
I0124 03:47:36.360920    94 net.cpp:1686] conv_13/expand_mbox_loc_flat -> conv_13/expand_mbox_loc_flat
I0124 03:47:36.360935    94 net.cpp:331] Setting up conv_13/expand_mbox_loc_flat
I0124 03:47:36.360944    94 net.cpp:338] Top shape: 8 4332 (34656)
I0124 03:47:36.360949    94 net.cpp:347] Memory required for data: 538528480
I0124 03:47:36.360952    94 net.cpp:349] Biggest Memory of single blob: 69120000
I0124 03:47:36.360965    94 layer_factory.hpp:114] Creating layer conv_13/expand_mbox_conf/depthwise
I0124 03:47:36.360980    94 net.cpp:262] Creating Layer conv_13/expand_mbox_conf/depthwise
I0124 03:47:36.360985    94 net.cpp:1712] conv_13/expand_mbox_conf/depthwise <- conv_13/expand_conv_13/expand/relu_0_split_2
I0124 03:47:36.360993    94 net.cpp:1686] conv_13/expand_mbox_conf/depthwise -> conv_13/expand_mbox_conf/depthwise
I0124 03:47:36.361078    94 net.cpp:331] Setting up conv_13/expand_mbox_conf/depthwise
I0124 03:47:36.361088    94 net.cpp:338] Top shape: 8 576 19 19 (1663488)
I0124 03:47:36.361093    94 net.cpp:347] Memory required for data: 545182432
I0124 03:47:36.361096    94 net.cpp:349] Biggest Memory of single blob: 69120000
I0124 03:47:36.361104    94 layer_factory.hpp:114] Creating layer conv_13/expand_mbox_conf_new
I0124 03:47:36.361114    94 net.cpp:262] Creating Layer conv_13/expand_mbox_conf_new
I0124 03:47:36.361119    94 net.cpp:1712] conv_13/expand_mbox_conf_new <- conv_13/expand_mbox_conf/depthwise
I0124 03:47:36.361127    94 net.cpp:1686] conv_13/expand_mbox_conf_new -> conv_13/expand_mbox_conf_new
I0124 03:47:36.361465    94 net.cpp:331] Setting up conv_13/expand_mbox_conf_new
I0124 03:47:36.361474    94 net.cpp:338] Top shape: 8 63 19 19 (181944)
I0124 03:47:36.361479    94 net.cpp:347] Memory required for data: 545910208
I0124 03:47:36.361485    94 net.cpp:349] Biggest Memory of single blob: 69120000
I0124 03:47:36.361495    94 layer_factory.hpp:114] Creating layer conv_13/expand_mbox_conf_perm
I0124 03:47:36.361511    94 net.cpp:262] Creating Layer conv_13/expand_mbox_conf_perm
I0124 03:47:36.361521    94 net.cpp:1712] conv_13/expand_mbox_conf_perm <- conv_13/expand_mbox_conf_new
I0124 03:47:36.361534    94 net.cpp:1686] conv_13/expand_mbox_conf_perm -> conv_13/expand_mbox_conf_perm
I0124 03:47:36.361552    94 net.cpp:331] Setting up conv_13/expand_mbox_conf_perm
I0124 03:47:36.361568    94 net.cpp:338] Top shape: 8 19 19 63 (181944)
I0124 03:47:36.361577    94 net.cpp:347] Memory required for data: 546637984
I0124 03:47:36.361582    94 net.cpp:349] Biggest Memory of single blob: 69120000
I0124 03:47:36.361589    94 layer_factory.hpp:114] Creating layer conv_13/expand_mbox_conf_flat
I0124 03:47:36.361599    94 net.cpp:262] Creating Layer conv_13/expand_mbox_conf_flat
I0124 03:47:36.361605    94 net.cpp:1712] conv_13/expand_mbox_conf_flat <- conv_13/expand_mbox_conf_perm
I0124 03:47:36.361615    94 net.cpp:1686] conv_13/expand_mbox_conf_flat -> conv_13/expand_mbox_conf_flat
I0124 03:47:36.361626    94 net.cpp:331] Setting up conv_13/expand_mbox_conf_flat
I0124 03:47:36.361634    94 net.cpp:338] Top shape: 8 22743 (181944)
I0124 03:47:36.361639    94 net.cpp:347] Memory required for data: 547365760
I0124 03:47:36.361645    94 net.cpp:349] Biggest Memory of single blob: 69120000
I0124 03:47:36.361651    94 layer_factory.hpp:114] Creating layer conv_13/expand_mbox_priorbox
I0124 03:47:36.361663    94 net.cpp:262] Creating Layer conv_13/expand_mbox_priorbox
I0124 03:47:36.361670    94 net.cpp:1712] conv_13/expand_mbox_priorbox <- conv_13/expand_conv_13/expand/relu_0_split_3
I0124 03:47:36.361680    94 net.cpp:1712] conv_13/expand_mbox_priorbox <- data_data_0_split_1
I0124 03:47:36.361694    94 net.cpp:1686] conv_13/expand_mbox_priorbox -> conv_13/expand_mbox_priorbox
I0124 03:47:36.361706    94 net.cpp:331] Setting up conv_13/expand_mbox_priorbox
I0124 03:47:36.361713    94 net.cpp:338] Top shape: 1 2 4332 (8664)
I0124 03:47:36.361717    94 net.cpp:347] Memory required for data: 547400416
I0124 03:47:36.361722    94 net.cpp:349] Biggest Memory of single blob: 69120000
I0124 03:47:36.361728    94 layer_factory.hpp:114] Creating layer Conv_1_mbox_loc/depthwise
I0124 03:47:36.361747    94 net.cpp:262] Creating Layer Conv_1_mbox_loc/depthwise
I0124 03:47:36.361754    94 net.cpp:1712] Conv_1_mbox_loc/depthwise <- Conv_1_Conv_1/relu_0_split_1
I0124 03:47:36.361763    94 net.cpp:1686] Conv_1_mbox_loc/depthwise -> Conv_1_mbox_loc/depthwise
I0124 03:47:36.361896    94 net.cpp:331] Setting up Conv_1_mbox_loc/depthwise
I0124 03:47:36.361912    94 net.cpp:338] Top shape: 8 1280 10 10 (1024000)
I0124 03:47:36.361917    94 net.cpp:347] Memory required for data: 551496416
I0124 03:47:36.361922    94 net.cpp:349] Biggest Memory of single blob: 69120000
I0124 03:47:36.361929    94 layer_factory.hpp:114] Creating layer Conv_1_mbox_loc
I0124 03:47:36.361943    94 net.cpp:262] Creating Layer Conv_1_mbox_loc
I0124 03:47:36.361954    94 net.cpp:1712] Conv_1_mbox_loc <- Conv_1_mbox_loc/depthwise
I0124 03:47:36.361964    94 net.cpp:1686] Conv_1_mbox_loc -> Conv_1_mbox_loc
I0124 03:47:36.362257    94 net.cpp:331] Setting up Conv_1_mbox_loc
I0124 03:47:36.362267    94 net.cpp:338] Top shape: 8 24 10 10 (19200)
I0124 03:47:36.362270    94 net.cpp:347] Memory required for data: 551573216
I0124 03:47:36.362274    94 net.cpp:349] Biggest Memory of single blob: 69120000
I0124 03:47:36.362280    94 layer_factory.hpp:114] Creating layer Conv_1_mbox_loc_perm
I0124 03:47:36.362289    94 net.cpp:262] Creating Layer Conv_1_mbox_loc_perm
I0124 03:47:36.362295    94 net.cpp:1712] Conv_1_mbox_loc_perm <- Conv_1_mbox_loc
I0124 03:47:36.362304    94 net.cpp:1686] Conv_1_mbox_loc_perm -> Conv_1_mbox_loc_perm
I0124 03:47:36.362319    94 net.cpp:331] Setting up Conv_1_mbox_loc_perm
I0124 03:47:36.362327    94 net.cpp:338] Top shape: 8 10 10 24 (19200)
I0124 03:47:36.362334    94 net.cpp:347] Memory required for data: 551650016
I0124 03:47:36.362340    94 net.cpp:349] Biggest Memory of single blob: 69120000
I0124 03:47:36.362347    94 layer_factory.hpp:114] Creating layer Conv_1_mbox_loc_flat
I0124 03:47:36.362354    94 net.cpp:262] Creating Layer Conv_1_mbox_loc_flat
I0124 03:47:36.362358    94 net.cpp:1712] Conv_1_mbox_loc_flat <- Conv_1_mbox_loc_perm
I0124 03:47:36.362365    94 net.cpp:1686] Conv_1_mbox_loc_flat -> Conv_1_mbox_loc_flat
I0124 03:47:36.362380    94 net.cpp:331] Setting up Conv_1_mbox_loc_flat
I0124 03:47:36.362387    94 net.cpp:338] Top shape: 8 2400 (19200)
I0124 03:47:36.362391    94 net.cpp:347] Memory required for data: 551726816
I0124 03:47:36.362396    94 net.cpp:349] Biggest Memory of single blob: 69120000
I0124 03:47:36.362401    94 layer_factory.hpp:114] Creating layer Conv_1_mbox_conf/depthwise
I0124 03:47:36.362409    94 net.cpp:262] Creating Layer Conv_1_mbox_conf/depthwise
I0124 03:47:36.362414    94 net.cpp:1712] Conv_1_mbox_conf/depthwise <- Conv_1_Conv_1/relu_0_split_2
I0124 03:47:36.362424    94 net.cpp:1686] Conv_1_mbox_conf/depthwise -> Conv_1_mbox_conf/depthwise
I0124 03:47:36.362555    94 net.cpp:331] Setting up Conv_1_mbox_conf/depthwise
I0124 03:47:36.362565    94 net.cpp:338] Top shape: 8 1280 10 10 (1024000)
I0124 03:47:36.362569    94 net.cpp:347] Memory required for data: 555822816
I0124 03:47:36.362573    94 net.cpp:349] Biggest Memory of single blob: 69120000
I0124 03:47:36.362581    94 layer_factory.hpp:114] Creating layer Conv_1_mbox_conf_new
I0124 03:47:36.362591    94 net.cpp:262] Creating Layer Conv_1_mbox_conf_new
I0124 03:47:36.362596    94 net.cpp:1712] Conv_1_mbox_conf_new <- Conv_1_mbox_conf/depthwise
I0124 03:47:36.362604    94 net.cpp:1686] Conv_1_mbox_conf_new -> Conv_1_mbox_conf_new
I0124 03:47:36.364010    94 net.cpp:331] Setting up Conv_1_mbox_conf_new
I0124 03:47:36.364018    94 net.cpp:338] Top shape: 8 126 10 10 (100800)
I0124 03:47:36.364024    94 net.cpp:347] Memory required for data: 556226016
I0124 03:47:36.364032    94 net.cpp:349] Biggest Memory of single blob: 69120000
I0124 03:47:36.364042    94 layer_factory.hpp:114] Creating layer Conv_1_mbox_conf_perm
I0124 03:47:36.364055    94 net.cpp:262] Creating Layer Conv_1_mbox_conf_perm
I0124 03:47:36.364063    94 net.cpp:1712] Conv_1_mbox_conf_perm <- Conv_1_mbox_conf_new
I0124 03:47:36.364078    94 net.cpp:1686] Conv_1_mbox_conf_perm -> Conv_1_mbox_conf_perm
I0124 03:47:36.364096    94 net.cpp:331] Setting up Conv_1_mbox_conf_perm
I0124 03:47:36.364109    94 net.cpp:338] Top shape: 8 10 10 126 (100800)
I0124 03:47:36.364114    94 net.cpp:347] Memory required for data: 556629216
I0124 03:47:36.364120    94 net.cpp:349] Biggest Memory of single blob: 69120000
I0124 03:47:36.364140    94 layer_factory.hpp:114] Creating layer Conv_1_mbox_conf_flat
I0124 03:47:36.364151    94 net.cpp:262] Creating Layer Conv_1_mbox_conf_flat
I0124 03:47:36.364159    94 net.cpp:1712] Conv_1_mbox_conf_flat <- Conv_1_mbox_conf_perm
I0124 03:47:36.364172    94 net.cpp:1686] Conv_1_mbox_conf_flat -> Conv_1_mbox_conf_flat
I0124 03:47:36.364183    94 net.cpp:331] Setting up Conv_1_mbox_conf_flat
I0124 03:47:36.364192    94 net.cpp:338] Top shape: 8 12600 (100800)
I0124 03:47:36.364199    94 net.cpp:347] Memory required for data: 557032416
I0124 03:47:36.364207    94 net.cpp:349] Biggest Memory of single blob: 69120000
I0124 03:47:36.364213    94 layer_factory.hpp:114] Creating layer Conv_1_mbox_priorbox
I0124 03:47:36.364223    94 net.cpp:262] Creating Layer Conv_1_mbox_priorbox
I0124 03:47:36.364233    94 net.cpp:1712] Conv_1_mbox_priorbox <- Conv_1_Conv_1/relu_0_split_3
I0124 03:47:36.364241    94 net.cpp:1712] Conv_1_mbox_priorbox <- data_data_0_split_2
I0124 03:47:36.364256    94 net.cpp:1686] Conv_1_mbox_priorbox -> Conv_1_mbox_priorbox
I0124 03:47:36.364270    94 net.cpp:331] Setting up Conv_1_mbox_priorbox
I0124 03:47:36.364280    94 net.cpp:338] Top shape: 1 2 2400 (4800)
I0124 03:47:36.364287    94 net.cpp:347] Memory required for data: 557051616
I0124 03:47:36.364295    94 net.cpp:349] Biggest Memory of single blob: 69120000
I0124 03:47:36.364301    94 layer_factory.hpp:114] Creating layer layer_19_2_2_mbox_loc/depthwise
I0124 03:47:36.364322    94 net.cpp:262] Creating Layer layer_19_2_2_mbox_loc/depthwise
I0124 03:47:36.364332    94 net.cpp:1712] layer_19_2_2_mbox_loc/depthwise <- layer_19_2_2_layer_19_2_2/relu_0_split_1
I0124 03:47:36.364344    94 net.cpp:1686] layer_19_2_2_mbox_loc/depthwise -> layer_19_2_2_mbox_loc/depthwise
I0124 03:47:36.364413    94 net.cpp:331] Setting up layer_19_2_2_mbox_loc/depthwise
I0124 03:47:36.364423    94 net.cpp:338] Top shape: 8 512 5 5 (102400)
I0124 03:47:36.364428    94 net.cpp:347] Memory required for data: 557461216
I0124 03:47:36.364434    94 net.cpp:349] Biggest Memory of single blob: 69120000
I0124 03:47:36.364444    94 layer_factory.hpp:114] Creating layer layer_19_2_2_mbox_loc
I0124 03:47:36.364460    94 net.cpp:262] Creating Layer layer_19_2_2_mbox_loc
I0124 03:47:36.364470    94 net.cpp:1712] layer_19_2_2_mbox_loc <- layer_19_2_2_mbox_loc/depthwise
I0124 03:47:36.364480    94 net.cpp:1686] layer_19_2_2_mbox_loc -> layer_19_2_2_mbox_loc
I0124 03:47:36.364614    94 net.cpp:331] Setting up layer_19_2_2_mbox_loc
I0124 03:47:36.364622    94 net.cpp:338] Top shape: 8 24 5 5 (4800)
I0124 03:47:36.364626    94 net.cpp:347] Memory required for data: 557480416
I0124 03:47:36.364630    94 net.cpp:349] Biggest Memory of single blob: 69120000
I0124 03:47:36.364637    94 layer_factory.hpp:114] Creating layer layer_19_2_2_mbox_loc_perm
I0124 03:47:36.364645    94 net.cpp:262] Creating Layer layer_19_2_2_mbox_loc_perm
I0124 03:47:36.364652    94 net.cpp:1712] layer_19_2_2_mbox_loc_perm <- layer_19_2_2_mbox_loc
I0124 03:47:36.364661    94 net.cpp:1686] layer_19_2_2_mbox_loc_perm -> layer_19_2_2_mbox_loc_perm
I0124 03:47:36.364675    94 net.cpp:331] Setting up layer_19_2_2_mbox_loc_perm
I0124 03:47:36.364682    94 net.cpp:338] Top shape: 8 5 5 24 (4800)
I0124 03:47:36.364687    94 net.cpp:347] Memory required for data: 557499616
I0124 03:47:36.364696    94 net.cpp:349] Biggest Memory of single blob: 69120000
I0124 03:47:36.364702    94 layer_factory.hpp:114] Creating layer layer_19_2_2_mbox_loc_flat
I0124 03:47:36.364712    94 net.cpp:262] Creating Layer layer_19_2_2_mbox_loc_flat
I0124 03:47:36.364719    94 net.cpp:1712] layer_19_2_2_mbox_loc_flat <- layer_19_2_2_mbox_loc_perm
I0124 03:47:36.364732    94 net.cpp:1686] layer_19_2_2_mbox_loc_flat -> layer_19_2_2_mbox_loc_flat
I0124 03:47:36.364740    94 net.cpp:331] Setting up layer_19_2_2_mbox_loc_flat
I0124 03:47:36.364746    94 net.cpp:338] Top shape: 8 600 (4800)
I0124 03:47:36.364750    94 net.cpp:347] Memory required for data: 557518816
I0124 03:47:36.364758    94 net.cpp:349] Biggest Memory of single blob: 69120000
I0124 03:47:36.364773    94 layer_factory.hpp:114] Creating layer layer_19_2_2_mbox_conf/depthwise
I0124 03:47:36.364789    94 net.cpp:262] Creating Layer layer_19_2_2_mbox_conf/depthwise
I0124 03:47:36.364797    94 net.cpp:1712] layer_19_2_2_mbox_conf/depthwise <- layer_19_2_2_layer_19_2_2/relu_0_split_2
I0124 03:47:36.364809    94 net.cpp:1686] layer_19_2_2_mbox_conf/depthwise -> layer_19_2_2_mbox_conf/depthwise
I0124 03:47:36.364877    94 net.cpp:331] Setting up layer_19_2_2_mbox_conf/depthwise
I0124 03:47:36.364886    94 net.cpp:338] Top shape: 8 512 5 5 (102400)
I0124 03:47:36.364890    94 net.cpp:347] Memory required for data: 557928416
I0124 03:47:36.364894    94 net.cpp:349] Biggest Memory of single blob: 69120000
I0124 03:47:36.364902    94 layer_factory.hpp:114] Creating layer layer_19_2_2_mbox_conf_new
I0124 03:47:36.364913    94 net.cpp:262] Creating Layer layer_19_2_2_mbox_conf_new
I0124 03:47:36.364923    94 net.cpp:1712] layer_19_2_2_mbox_conf_new <- layer_19_2_2_mbox_conf/depthwise
I0124 03:47:36.364935    94 net.cpp:1686] layer_19_2_2_mbox_conf_new -> layer_19_2_2_mbox_conf_new
I0124 03:47:36.365528    94 net.cpp:331] Setting up layer_19_2_2_mbox_conf_new
I0124 03:47:36.365538    94 net.cpp:338] Top shape: 8 126 5 5 (25200)
I0124 03:47:36.365543    94 net.cpp:347] Memory required for data: 558029216
I0124 03:47:36.365547    94 net.cpp:349] Biggest Memory of single blob: 69120000
I0124 03:47:36.365554    94 layer_factory.hpp:114] Creating layer layer_19_2_2_mbox_conf_perm
I0124 03:47:36.365562    94 net.cpp:262] Creating Layer layer_19_2_2_mbox_conf_perm
I0124 03:47:36.365567    94 net.cpp:1712] layer_19_2_2_mbox_conf_perm <- layer_19_2_2_mbox_conf_new
I0124 03:47:36.365574    94 net.cpp:1686] layer_19_2_2_mbox_conf_perm -> layer_19_2_2_mbox_conf_perm
I0124 03:47:36.365586    94 net.cpp:331] Setting up layer_19_2_2_mbox_conf_perm
I0124 03:47:36.365592    94 net.cpp:338] Top shape: 8 5 5 126 (25200)
I0124 03:47:36.365597    94 net.cpp:347] Memory required for data: 558130016
I0124 03:47:36.365602    94 net.cpp:349] Biggest Memory of single blob: 69120000
I0124 03:47:36.365607    94 layer_factory.hpp:114] Creating layer layer_19_2_2_mbox_conf_flat
I0124 03:47:36.365615    94 net.cpp:262] Creating Layer layer_19_2_2_mbox_conf_flat
I0124 03:47:36.365623    94 net.cpp:1712] layer_19_2_2_mbox_conf_flat <- layer_19_2_2_mbox_conf_perm
I0124 03:47:36.365634    94 net.cpp:1686] layer_19_2_2_mbox_conf_flat -> layer_19_2_2_mbox_conf_flat
I0124 03:47:36.365645    94 net.cpp:331] Setting up layer_19_2_2_mbox_conf_flat
I0124 03:47:36.365656    94 net.cpp:338] Top shape: 8 3150 (25200)
I0124 03:47:36.365662    94 net.cpp:347] Memory required for data: 558230816
I0124 03:47:36.365667    94 net.cpp:349] Biggest Memory of single blob: 69120000
I0124 03:47:36.365671    94 layer_factory.hpp:114] Creating layer layer_19_2_2_mbox_priorbox
I0124 03:47:36.365676    94 net.cpp:262] Creating Layer layer_19_2_2_mbox_priorbox
I0124 03:47:36.365681    94 net.cpp:1712] layer_19_2_2_mbox_priorbox <- layer_19_2_2_layer_19_2_2/relu_0_split_3
I0124 03:47:36.365689    94 net.cpp:1712] layer_19_2_2_mbox_priorbox <- data_data_0_split_3
I0124 03:47:36.365696    94 net.cpp:1686] layer_19_2_2_mbox_priorbox -> layer_19_2_2_mbox_priorbox
I0124 03:47:36.365707    94 net.cpp:331] Setting up layer_19_2_2_mbox_priorbox
I0124 03:47:36.365716    94 net.cpp:338] Top shape: 1 2 600 (1200)
I0124 03:47:36.365723    94 net.cpp:347] Memory required for data: 558235616
I0124 03:47:36.365731    94 net.cpp:349] Biggest Memory of single blob: 69120000
I0124 03:47:36.365736    94 layer_factory.hpp:114] Creating layer layer_19_2_3_mbox_loc/depthwise
I0124 03:47:36.365748    94 net.cpp:262] Creating Layer layer_19_2_3_mbox_loc/depthwise
I0124 03:47:36.365756    94 net.cpp:1712] layer_19_2_3_mbox_loc/depthwise <- layer_19_2_3_layer_19_2_3/relu_0_split_1
I0124 03:47:36.365767    94 net.cpp:1686] layer_19_2_3_mbox_loc/depthwise -> layer_19_2_3_mbox_loc/depthwise
I0124 03:47:36.365816    94 net.cpp:331] Setting up layer_19_2_3_mbox_loc/depthwise
I0124 03:47:36.365833    94 net.cpp:338] Top shape: 8 256 3 3 (18432)
I0124 03:47:36.365839    94 net.cpp:347] Memory required for data: 558309344
I0124 03:47:36.365842    94 net.cpp:349] Biggest Memory of single blob: 69120000
I0124 03:47:36.365849    94 layer_factory.hpp:114] Creating layer layer_19_2_3_mbox_loc
I0124 03:47:36.365864    94 net.cpp:262] Creating Layer layer_19_2_3_mbox_loc
I0124 03:47:36.365870    94 net.cpp:1712] layer_19_2_3_mbox_loc <- layer_19_2_3_mbox_loc/depthwise
I0124 03:47:36.365880    94 net.cpp:1686] layer_19_2_3_mbox_loc -> layer_19_2_3_mbox_loc
I0124 03:47:36.365954    94 net.cpp:331] Setting up layer_19_2_3_mbox_loc
I0124 03:47:36.365962    94 net.cpp:338] Top shape: 8 24 3 3 (1728)
I0124 03:47:36.365967    94 net.cpp:347] Memory required for data: 558316256
I0124 03:47:36.365970    94 net.cpp:349] Biggest Memory of single blob: 69120000
I0124 03:47:36.365978    94 layer_factory.hpp:114] Creating layer layer_19_2_3_mbox_loc_perm
I0124 03:47:36.365983    94 net.cpp:262] Creating Layer layer_19_2_3_mbox_loc_perm
I0124 03:47:36.365988    94 net.cpp:1712] layer_19_2_3_mbox_loc_perm <- layer_19_2_3_mbox_loc
I0124 03:47:36.365996    94 net.cpp:1686] layer_19_2_3_mbox_loc_perm -> layer_19_2_3_mbox_loc_perm
I0124 03:47:36.366006    94 net.cpp:331] Setting up layer_19_2_3_mbox_loc_perm
I0124 03:47:36.366014    94 net.cpp:338] Top shape: 8 3 3 24 (1728)
I0124 03:47:36.366017    94 net.cpp:347] Memory required for data: 558323168
I0124 03:47:36.366022    94 net.cpp:349] Biggest Memory of single blob: 69120000
I0124 03:47:36.366027    94 layer_factory.hpp:114] Creating layer layer_19_2_3_mbox_loc_flat
I0124 03:47:36.366034    94 net.cpp:262] Creating Layer layer_19_2_3_mbox_loc_flat
I0124 03:47:36.366039    94 net.cpp:1712] layer_19_2_3_mbox_loc_flat <- layer_19_2_3_mbox_loc_perm
I0124 03:47:36.366050    94 net.cpp:1686] layer_19_2_3_mbox_loc_flat -> layer_19_2_3_mbox_loc_flat
I0124 03:47:36.366060    94 net.cpp:331] Setting up layer_19_2_3_mbox_loc_flat
I0124 03:47:36.366067    94 net.cpp:338] Top shape: 8 216 (1728)
I0124 03:47:36.366072    94 net.cpp:347] Memory required for data: 558330080
I0124 03:47:36.366076    94 net.cpp:349] Biggest Memory of single blob: 69120000
I0124 03:47:36.366081    94 layer_factory.hpp:114] Creating layer layer_19_2_3_mbox_conf/depthwise
I0124 03:47:36.366093    94 net.cpp:262] Creating Layer layer_19_2_3_mbox_conf/depthwise
I0124 03:47:36.366099    94 net.cpp:1712] layer_19_2_3_mbox_conf/depthwise <- layer_19_2_3_layer_19_2_3/relu_0_split_2
I0124 03:47:36.366108    94 net.cpp:1686] layer_19_2_3_mbox_conf/depthwise -> layer_19_2_3_mbox_conf/depthwise
I0124 03:47:36.366154    94 net.cpp:331] Setting up layer_19_2_3_mbox_conf/depthwise
I0124 03:47:36.366161    94 net.cpp:338] Top shape: 8 256 3 3 (18432)
I0124 03:47:36.366165    94 net.cpp:347] Memory required for data: 558403808
I0124 03:47:36.366169    94 net.cpp:349] Biggest Memory of single blob: 69120000
I0124 03:47:36.366178    94 layer_factory.hpp:114] Creating layer layer_19_2_3_mbox_conf_new
I0124 03:47:36.366186    94 net.cpp:262] Creating Layer layer_19_2_3_mbox_conf_new
I0124 03:47:36.366192    94 net.cpp:1712] layer_19_2_3_mbox_conf_new <- layer_19_2_3_mbox_conf/depthwise
I0124 03:47:36.366204    94 net.cpp:1686] layer_19_2_3_mbox_conf_new -> layer_19_2_3_mbox_conf_new
I0124 03:47:36.366499    94 net.cpp:331] Setting up layer_19_2_3_mbox_conf_new
I0124 03:47:36.366508    94 net.cpp:338] Top shape: 8 126 3 3 (9072)
I0124 03:47:36.366511    94 net.cpp:347] Memory required for data: 558440096
I0124 03:47:36.366516    94 net.cpp:349] Biggest Memory of single blob: 69120000
I0124 03:47:36.366523    94 layer_factory.hpp:114] Creating layer layer_19_2_3_mbox_conf_perm
I0124 03:47:36.366531    94 net.cpp:262] Creating Layer layer_19_2_3_mbox_conf_perm
I0124 03:47:36.366537    94 net.cpp:1712] layer_19_2_3_mbox_conf_perm <- layer_19_2_3_mbox_conf_new
I0124 03:47:36.366545    94 net.cpp:1686] layer_19_2_3_mbox_conf_perm -> layer_19_2_3_mbox_conf_perm
I0124 03:47:36.366561    94 net.cpp:331] Setting up layer_19_2_3_mbox_conf_perm
I0124 03:47:36.366577    94 net.cpp:338] Top shape: 8 3 3 126 (9072)
I0124 03:47:36.366582    94 net.cpp:347] Memory required for data: 558476384
I0124 03:47:36.366588    94 net.cpp:349] Biggest Memory of single blob: 69120000
I0124 03:47:36.366595    94 layer_factory.hpp:114] Creating layer layer_19_2_3_mbox_conf_flat
I0124 03:47:36.366605    94 net.cpp:262] Creating Layer layer_19_2_3_mbox_conf_flat
I0124 03:47:36.366611    94 net.cpp:1712] layer_19_2_3_mbox_conf_flat <- layer_19_2_3_mbox_conf_perm
I0124 03:47:36.366622    94 net.cpp:1686] layer_19_2_3_mbox_conf_flat -> layer_19_2_3_mbox_conf_flat
I0124 03:47:36.366632    94 net.cpp:331] Setting up layer_19_2_3_mbox_conf_flat
I0124 03:47:36.366639    94 net.cpp:338] Top shape: 8 1134 (9072)
I0124 03:47:36.366644    94 net.cpp:347] Memory required for data: 558512672
I0124 03:47:36.366652    94 net.cpp:349] Biggest Memory of single blob: 69120000
I0124 03:47:36.366657    94 layer_factory.hpp:114] Creating layer layer_19_2_3_mbox_priorbox
I0124 03:47:36.366662    94 net.cpp:262] Creating Layer layer_19_2_3_mbox_priorbox
I0124 03:47:36.366667    94 net.cpp:1712] layer_19_2_3_mbox_priorbox <- layer_19_2_3_layer_19_2_3/relu_0_split_3
I0124 03:47:36.366673    94 net.cpp:1712] layer_19_2_3_mbox_priorbox <- data_data_0_split_4
I0124 03:47:36.366685    94 net.cpp:1686] layer_19_2_3_mbox_priorbox -> layer_19_2_3_mbox_priorbox
I0124 03:47:36.366699    94 net.cpp:331] Setting up layer_19_2_3_mbox_priorbox
I0124 03:47:36.366708    94 net.cpp:338] Top shape: 1 2 216 (432)
I0124 03:47:36.366712    94 net.cpp:347] Memory required for data: 558514400
I0124 03:47:36.366716    94 net.cpp:349] Biggest Memory of single blob: 69120000
I0124 03:47:36.366722    94 layer_factory.hpp:114] Creating layer layer_19_2_4_mbox_loc/depthwise
I0124 03:47:36.366735    94 net.cpp:262] Creating Layer layer_19_2_4_mbox_loc/depthwise
I0124 03:47:36.366742    94 net.cpp:1712] layer_19_2_4_mbox_loc/depthwise <- layer_19_2_4_layer_19_2_4/relu_0_split_1
I0124 03:47:36.366753    94 net.cpp:1686] layer_19_2_4_mbox_loc/depthwise -> layer_19_2_4_mbox_loc/depthwise
I0124 03:47:36.366799    94 net.cpp:331] Setting up layer_19_2_4_mbox_loc/depthwise
I0124 03:47:36.366807    94 net.cpp:338] Top shape: 8 256 2 2 (8192)
I0124 03:47:36.366811    94 net.cpp:347] Memory required for data: 558547168
I0124 03:47:36.366816    94 net.cpp:349] Biggest Memory of single blob: 69120000
I0124 03:47:36.366822    94 layer_factory.hpp:114] Creating layer layer_19_2_4_mbox_loc
I0124 03:47:36.366832    94 net.cpp:262] Creating Layer layer_19_2_4_mbox_loc
I0124 03:47:36.366837    94 net.cpp:1712] layer_19_2_4_mbox_loc <- layer_19_2_4_mbox_loc/depthwise
I0124 03:47:36.366844    94 net.cpp:1686] layer_19_2_4_mbox_loc -> layer_19_2_4_mbox_loc
I0124 03:47:36.366914    94 net.cpp:331] Setting up layer_19_2_4_mbox_loc
I0124 03:47:36.366921    94 net.cpp:338] Top shape: 8 24 2 2 (768)
I0124 03:47:36.366926    94 net.cpp:347] Memory required for data: 558550240
I0124 03:47:36.366930    94 net.cpp:349] Biggest Memory of single blob: 69120000
I0124 03:47:36.366937    94 layer_factory.hpp:114] Creating layer layer_19_2_4_mbox_loc_perm
I0124 03:47:36.366945    94 net.cpp:262] Creating Layer layer_19_2_4_mbox_loc_perm
I0124 03:47:36.366950    94 net.cpp:1712] layer_19_2_4_mbox_loc_perm <- layer_19_2_4_mbox_loc
I0124 03:47:36.366958    94 net.cpp:1686] layer_19_2_4_mbox_loc_perm -> layer_19_2_4_mbox_loc_perm
I0124 03:47:36.366973    94 net.cpp:331] Setting up layer_19_2_4_mbox_loc_perm
I0124 03:47:36.366981    94 net.cpp:338] Top shape: 8 2 2 24 (768)
I0124 03:47:36.366984    94 net.cpp:347] Memory required for data: 558553312
I0124 03:47:36.366991    94 net.cpp:349] Biggest Memory of single blob: 69120000
I0124 03:47:36.366997    94 layer_factory.hpp:114] Creating layer layer_19_2_4_mbox_loc_flat
I0124 03:47:36.367005    94 net.cpp:262] Creating Layer layer_19_2_4_mbox_loc_flat
I0124 03:47:36.367013    94 net.cpp:1712] layer_19_2_4_mbox_loc_flat <- layer_19_2_4_mbox_loc_perm
I0124 03:47:36.367022    94 net.cpp:1686] layer_19_2_4_mbox_loc_flat -> layer_19_2_4_mbox_loc_flat
I0124 03:47:36.367041    94 net.cpp:331] Setting up layer_19_2_4_mbox_loc_flat
I0124 03:47:36.367049    94 net.cpp:338] Top shape: 8 96 (768)
I0124 03:47:36.367055    94 net.cpp:347] Memory required for data: 558556384
I0124 03:47:36.367060    94 net.cpp:349] Biggest Memory of single blob: 69120000
I0124 03:47:36.367066    94 layer_factory.hpp:114] Creating layer layer_19_2_4_mbox_conf/depthwise
I0124 03:47:36.367080    94 net.cpp:262] Creating Layer layer_19_2_4_mbox_conf/depthwise
I0124 03:47:36.367086    94 net.cpp:1712] layer_19_2_4_mbox_conf/depthwise <- layer_19_2_4_layer_19_2_4/relu_0_split_2
I0124 03:47:36.367094    94 net.cpp:1686] layer_19_2_4_mbox_conf/depthwise -> layer_19_2_4_mbox_conf/depthwise
I0124 03:47:36.367134    94 net.cpp:331] Setting up layer_19_2_4_mbox_conf/depthwise
I0124 03:47:36.367141    94 net.cpp:338] Top shape: 8 256 2 2 (8192)
I0124 03:47:36.367146    94 net.cpp:347] Memory required for data: 558589152
I0124 03:47:36.367149    94 net.cpp:349] Biggest Memory of single blob: 69120000
I0124 03:47:36.367158    94 layer_factory.hpp:114] Creating layer layer_19_2_4_mbox_conf_new
I0124 03:47:36.367170    94 net.cpp:262] Creating Layer layer_19_2_4_mbox_conf_new
I0124 03:47:36.367178    94 net.cpp:1712] layer_19_2_4_mbox_conf_new <- layer_19_2_4_mbox_conf/depthwise
I0124 03:47:36.367187    94 net.cpp:1686] layer_19_2_4_mbox_conf_new -> layer_19_2_4_mbox_conf_new
I0124 03:47:36.367481    94 net.cpp:331] Setting up layer_19_2_4_mbox_conf_new
I0124 03:47:36.367491    94 net.cpp:338] Top shape: 8 126 2 2 (4032)
I0124 03:47:36.367496    94 net.cpp:347] Memory required for data: 558605280
I0124 03:47:36.367501    94 net.cpp:349] Biggest Memory of single blob: 69120000
I0124 03:47:36.367511    94 layer_factory.hpp:114] Creating layer layer_19_2_4_mbox_conf_perm
I0124 03:47:36.367519    94 net.cpp:262] Creating Layer layer_19_2_4_mbox_conf_perm
I0124 03:47:36.367525    94 net.cpp:1712] layer_19_2_4_mbox_conf_perm <- layer_19_2_4_mbox_conf_new
I0124 03:47:36.367533    94 net.cpp:1686] layer_19_2_4_mbox_conf_perm -> layer_19_2_4_mbox_conf_perm
I0124 03:47:36.367545    94 net.cpp:331] Setting up layer_19_2_4_mbox_conf_perm
I0124 03:47:36.367552    94 net.cpp:338] Top shape: 8 2 2 126 (4032)
I0124 03:47:36.367555    94 net.cpp:347] Memory required for data: 558621408
I0124 03:47:36.367559    94 net.cpp:349] Biggest Memory of single blob: 69120000
I0124 03:47:36.367564    94 layer_factory.hpp:114] Creating layer layer_19_2_4_mbox_conf_flat
I0124 03:47:36.367571    94 net.cpp:262] Creating Layer layer_19_2_4_mbox_conf_flat
I0124 03:47:36.367576    94 net.cpp:1712] layer_19_2_4_mbox_conf_flat <- layer_19_2_4_mbox_conf_perm
I0124 03:47:36.367583    94 net.cpp:1686] layer_19_2_4_mbox_conf_flat -> layer_19_2_4_mbox_conf_flat
I0124 03:47:36.367591    94 net.cpp:331] Setting up layer_19_2_4_mbox_conf_flat
I0124 03:47:36.367596    94 net.cpp:338] Top shape: 8 504 (4032)
I0124 03:47:36.367602    94 net.cpp:347] Memory required for data: 558637536
I0124 03:47:36.367606    94 net.cpp:349] Biggest Memory of single blob: 69120000
I0124 03:47:36.367611    94 layer_factory.hpp:114] Creating layer layer_19_2_4_mbox_priorbox
I0124 03:47:36.367619    94 net.cpp:262] Creating Layer layer_19_2_4_mbox_priorbox
I0124 03:47:36.367624    94 net.cpp:1712] layer_19_2_4_mbox_priorbox <- layer_19_2_4_layer_19_2_4/relu_0_split_3
I0124 03:47:36.367631    94 net.cpp:1712] layer_19_2_4_mbox_priorbox <- data_data_0_split_5
I0124 03:47:36.367641    94 net.cpp:1686] layer_19_2_4_mbox_priorbox -> layer_19_2_4_mbox_priorbox
I0124 03:47:36.367650    94 net.cpp:331] Setting up layer_19_2_4_mbox_priorbox
I0124 03:47:36.367656    94 net.cpp:338] Top shape: 1 2 96 (192)
I0124 03:47:36.367660    94 net.cpp:347] Memory required for data: 558638304
I0124 03:47:36.367664    94 net.cpp:349] Biggest Memory of single blob: 69120000
I0124 03:47:36.367669    94 layer_factory.hpp:114] Creating layer layer_19_2_5_mbox_loc/depthwise
I0124 03:47:36.367681    94 net.cpp:262] Creating Layer layer_19_2_5_mbox_loc/depthwise
I0124 03:47:36.367692    94 net.cpp:1712] layer_19_2_5_mbox_loc/depthwise <- layer_19_2_5_layer_19_2_5/relu_0_split_0
I0124 03:47:36.367702    94 net.cpp:1686] layer_19_2_5_mbox_loc/depthwise -> layer_19_2_5_mbox_loc/depthwise
I0124 03:47:36.367736    94 net.cpp:331] Setting up layer_19_2_5_mbox_loc/depthwise
I0124 03:47:36.367745    94 net.cpp:338] Top shape: 8 128 1 1 (1024)
I0124 03:47:36.367750    94 net.cpp:347] Memory required for data: 558642400
I0124 03:47:36.367756    94 net.cpp:349] Biggest Memory of single blob: 69120000
I0124 03:47:36.367765    94 layer_factory.hpp:114] Creating layer layer_19_2_5_mbox_loc
I0124 03:47:36.367781    94 net.cpp:262] Creating Layer layer_19_2_5_mbox_loc
I0124 03:47:36.367787    94 net.cpp:1712] layer_19_2_5_mbox_loc <- layer_19_2_5_mbox_loc/depthwise
I0124 03:47:36.367796    94 net.cpp:1686] layer_19_2_5_mbox_loc -> layer_19_2_5_mbox_loc
I0124 03:47:36.367846    94 net.cpp:331] Setting up layer_19_2_5_mbox_loc
I0124 03:47:36.367853    94 net.cpp:338] Top shape: 8 24 1 1 (192)
I0124 03:47:36.367859    94 net.cpp:347] Memory required for data: 558643168
I0124 03:47:36.367864    94 net.cpp:349] Biggest Memory of single blob: 69120000
I0124 03:47:36.367871    94 layer_factory.hpp:114] Creating layer layer_19_2_5_mbox_loc_perm
I0124 03:47:36.367877    94 net.cpp:262] Creating Layer layer_19_2_5_mbox_loc_perm
I0124 03:47:36.367883    94 net.cpp:1712] layer_19_2_5_mbox_loc_perm <- layer_19_2_5_mbox_loc
I0124 03:47:36.367889    94 net.cpp:1686] layer_19_2_5_mbox_loc_perm -> layer_19_2_5_mbox_loc_perm
I0124 03:47:36.367902    94 net.cpp:331] Setting up layer_19_2_5_mbox_loc_perm
I0124 03:47:36.367909    94 net.cpp:338] Top shape: 8 1 1 24 (192)
I0124 03:47:36.367914    94 net.cpp:347] Memory required for data: 558643936
I0124 03:47:36.367919    94 net.cpp:349] Biggest Memory of single blob: 69120000
I0124 03:47:36.367925    94 layer_factory.hpp:114] Creating layer layer_19_2_5_mbox_loc_flat
I0124 03:47:36.367934    94 net.cpp:262] Creating Layer layer_19_2_5_mbox_loc_flat
I0124 03:47:36.367939    94 net.cpp:1712] layer_19_2_5_mbox_loc_flat <- layer_19_2_5_mbox_loc_perm
I0124 03:47:36.367949    94 net.cpp:1686] layer_19_2_5_mbox_loc_flat -> layer_19_2_5_mbox_loc_flat
I0124 03:47:36.367960    94 net.cpp:331] Setting up layer_19_2_5_mbox_loc_flat
I0124 03:47:36.367967    94 net.cpp:338] Top shape: 8 24 (192)
I0124 03:47:36.367972    94 net.cpp:347] Memory required for data: 558644704
I0124 03:47:36.367978    94 net.cpp:349] Biggest Memory of single blob: 69120000
I0124 03:47:36.367985    94 layer_factory.hpp:114] Creating layer layer_19_2_5_mbox_conf/depthwise
I0124 03:47:36.367996    94 net.cpp:262] Creating Layer layer_19_2_5_mbox_conf/depthwise
I0124 03:47:36.368005    94 net.cpp:1712] layer_19_2_5_mbox_conf/depthwise <- layer_19_2_5_layer_19_2_5/relu_0_split_1
I0124 03:47:36.368013    94 net.cpp:1686] layer_19_2_5_mbox_conf/depthwise -> layer_19_2_5_mbox_conf/depthwise
I0124 03:47:36.368041    94 net.cpp:331] Setting up layer_19_2_5_mbox_conf/depthwise
I0124 03:47:36.368049    94 net.cpp:338] Top shape: 8 128 1 1 (1024)
I0124 03:47:36.368054    94 net.cpp:347] Memory required for data: 558648800
I0124 03:47:36.368058    94 net.cpp:349] Biggest Memory of single blob: 69120000
I0124 03:47:36.368064    94 layer_factory.hpp:114] Creating layer layer_19_2_5_mbox_conf_new
I0124 03:47:36.368075    94 net.cpp:262] Creating Layer layer_19_2_5_mbox_conf_new
I0124 03:47:36.368080    94 net.cpp:1712] layer_19_2_5_mbox_conf_new <- layer_19_2_5_mbox_conf/depthwise
I0124 03:47:36.368088    94 net.cpp:1686] layer_19_2_5_mbox_conf_new -> layer_19_2_5_mbox_conf_new
I0124 03:47:36.368243    94 net.cpp:331] Setting up layer_19_2_5_mbox_conf_new
I0124 03:47:36.368252    94 net.cpp:338] Top shape: 8 126 1 1 (1008)
I0124 03:47:36.368255    94 net.cpp:347] Memory required for data: 558652832
I0124 03:47:36.368259    94 net.cpp:349] Biggest Memory of single blob: 69120000
I0124 03:47:36.368265    94 layer_factory.hpp:114] Creating layer layer_19_2_5_mbox_conf_perm
I0124 03:47:36.368273    94 net.cpp:262] Creating Layer layer_19_2_5_mbox_conf_perm
I0124 03:47:36.368284    94 net.cpp:1712] layer_19_2_5_mbox_conf_perm <- layer_19_2_5_mbox_conf_new
I0124 03:47:36.368292    94 net.cpp:1686] layer_19_2_5_mbox_conf_perm -> layer_19_2_5_mbox_conf_perm
I0124 03:47:36.368305    94 net.cpp:331] Setting up layer_19_2_5_mbox_conf_perm
I0124 03:47:36.368311    94 net.cpp:338] Top shape: 8 1 1 126 (1008)
I0124 03:47:36.368315    94 net.cpp:347] Memory required for data: 558656864
I0124 03:47:36.368320    94 net.cpp:349] Biggest Memory of single blob: 69120000
I0124 03:47:36.368325    94 layer_factory.hpp:114] Creating layer layer_19_2_5_mbox_conf_flat
I0124 03:47:36.368331    94 net.cpp:262] Creating Layer layer_19_2_5_mbox_conf_flat
I0124 03:47:36.368336    94 net.cpp:1712] layer_19_2_5_mbox_conf_flat <- layer_19_2_5_mbox_conf_perm
I0124 03:47:36.368345    94 net.cpp:1686] layer_19_2_5_mbox_conf_flat -> layer_19_2_5_mbox_conf_flat
I0124 03:47:36.368353    94 net.cpp:331] Setting up layer_19_2_5_mbox_conf_flat
I0124 03:47:36.368358    94 net.cpp:338] Top shape: 8 126 (1008)
I0124 03:47:36.368362    94 net.cpp:347] Memory required for data: 558660896
I0124 03:47:36.368367    94 net.cpp:349] Biggest Memory of single blob: 69120000
I0124 03:47:36.368373    94 layer_factory.hpp:114] Creating layer layer_19_2_5_mbox_priorbox
I0124 03:47:36.368383    94 net.cpp:262] Creating Layer layer_19_2_5_mbox_priorbox
I0124 03:47:36.368389    94 net.cpp:1712] layer_19_2_5_mbox_priorbox <- layer_19_2_5_layer_19_2_5/relu_0_split_2
I0124 03:47:36.368396    94 net.cpp:1712] layer_19_2_5_mbox_priorbox <- data_data_0_split_6
I0124 03:47:36.368404    94 net.cpp:1686] layer_19_2_5_mbox_priorbox -> layer_19_2_5_mbox_priorbox
I0124 03:47:36.368412    94 net.cpp:331] Setting up layer_19_2_5_mbox_priorbox
I0124 03:47:36.368419    94 net.cpp:338] Top shape: 1 2 24 (48)
I0124 03:47:36.368423    94 net.cpp:347] Memory required for data: 558661088
I0124 03:47:36.368427    94 net.cpp:349] Biggest Memory of single blob: 69120000
I0124 03:47:36.368432    94 layer_factory.hpp:114] Creating layer mbox_loc
I0124 03:47:36.368443    94 net.cpp:262] Creating Layer mbox_loc
I0124 03:47:36.368448    94 net.cpp:1712] mbox_loc <- conv_13/expand_mbox_loc_flat
I0124 03:47:36.368456    94 net.cpp:1712] mbox_loc <- Conv_1_mbox_loc_flat
I0124 03:47:36.368463    94 net.cpp:1712] mbox_loc <- layer_19_2_2_mbox_loc_flat
I0124 03:47:36.368470    94 net.cpp:1712] mbox_loc <- layer_19_2_3_mbox_loc_flat
I0124 03:47:36.368476    94 net.cpp:1712] mbox_loc <- layer_19_2_4_mbox_loc_flat
I0124 03:47:36.368484    94 net.cpp:1712] mbox_loc <- layer_19_2_5_mbox_loc_flat
I0124 03:47:36.368492    94 net.cpp:1686] mbox_loc -> mbox_loc
I0124 03:47:36.368503    94 net.cpp:331] Setting up mbox_loc
I0124 03:47:36.368510    94 net.cpp:338] Top shape: 8 7668 (61344)
I0124 03:47:36.368515    94 net.cpp:347] Memory required for data: 558906464
I0124 03:47:36.368520    94 net.cpp:349] Biggest Memory of single blob: 69120000
I0124 03:47:36.368526    94 layer_factory.hpp:114] Creating layer mbox_conf
I0124 03:47:36.368538    94 net.cpp:262] Creating Layer mbox_conf
I0124 03:47:36.368544    94 net.cpp:1712] mbox_conf <- conv_13/expand_mbox_conf_flat
I0124 03:47:36.368551    94 net.cpp:1712] mbox_conf <- Conv_1_mbox_conf_flat
I0124 03:47:36.368558    94 net.cpp:1712] mbox_conf <- layer_19_2_2_mbox_conf_flat
I0124 03:47:36.368566    94 net.cpp:1712] mbox_conf <- layer_19_2_3_mbox_conf_flat
I0124 03:47:36.368571    94 net.cpp:1712] mbox_conf <- layer_19_2_4_mbox_conf_flat
I0124 03:47:36.368578    94 net.cpp:1712] mbox_conf <- layer_19_2_5_mbox_conf_flat
I0124 03:47:36.368588    94 net.cpp:1686] mbox_conf -> mbox_conf
I0124 03:47:36.368597    94 net.cpp:331] Setting up mbox_conf
I0124 03:47:36.368602    94 net.cpp:338] Top shape: 8 40257 (322056)
I0124 03:47:36.368607    94 net.cpp:347] Memory required for data: 560194688
I0124 03:47:36.368611    94 net.cpp:349] Biggest Memory of single blob: 69120000
I0124 03:47:36.368616    94 layer_factory.hpp:114] Creating layer mbox_priorbox
I0124 03:47:36.368623    94 net.cpp:262] Creating Layer mbox_priorbox
I0124 03:47:36.368634    94 net.cpp:1712] mbox_priorbox <- conv_13/expand_mbox_priorbox
I0124 03:47:36.368640    94 net.cpp:1712] mbox_priorbox <- Conv_1_mbox_priorbox
I0124 03:47:36.368646    94 net.cpp:1712] mbox_priorbox <- layer_19_2_2_mbox_priorbox
I0124 03:47:36.368651    94 net.cpp:1712] mbox_priorbox <- layer_19_2_3_mbox_priorbox
I0124 03:47:36.368656    94 net.cpp:1712] mbox_priorbox <- layer_19_2_4_mbox_priorbox
I0124 03:47:36.368661    94 net.cpp:1712] mbox_priorbox <- layer_19_2_5_mbox_priorbox
I0124 03:47:36.368669    94 net.cpp:1686] mbox_priorbox -> mbox_priorbox
I0124 03:47:36.368678    94 net.cpp:331] Setting up mbox_priorbox
I0124 03:47:36.368685    94 net.cpp:338] Top shape: 1 2 7668 (15336)
I0124 03:47:36.368688    94 net.cpp:347] Memory required for data: 560256032
I0124 03:47:36.368692    94 net.cpp:349] Biggest Memory of single blob: 69120000
I0124 03:47:36.368696    94 layer_factory.hpp:114] Creating layer mbox_conf_reshape
I0124 03:47:36.368705    94 net.cpp:262] Creating Layer mbox_conf_reshape
I0124 03:47:36.368710    94 net.cpp:1712] mbox_conf_reshape <- mbox_conf
I0124 03:47:36.368717    94 net.cpp:1686] mbox_conf_reshape -> mbox_conf_reshape
I0124 03:47:36.369539    94 net.cpp:331] Setting up mbox_conf_reshape
I0124 03:47:36.369549    94 net.cpp:338] Top shape: 8 1917 21 (322056)
I0124 03:47:36.369552    94 net.cpp:347] Memory required for data: 561544256
I0124 03:47:36.369556    94 net.cpp:349] Biggest Memory of single blob: 69120000
I0124 03:47:36.369561    94 layer_factory.hpp:114] Creating layer mbox_conf_sigmoid
I0124 03:47:36.369571    94 net.cpp:262] Creating Layer mbox_conf_sigmoid
I0124 03:47:36.369578    94 net.cpp:1712] mbox_conf_sigmoid <- mbox_conf_reshape
I0124 03:47:36.369590    94 net.cpp:1686] mbox_conf_sigmoid -> mbox_conf_sigmoid
I0124 03:47:36.369602    94 net.cpp:331] Setting up mbox_conf_sigmoid
I0124 03:47:36.369611    94 net.cpp:338] Top shape: 8 1917 21 (322056)
I0124 03:47:36.369619    94 net.cpp:347] Memory required for data: 562832480
I0124 03:47:36.369626    94 net.cpp:349] Biggest Memory of single blob: 69120000
I0124 03:47:36.369632    94 layer_factory.hpp:114] Creating layer mbox_conf_flatten
I0124 03:47:36.369637    94 net.cpp:262] Creating Layer mbox_conf_flatten
I0124 03:47:36.369644    94 net.cpp:1712] mbox_conf_flatten <- mbox_conf_sigmoid
I0124 03:47:36.369650    94 net.cpp:1686] mbox_conf_flatten -> mbox_conf_flatten
I0124 03:47:36.369658    94 net.cpp:331] Setting up mbox_conf_flatten
I0124 03:47:36.369663    94 net.cpp:338] Top shape: 8 40257 (322056)
I0124 03:47:36.369668    94 net.cpp:347] Memory required for data: 564120704
I0124 03:47:36.369671    94 net.cpp:349] Biggest Memory of single blob: 69120000
I0124 03:47:36.369676    94 layer_factory.hpp:114] Creating layer detection_out
I0124 03:47:36.369685    94 net.cpp:262] Creating Layer detection_out
I0124 03:47:36.369690    94 net.cpp:1712] detection_out <- mbox_loc
I0124 03:47:36.369695    94 net.cpp:1712] detection_out <- mbox_conf_flatten
I0124 03:47:36.369701    94 net.cpp:1712] detection_out <- mbox_priorbox
I0124 03:47:36.369706    94 net.cpp:1686] detection_out -> detection_out
I0124 03:47:36.369717    94 net.cpp:331] Setting up detection_out
I0124 03:47:36.369724    94 net.cpp:338] Top shape: 1 1 1 7 (7)
I0124 03:47:36.369729    94 net.cpp:347] Memory required for data: 564120732
I0124 03:47:36.369732    94 net.cpp:349] Biggest Memory of single blob: 69120000
I0124 03:47:36.369737    94 layer_factory.hpp:114] Creating layer detection_eval
I0124 03:47:36.369745    94 net.cpp:262] Creating Layer detection_eval
I0124 03:47:36.369751    94 net.cpp:1712] detection_eval <- detection_out
I0124 03:47:36.369760    94 net.cpp:1712] detection_eval <- label
I0124 03:47:36.369773    94 net.cpp:1686] detection_eval -> detection_eval
I0124 03:47:36.369788    94 net.cpp:331] Setting up detection_eval
I0124 03:47:36.369797    94 net.cpp:338] Top shape: 1 1 21 5 (105)
I0124 03:47:36.369801    94 net.cpp:347] Memory required for data: 564121152
I0124 03:47:36.369805    94 net.cpp:349] Biggest Memory of single blob: 69120000
I0124 03:47:36.369819    94 net.cpp:417] detection_eval does not need backward computation.
I0124 03:47:36.369825    94 net.cpp:417] detection_out does not need backward computation.
I0124 03:47:36.369830    94 net.cpp:417] mbox_conf_flatten does not need backward computation.
…
