…
I0123 08:15:27.541935    77 net.cpp:207] 
I0123 08:15:27.544312    77 layer_factory.hpp:114] Creating layer data
I0123 08:15:27.544476    77 net.cpp:262] Creating Layer data
I0123 08:15:27.544490    77 net.cpp:1686] data -> data
I0123 08:15:27.544507    77 net.cpp:1686] data -> label
W0123 08:15:27.544531    77 net.cpp:309] SetMinibatchSize 1
I0123 08:15:27.544759    82 db_lmdb.cpp:66] Opened lmdb trainval_lmdb
I0123 08:15:27.547327    77 annotated_data_layer.cpp:102] output data size: 64,3,300,300
I0123 08:15:27.612491    77 net.cpp:331] Setting up data
I0123 08:15:27.612522    77 net.cpp:338] Top shape: 64 3 300 300 (17280000)
I0123 08:15:27.612530    77 net.cpp:338] Top shape: 1 1 2 8 (16)
I0123 08:15:27.612536    77 net.cpp:347] Memory required for data: 69120064
I0123 08:15:27.612548    77 net.cpp:349] Biggest Memory of single blob: 69120000
I0123 08:15:27.612558    77 layer_factory.hpp:114] Creating layer data_data_0_split
I0123 08:15:27.612584    77 net.cpp:262] Creating Layer data_data_0_split
I0123 08:15:27.612594    77 net.cpp:1712] data_data_0_split <- data
I0123 08:15:27.612607    77 net.cpp:1686] data_data_0_split -> data_data_0_split_0
I0123 08:15:27.612622    77 net.cpp:1686] data_data_0_split -> data_data_0_split_1
I0123 08:15:27.612632    77 net.cpp:1686] data_data_0_split -> data_data_0_split_2
I0123 08:15:27.612644    77 net.cpp:1686] data_data_0_split -> data_data_0_split_3
I0123 08:15:27.612655    77 net.cpp:1686] data_data_0_split -> data_data_0_split_4
I0123 08:15:27.612668    77 net.cpp:1686] data_data_0_split -> data_data_0_split_5
I0123 08:15:27.612677    77 net.cpp:1686] data_data_0_split -> data_data_0_split_6
I0123 08:15:27.612699    77 net.cpp:331] Setting up data_data_0_split
I0123 08:15:27.612709    77 net.cpp:338] Top shape: 64 3 300 300 (17280000)
I0123 08:15:27.612715    77 net.cpp:338] Top shape: 64 3 300 300 (17280000)
I0123 08:15:27.612722    77 net.cpp:338] Top shape: 64 3 300 300 (17280000)
I0123 08:15:27.612731    77 net.cpp:338] Top shape: 64 3 300 300 (17280000)
I0123 08:15:27.612740    77 net.cpp:338] Top shape: 64 3 300 300 (17280000)
I0123 08:15:27.612748    77 net.cpp:338] Top shape: 64 3 300 300 (17280000)
I0123 08:15:27.612756    77 net.cpp:338] Top shape: 64 3 300 300 (17280000)
I0123 08:15:27.612761    77 net.cpp:347] Memory required for data: 552960064
I0123 08:15:27.612768    77 net.cpp:349] Biggest Memory of single blob: 69120000
I0123 08:15:27.612776    77 layer_factory.hpp:114] Creating layer Conv
I0123 08:15:27.612795    77 net.cpp:262] Creating Layer Conv
I0123 08:15:27.612804    77 net.cpp:1712] Conv <- data_data_0_split_0
I0123 08:15:27.612815    77 net.cpp:1686] Conv -> Conv
I0123 08:15:27.612895    77 net.cpp:331] Setting up Conv
I0123 08:15:27.612903    77 net.cpp:338] Top shape: 64 32 150 150 (46080000)
I0123 08:15:27.612907    77 net.cpp:347] Memory required for data: 737280064
I0123 08:15:27.612911    77 net.cpp:349] Biggest Memory of single blob: 184320000
I0123 08:15:27.612924    77 layer_factory.hpp:114] Creating layer Conv/relu
I0123 08:15:27.612934    77 net.cpp:262] Creating Layer Conv/relu
I0123 08:15:27.612939    77 net.cpp:1712] Conv/relu <- Conv
I0123 08:15:27.612946    77 net.cpp:1673] Conv/relu -> Conv (in-place)
I0123 08:15:27.612960    77 net.cpp:331] Setting up Conv/relu
I0123 08:15:27.612967    77 net.cpp:338] Top shape: 64 32 150 150 (46080000)
I0123 08:15:27.612972    77 net.cpp:347] Memory required for data: 921600064
I0123 08:15:27.612977    77 net.cpp:349] Biggest Memory of single blob: 184320000
I0123 08:15:27.612980    77 layer_factory.hpp:114] Creating layer conv/depthwise
I0123 08:15:27.612990    77 net.cpp:262] Creating Layer conv/depthwise
I0123 08:15:27.612995    77 net.cpp:1712] conv/depthwise <- Conv
I0123 08:15:27.613001    77 net.cpp:1686] conv/depthwise -> conv/depthwise
I0123 08:15:27.613034    77 net.cpp:331] Setting up conv/depthwise
I0123 08:15:27.613041    77 net.cpp:338] Top shape: 64 32 150 150 (46080000)
I0123 08:15:27.613046    77 net.cpp:347] Memory required for data: 1105920064
I0123 08:15:27.613050    77 net.cpp:349] Biggest Memory of single blob: 184320000
I0123 08:15:27.613080    77 layer_factory.hpp:114] Creating layer conv/depthwise/relu
I0123 08:15:27.613087    77 net.cpp:262] Creating Layer conv/depthwise/relu
I0123 08:15:27.613093    77 net.cpp:1712] conv/depthwise/relu <- conv/depthwise
I0123 08:15:27.613099    77 net.cpp:1673] conv/depthwise/relu -> conv/depthwise (in-place)
I0123 08:15:27.613109    77 net.cpp:331] Setting up conv/depthwise/relu
I0123 08:15:27.613116    77 net.cpp:338] Top shape: 64 32 150 150 (46080000)
I0123 08:15:27.613121    77 net.cpp:347] Memory required for data: 1290240064
I0123 08:15:27.613124    77 net.cpp:349] Biggest Memory of single blob: 184320000
I0123 08:15:27.613128    77 layer_factory.hpp:114] Creating layer conv/project
I0123 08:15:27.613137    77 net.cpp:262] Creating Layer conv/project
I0123 08:15:27.613142    77 net.cpp:1712] conv/project <- conv/depthwise
I0123 08:15:27.613148    77 net.cpp:1686] conv/project -> conv/project
I0123 08:15:27.613180    77 net.cpp:331] Setting up conv/project
I0123 08:15:27.613190    77 net.cpp:338] Top shape: 64 16 150 150 (23040000)
I0123 08:15:27.613194    77 net.cpp:347] Memory required for data: 1382400064
I0123 08:15:27.613199    77 net.cpp:349] Biggest Memory of single blob: 184320000
I0123 08:15:27.613206    77 layer_factory.hpp:114] Creating layer conv_1/expand
I0123 08:15:27.613215    77 net.cpp:262] Creating Layer conv_1/expand
I0123 08:15:27.613220    77 net.cpp:1712] conv_1/expand <- conv/project
I0123 08:15:27.613227    77 net.cpp:1686] conv_1/expand -> conv_1/expand
I0123 08:15:27.613270    77 net.cpp:331] Setting up conv_1/expand
I0123 08:15:27.613278    77 net.cpp:338] Top shape: 64 96 150 150 (138240000)
I0123 08:15:27.613282    77 net.cpp:347] Memory required for data: 1935360064
I0123 08:15:27.613286    77 net.cpp:349] Biggest Memory of single blob: 552960000
I0123 08:15:27.613291    77 layer_factory.hpp:114] Creating layer conv_1/expand/relu
I0123 08:15:27.613298    77 net.cpp:262] Creating Layer conv_1/expand/relu
I0123 08:15:27.613302    77 net.cpp:1712] conv_1/expand/relu <- conv_1/expand
I0123 08:15:27.613308    77 net.cpp:1673] conv_1/expand/relu -> conv_1/expand (in-place)
I0123 08:15:27.613315    77 net.cpp:331] Setting up conv_1/expand/relu
I0123 08:15:27.613322    77 net.cpp:338] Top shape: 64 96 150 150 (138240000)
I0123 08:15:27.613327    77 net.cpp:347] Memory required for data: 2488320064
I0123 08:15:27.613332    77 net.cpp:349] Biggest Memory of single blob: 552960000
I0123 08:15:27.613338    77 layer_factory.hpp:114] Creating layer conv_1/depthwise
I0123 08:15:27.613348    77 net.cpp:262] Creating Layer conv_1/depthwise
I0123 08:15:27.613350    77 net.cpp:1712] conv_1/depthwise <- conv_1/expand
I0123 08:15:27.613356    77 net.cpp:1686] conv_1/depthwise -> conv_1/depthwise
I0123 08:15:27.613384    77 net.cpp:331] Setting up conv_1/depthwise
I0123 08:15:27.613390    77 net.cpp:338] Top shape: 64 96 75 75 (34560000)
I0123 08:15:27.613394    77 net.cpp:347] Memory required for data: 2626560064
I0123 08:15:27.613397    77 net.cpp:349] Biggest Memory of single blob: 552960000
I0123 08:15:27.613407    77 layer_factory.hpp:114] Creating layer conv_1/depthwise/relu
I0123 08:15:27.613416    77 net.cpp:262] Creating Layer conv_1/depthwise/relu
I0123 08:15:27.613420    77 net.cpp:1712] conv_1/depthwise/relu <- conv_1/depthwise
I0123 08:15:27.613426    77 net.cpp:1673] conv_1/depthwise/relu -> conv_1/depthwise (in-place)
I0123 08:15:27.613433    77 net.cpp:331] Setting up conv_1/depthwise/relu
I0123 08:15:27.613440    77 net.cpp:338] Top shape: 64 96 75 75 (34560000)
I0123 08:15:27.613443    77 net.cpp:347] Memory required for data: 2764800064
I0123 08:15:27.613447    77 net.cpp:349] Biggest Memory of single blob: 552960000
I0123 08:15:27.613451    77 layer_factory.hpp:114] Creating layer conv_1/project
I0123 08:15:27.613461    77 net.cpp:262] Creating Layer conv_1/project
I0123 08:15:27.613464    77 net.cpp:1712] conv_1/project <- conv_1/depthwise
I0123 08:15:27.613471    77 net.cpp:1686] conv_1/project -> conv_1/project
I0123 08:15:27.613519    77 net.cpp:331] Setting up conv_1/project
I0123 08:15:27.613539    77 net.cpp:338] Top shape: 64 24 75 75 (8640000)
I0123 08:15:27.613543    77 net.cpp:347] Memory required for data: 2799360064
I0123 08:15:27.613546    77 net.cpp:349] Biggest Memory of single blob: 552960000
I0123 08:15:27.613554    77 layer_factory.hpp:114] Creating layer conv_1/project_conv_1/project_0_split
I0123 08:15:27.613565    77 net.cpp:262] Creating Layer conv_1/project_conv_1/project_0_split
I0123 08:15:27.613570    77 net.cpp:1712] conv_1/project_conv_1/project_0_split <- conv_1/project
I0123 08:15:27.613577    77 net.cpp:1686] conv_1/project_conv_1/project_0_split -> conv_1/project_conv_1/project_0_split_0
I0123 08:15:27.613584    77 net.cpp:1686] conv_1/project_conv_1/project_0_split -> conv_1/project_conv_1/project_0_split_1
I0123 08:15:27.613593    77 net.cpp:331] Setting up conv_1/project_conv_1/project_0_split
I0123 08:15:27.613598    77 net.cpp:338] Top shape: 64 24 75 75 (8640000)
I0123 08:15:27.613603    77 net.cpp:338] Top shape: 64 24 75 75 (8640000)
I0123 08:15:27.613608    77 net.cpp:347] Memory required for data: 2868480064
I0123 08:15:27.613612    77 net.cpp:349] Biggest Memory of single blob: 552960000
I0123 08:15:27.613615    77 layer_factory.hpp:114] Creating layer conv_2/expand
I0123 08:15:27.613624    77 net.cpp:262] Creating Layer conv_2/expand
I0123 08:15:27.613631    77 net.cpp:1712] conv_2/expand <- conv_1/project_conv_1/project_0_split_0
I0123 08:15:27.613639    77 net.cpp:1686] conv_2/expand -> conv_2/expand
I0123 08:15:27.613685    77 net.cpp:331] Setting up conv_2/expand
I0123 08:15:27.613693    77 net.cpp:338] Top shape: 64 144 75 75 (51840000)
I0123 08:15:27.613698    77 net.cpp:347] Memory required for data: 3075840064
I0123 08:15:27.613701    77 net.cpp:349] Biggest Memory of single blob: 552960000
I0123 08:15:27.613711    77 layer_factory.hpp:114] Creating layer conv_2/expand/relu
I0123 08:15:27.613719    77 net.cpp:262] Creating Layer conv_2/expand/relu
I0123 08:15:27.613723    77 net.cpp:1712] conv_2/expand/relu <- conv_2/expand
I0123 08:15:27.613732    77 net.cpp:1673] conv_2/expand/relu -> conv_2/expand (in-place)
I0123 08:15:27.613740    77 net.cpp:331] Setting up conv_2/expand/relu
I0123 08:15:27.613745    77 net.cpp:338] Top shape: 64 144 75 75 (51840000)
I0123 08:15:27.613750    77 net.cpp:347] Memory required for data: 3283200064
I0123 08:15:27.613754    77 net.cpp:349] Biggest Memory of single blob: 552960000
I0123 08:15:27.613759    77 layer_factory.hpp:114] Creating layer conv_2/depthwise
I0123 08:15:27.613767    77 net.cpp:262] Creating Layer conv_2/depthwise
I0123 08:15:27.613772    77 net.cpp:1712] conv_2/depthwise <- conv_2/expand
I0123 08:15:27.613780    77 net.cpp:1686] conv_2/depthwise -> conv_2/depthwise
I0123 08:15:27.613822    77 net.cpp:331] Setting up conv_2/depthwise
I0123 08:15:27.613831    77 net.cpp:338] Top shape: 64 144 75 75 (51840000)
I0123 08:15:27.613834    77 net.cpp:347] Memory required for data: 3490560064
I0123 08:15:27.613837    77 net.cpp:349] Biggest Memory of single blob: 552960000
I0123 08:15:27.613844    77 layer_factory.hpp:114] Creating layer conv_2/depthwise/relu
I0123 08:15:27.613852    77 net.cpp:262] Creating Layer conv_2/depthwise/relu
I0123 08:15:27.613857    77 net.cpp:1712] conv_2/depthwise/relu <- conv_2/depthwise
I0123 08:15:27.613862    77 net.cpp:1673] conv_2/depthwise/relu -> conv_2/depthwise (in-place)
I0123 08:15:27.613869    77 net.cpp:331] Setting up conv_2/depthwise/relu
I0123 08:15:27.613876    77 net.cpp:338] Top shape: 64 144 75 75 (51840000)
I0123 08:15:27.613880    77 net.cpp:347] Memory required for data: 3697920064
I0123 08:15:27.613884    77 net.cpp:349] Biggest Memory of single blob: 552960000
I0123 08:15:27.613888    77 layer_factory.hpp:114] Creating layer conv_2/project
I0123 08:15:27.613898    77 net.cpp:262] Creating Layer conv_2/project
I0123 08:15:27.613901    77 net.cpp:1712] conv_2/project <- conv_2/depthwise
I0123 08:15:27.613907    77 net.cpp:1686] conv_2/project -> conv_2/project
I0123 08:15:27.613961    77 net.cpp:331] Setting up conv_2/project
I0123 08:15:27.613970    77 net.cpp:338] Top shape: 64 24 75 75 (8640000)
I0123 08:15:27.613982    77 net.cpp:347] Memory required for data: 3732480064
I0123 08:15:27.613987    77 net.cpp:349] Biggest Memory of single blob: 552960000
I0123 08:15:27.613997    77 layer_factory.hpp:114] Creating layer conv_2/sum
I0123 08:15:27.614006    77 net.cpp:262] Creating Layer conv_2/sum
I0123 08:15:27.614009    77 net.cpp:1712] conv_2/sum <- conv_1/project_conv_1/project_0_split_1
I0123 08:15:27.614015    77 net.cpp:1712] conv_2/sum <- conv_2/project
I0123 08:15:27.614022    77 net.cpp:1686] conv_2/sum -> conv_2
I0123 08:15:27.614029    77 net.cpp:331] Setting up conv_2/sum
I0123 08:15:27.614037    77 net.cpp:338] Top shape: 64 24 75 75 (8640000)
I0123 08:15:27.614040    77 net.cpp:347] Memory required for data: 3767040064
I0123 08:15:27.614044    77 net.cpp:349] Biggest Memory of single blob: 552960000
I0123 08:15:27.614049    77 layer_factory.hpp:114] Creating layer conv_3/expand
I0123 08:15:27.614060    77 net.cpp:262] Creating Layer conv_3/expand
I0123 08:15:27.614065    77 net.cpp:1712] conv_3/expand <- conv_2
I0123 08:15:27.614073    77 net.cpp:1686] conv_3/expand -> conv_3/expand
I0123 08:15:27.614130    77 net.cpp:331] Setting up conv_3/expand
I0123 08:15:27.614137    77 net.cpp:338] Top shape: 64 144 75 75 (51840000)
I0123 08:15:27.614141    77 net.cpp:347] Memory required for data: 3974400064
I0123 08:15:27.614145    77 net.cpp:349] Biggest Memory of single blob: 552960000
I0123 08:15:27.614151    77 layer_factory.hpp:114] Creating layer conv_3/expand/relu
I0123 08:15:27.614161    77 net.cpp:262] Creating Layer conv_3/expand/relu
I0123 08:15:27.614166    77 net.cpp:1712] conv_3/expand/relu <- conv_3/expand
I0123 08:15:27.614171    77 net.cpp:1673] conv_3/expand/relu -> conv_3/expand (in-place)
I0123 08:15:27.614177    77 net.cpp:331] Setting up conv_3/expand/relu
I0123 08:15:27.614183    77 net.cpp:338] Top shape: 64 144 75 75 (51840000)
I0123 08:15:27.614187    77 net.cpp:347] Memory required for data: 4181760064
I0123 08:15:27.614192    77 net.cpp:349] Biggest Memory of single blob: 552960000
I0123 08:15:27.614197    77 layer_factory.hpp:114] Creating layer conv_3/depthwise
I0123 08:15:27.614207    77 net.cpp:262] Creating Layer conv_3/depthwise
I0123 08:15:27.614212    77 net.cpp:1712] conv_3/depthwise <- conv_3/expand
I0123 08:15:27.614218    77 net.cpp:1686] conv_3/depthwise -> conv_3/depthwise
I0123 08:15:27.614251    77 net.cpp:331] Setting up conv_3/depthwise
I0123 08:15:27.614257    77 net.cpp:338] Top shape: 64 144 38 38 (13307904)
I0123 08:15:27.614262    77 net.cpp:347] Memory required for data: 4234991680
I0123 08:15:27.614266    77 net.cpp:349] Biggest Memory of single blob: 552960000
I0123 08:15:27.614272    77 layer_factory.hpp:114] Creating layer conv_3/depthwise/relu
I0123 08:15:27.614279    77 net.cpp:262] Creating Layer conv_3/depthwise/relu
I0123 08:15:27.614282    77 net.cpp:1712] conv_3/depthwise/relu <- conv_3/depthwise
I0123 08:15:27.614289    77 net.cpp:1673] conv_3/depthwise/relu -> conv_3/depthwise (in-place)
I0123 08:15:27.614295    77 net.cpp:331] Setting up conv_3/depthwise/relu
I0123 08:15:27.614300    77 net.cpp:338] Top shape: 64 144 38 38 (13307904)
I0123 08:15:27.614305    77 net.cpp:347] Memory required for data: 4288223296
I0123 08:15:27.614308    77 net.cpp:349] Biggest Memory of single blob: 552960000
I0123 08:15:27.614312    77 layer_factory.hpp:114] Creating layer conv_3/project
I0123 08:15:27.614321    77 net.cpp:262] Creating Layer conv_3/project
I0123 08:15:27.614326    77 net.cpp:1712] conv_3/project <- conv_3/depthwise
I0123 08:15:27.614332    77 net.cpp:1686] conv_3/project -> conv_3/project
I0123 08:15:27.614387    77 net.cpp:331] Setting up conv_3/project
I0123 08:15:27.614392    77 net.cpp:338] Top shape: 64 32 38 38 (2957312)
I0123 08:15:27.614398    77 net.cpp:347] Memory required for data: 4300052544
I0123 08:15:27.614401    77 net.cpp:349] Biggest Memory of single blob: 552960000
I0123 08:15:27.614406    77 layer_factory.hpp:114] Creating layer conv_3/project_conv_3/project_0_split
I0123 08:15:27.614421    77 net.cpp:262] Creating Layer conv_3/project_conv_3/project_0_split
I0123 08:15:27.614428    77 net.cpp:1712] conv_3/project_conv_3/project_0_split <- conv_3/project
I0123 08:15:27.614434    77 net.cpp:1686] conv_3/project_conv_3/project_0_split -> conv_3/project_conv_3/project_0_split_0
I0123 08:15:27.614441    77 net.cpp:1686] conv_3/project_conv_3/project_0_split -> conv_3/project_conv_3/project_0_split_1
I0123 08:15:27.614449    77 net.cpp:331] Setting up conv_3/project_conv_3/project_0_split
I0123 08:15:27.614455    77 net.cpp:338] Top shape: 64 32 38 38 (2957312)
I0123 08:15:27.614460    77 net.cpp:338] Top shape: 64 32 38 38 (2957312)
I0123 08:15:27.614464    77 net.cpp:347] Memory required for data: 4323711040
I0123 08:15:27.614470    77 net.cpp:349] Biggest Memory of single blob: 552960000
I0123 08:15:27.614473    77 layer_factory.hpp:114] Creating layer conv_4/expand
I0123 08:15:27.614483    77 net.cpp:262] Creating Layer conv_4/expand
I0123 08:15:27.614488    77 net.cpp:1712] conv_4/expand <- conv_3/project_conv_3/project_0_split_0
I0123 08:15:27.614496    77 net.cpp:1686] conv_4/expand -> conv_4/expand
I0123 08:15:27.614565    77 net.cpp:331] Setting up conv_4/expand
I0123 08:15:27.614573    77 net.cpp:338] Top shape: 64 192 38 38 (17743872)
I0123 08:15:27.614575    77 net.cpp:347] Memory required for data: 4394686528
I0123 08:15:27.614579    77 net.cpp:349] Biggest Memory of single blob: 552960000
I0123 08:15:27.614585    77 layer_factory.hpp:114] Creating layer conv_4/expand/relu
I0123 08:15:27.614593    77 net.cpp:262] Creating Layer conv_4/expand/relu
I0123 08:15:27.614598    77 net.cpp:1712] conv_4/expand/relu <- conv_4/expand
I0123 08:15:27.614605    77 net.cpp:1673] conv_4/expand/relu -> conv_4/expand (in-place)
I0123 08:15:27.614611    77 net.cpp:331] Setting up conv_4/expand/relu
I0123 08:15:27.614617    77 net.cpp:338] Top shape: 64 192 38 38 (17743872)
I0123 08:15:27.614621    77 net.cpp:347] Memory required for data: 4465662016
I0123 08:15:27.614625    77 net.cpp:349] Biggest Memory of single blob: 552960000
I0123 08:15:27.614629    77 layer_factory.hpp:114] Creating layer conv_4/depthwise
I0123 08:15:27.614639    77 net.cpp:262] Creating Layer conv_4/depthwise
I0123 08:15:27.614643    77 net.cpp:1712] conv_4/depthwise <- conv_4/expand
I0123 08:15:27.614650    77 net.cpp:1686] conv_4/depthwise -> conv_4/depthwise
I0123 08:15:27.614686    77 net.cpp:331] Setting up conv_4/depthwise
I0123 08:15:27.614692    77 net.cpp:338] Top shape: 64 192 38 38 (17743872)
I0123 08:15:27.614696    77 net.cpp:347] Memory required for data: 4536637504
I0123 08:15:27.614699    77 net.cpp:349] Biggest Memory of single blob: 552960000
I0123 08:15:27.614704    77 layer_factory.hpp:114] Creating layer conv_4/depthwise/relu
I0123 08:15:27.614709    77 net.cpp:262] Creating Layer conv_4/depthwise/relu
I0123 08:15:27.614715    77 net.cpp:1712] conv_4/depthwise/relu <- conv_4/depthwise
I0123 08:15:27.614722    77 net.cpp:1673] conv_4/depthwise/relu -> conv_4/depthwise (in-place)
I0123 08:15:27.614728    77 net.cpp:331] Setting up conv_4/depthwise/relu
I0123 08:15:27.614734    77 net.cpp:338] Top shape: 64 192 38 38 (17743872)
I0123 08:15:27.614738    77 net.cpp:347] Memory required for data: 4607612992
I0123 08:15:27.614743    77 net.cpp:349] Biggest Memory of single blob: 552960000
I0123 08:15:27.614748    77 layer_factory.hpp:114] Creating layer conv_4/project
I0123 08:15:27.614760    77 net.cpp:262] Creating Layer conv_4/project
I0123 08:15:27.614764    77 net.cpp:1712] conv_4/project <- conv_4/depthwise
I0123 08:15:27.614770    77 net.cpp:1686] conv_4/project -> conv_4/project
I0123 08:15:27.614835    77 net.cpp:331] Setting up conv_4/project
I0123 08:15:27.614842    77 net.cpp:338] Top shape: 64 32 38 38 (2957312)
I0123 08:15:27.614846    77 net.cpp:347] Memory required for data: 4619442240
I0123 08:15:27.614850    77 net.cpp:349] Biggest Memory of single blob: 552960000
I0123 08:15:27.614856    77 layer_factory.hpp:114] Creating layer conv_4/sum
I0123 08:15:27.614863    77 net.cpp:262] Creating Layer conv_4/sum
I0123 08:15:27.614876    77 net.cpp:1712] conv_4/sum <- conv_3/project_conv_3/project_0_split_1
I0123 08:15:27.614881    77 net.cpp:1712] conv_4/sum <- conv_4/project
I0123 08:15:27.614888    77 net.cpp:1686] conv_4/sum -> conv_4
I0123 08:15:27.614895    77 net.cpp:331] Setting up conv_4/sum
I0123 08:15:27.614902    77 net.cpp:338] Top shape: 64 32 38 38 (2957312)
I0123 08:15:27.614907    77 net.cpp:347] Memory required for data: 4631271488
I0123 08:15:27.614912    77 net.cpp:349] Biggest Memory of single blob: 552960000
I0123 08:15:27.614915    77 layer_factory.hpp:114] Creating layer conv_4_conv_4/sum_0_split
I0123 08:15:27.614923    77 net.cpp:262] Creating Layer conv_4_conv_4/sum_0_split
I0123 08:15:27.614928    77 net.cpp:1712] conv_4_conv_4/sum_0_split <- conv_4
I0123 08:15:27.614934    77 net.cpp:1686] conv_4_conv_4/sum_0_split -> conv_4_conv_4/sum_0_split_0
I0123 08:15:27.614940    77 net.cpp:1686] conv_4_conv_4/sum_0_split -> conv_4_conv_4/sum_0_split_1
I0123 08:15:27.614948    77 net.cpp:331] Setting up conv_4_conv_4/sum_0_split
I0123 08:15:27.614953    77 net.cpp:338] Top shape: 64 32 38 38 (2957312)
I0123 08:15:27.614959    77 net.cpp:338] Top shape: 64 32 38 38 (2957312)
I0123 08:15:27.614962    77 net.cpp:347] Memory required for data: 4654929984
I0123 08:15:27.614966    77 net.cpp:349] Biggest Memory of single blob: 552960000
I0123 08:15:27.614970    77 layer_factory.hpp:114] Creating layer conv_5/expand
I0123 08:15:27.614984    77 net.cpp:262] Creating Layer conv_5/expand
I0123 08:15:27.614991    77 net.cpp:1712] conv_5/expand <- conv_4_conv_4/sum_0_split_0
I0123 08:15:27.615001    77 net.cpp:1686] conv_5/expand -> conv_5/expand
I0123 08:15:27.615082    77 net.cpp:331] Setting up conv_5/expand
I0123 08:15:27.615092    77 net.cpp:338] Top shape: 64 192 38 38 (17743872)
I0123 08:15:27.615094    77 net.cpp:347] Memory required for data: 4725905472
I0123 08:15:27.615098    77 net.cpp:349] Biggest Memory of single blob: 552960000
I0123 08:15:27.615103    77 layer_factory.hpp:114] Creating layer conv_5/expand/relu
I0123 08:15:27.615113    77 net.cpp:262] Creating Layer conv_5/expand/relu
I0123 08:15:27.615118    77 net.cpp:1712] conv_5/expand/relu <- conv_5/expand
I0123 08:15:27.615128    77 net.cpp:1673] conv_5/expand/relu -> conv_5/expand (in-place)
I0123 08:15:27.615139    77 net.cpp:331] Setting up conv_5/expand/relu
I0123 08:15:27.615150    77 net.cpp:338] Top shape: 64 192 38 38 (17743872)
I0123 08:15:27.615155    77 net.cpp:347] Memory required for data: 4796880960
I0123 08:15:27.615159    77 net.cpp:349] Biggest Memory of single blob: 552960000
I0123 08:15:27.615162    77 layer_factory.hpp:114] Creating layer conv_5/depthwise
I0123 08:15:27.615178    77 net.cpp:262] Creating Layer conv_5/depthwise
I0123 08:15:27.615187    77 net.cpp:1712] conv_5/depthwise <- conv_5/expand
I0123 08:15:27.615195    77 net.cpp:1686] conv_5/depthwise -> conv_5/depthwise
I0123 08:15:27.615232    77 net.cpp:331] Setting up conv_5/depthwise
I0123 08:15:27.615243    77 net.cpp:338] Top shape: 64 192 38 38 (17743872)
I0123 08:15:27.615252    77 net.cpp:347] Memory required for data: 4867856448
I0123 08:15:27.615258    77 net.cpp:349] Biggest Memory of single blob: 552960000
I0123 08:15:27.615268    77 layer_factory.hpp:114] Creating layer conv_5/depthwise/relu
I0123 08:15:27.615276    77 net.cpp:262] Creating Layer conv_5/depthwise/relu
I0123 08:15:27.615280    77 net.cpp:1712] conv_5/depthwise/relu <- conv_5/depthwise
I0123 08:15:27.615285    77 net.cpp:1673] conv_5/depthwise/relu -> conv_5/depthwise (in-place)
I0123 08:15:27.615293    77 net.cpp:331] Setting up conv_5/depthwise/relu
I0123 08:15:27.615300    77 net.cpp:338] Top shape: 64 192 38 38 (17743872)
I0123 08:15:27.615307    77 net.cpp:347] Memory required for data: 4938831936
I0123 08:15:27.615312    77 net.cpp:349] Biggest Memory of single blob: 552960000
I0123 08:15:27.615317    77 layer_factory.hpp:114] Creating layer conv_5/project
I0123 08:15:27.615326    77 net.cpp:262] Creating Layer conv_5/project
I0123 08:15:27.615330    77 net.cpp:1712] conv_5/project <- conv_5/depthwise
I0123 08:15:27.615345    77 net.cpp:1686] conv_5/project -> conv_5/project
I0123 08:15:27.615423    77 net.cpp:331] Setting up conv_5/project
I0123 08:15:27.615430    77 net.cpp:338] Top shape: 64 32 38 38 (2957312)
I0123 08:15:27.615435    77 net.cpp:347] Memory required for data: 4950661184
I0123 08:15:27.615439    77 net.cpp:349] Biggest Memory of single blob: 552960000
I0123 08:15:27.615449    77 layer_factory.hpp:114] Creating layer conv_5/sum
I0123 08:15:27.615458    77 net.cpp:262] Creating Layer conv_5/sum
I0123 08:15:27.615463    77 net.cpp:1712] conv_5/sum <- conv_4_conv_4/sum_0_split_1
I0123 08:15:27.615468    77 net.cpp:1712] conv_5/sum <- conv_5/project
I0123 08:15:27.615476    77 net.cpp:1686] conv_5/sum -> conv_5
I0123 08:15:27.615484    77 net.cpp:331] Setting up conv_5/sum
I0123 08:15:27.615489    77 net.cpp:338] Top shape: 64 32 38 38 (2957312)
I0123 08:15:27.615494    77 net.cpp:347] Memory required for data: 4962490432
I0123 08:15:27.615499    77 net.cpp:349] Biggest Memory of single blob: 552960000
I0123 08:15:27.615504    77 layer_factory.hpp:114] Creating layer conv_6/expand
I0123 08:15:27.615514    77 net.cpp:262] Creating Layer conv_6/expand
I0123 08:15:27.615521    77 net.cpp:1712] conv_6/expand <- conv_5
I0123 08:15:27.615530    77 net.cpp:1686] conv_6/expand -> conv_6/expand
I0123 08:15:27.615604    77 net.cpp:331] Setting up conv_6/expand
I0123 08:15:27.615612    77 net.cpp:338] Top shape: 64 192 38 38 (17743872)
I0123 08:15:27.615615    77 net.cpp:347] Memory required for data: 5033465920
I0123 08:15:27.615618    77 net.cpp:349] Biggest Memory of single blob: 552960000
I0123 08:15:27.615625    77 layer_factory.hpp:114] Creating layer conv_6/expand/relu
I0123 08:15:27.615631    77 net.cpp:262] Creating Layer conv_6/expand/relu
I0123 08:15:27.615634    77 net.cpp:1712] conv_6/expand/relu <- conv_6/expand
I0123 08:15:27.615640    77 net.cpp:1673] conv_6/expand/relu -> conv_6/expand (in-place)
I0123 08:15:27.615648    77 net.cpp:331] Setting up conv_6/expand/relu
I0123 08:15:27.615653    77 net.cpp:338] Top shape: 64 192 38 38 (17743872)
I0123 08:15:27.615658    77 net.cpp:347] Memory required for data: 5104441408
I0123 08:15:27.615661    77 net.cpp:349] Biggest Memory of single blob: 552960000
I0123 08:15:27.615669    77 layer_factory.hpp:114] Creating layer conv_6/depthwise
I0123 08:15:27.615684    77 net.cpp:262] Creating Layer conv_6/depthwise
I0123 08:15:27.615691    77 net.cpp:1712] conv_6/depthwise <- conv_6/expand
I0123 08:15:27.615700    77 net.cpp:1686] conv_6/depthwise -> conv_6/depthwise
I0123 08:15:27.615733    77 net.cpp:331] Setting up conv_6/depthwise
I0123 08:15:27.615743    77 net.cpp:338] Top shape: 64 192 19 19 (4435968)
I0123 08:15:27.615748    77 net.cpp:347] Memory required for data: 5122185280
I0123 08:15:27.615752    77 net.cpp:349] Biggest Memory of single blob: 552960000
I0123 08:15:27.615757    77 layer_factory.hpp:114] Creating layer conv_6/depthwise/relu
I0123 08:15:27.615764    77 net.cpp:262] Creating Layer conv_6/depthwise/relu
I0123 08:15:27.615770    77 net.cpp:1712] conv_6/depthwise/relu <- conv_6/depthwise
I0123 08:15:27.615775    77 net.cpp:1673] conv_6/depthwise/relu -> conv_6/depthwise (in-place)
I0123 08:15:27.615782    77 net.cpp:331] Setting up conv_6/depthwise/relu
I0123 08:15:27.615787    77 net.cpp:338] Top shape: 64 192 19 19 (4435968)
I0123 08:15:27.615792    77 net.cpp:347] Memory required for data: 5139929152
I0123 08:15:27.615795    77 net.cpp:349] Biggest Memory of single blob: 552960000
I0123 08:15:27.615799    77 layer_factory.hpp:114] Creating layer conv_6/project
I0123 08:15:27.615808    77 net.cpp:262] Creating Layer conv_6/project
I0123 08:15:27.615813    77 net.cpp:1712] conv_6/project <- conv_6/depthwise
I0123 08:15:27.615818    77 net.cpp:1686] conv_6/project -> conv_6/project
I0123 08:15:27.615942    77 net.cpp:331] Setting up conv_6/project
I0123 08:15:27.615949    77 net.cpp:338] Top shape: 64 64 19 19 (1478656)
I0123 08:15:27.615954    77 net.cpp:347] Memory required for data: 5145843776
I0123 08:15:27.615958    77 net.cpp:349] Biggest Memory of single blob: 552960000
I0123 08:15:27.615972    77 layer_factory.hpp:114] Creating layer conv_6/project_conv_6/project_0_split
I0123 08:15:27.615981    77 net.cpp:262] Creating Layer conv_6/project_conv_6/project_0_split
I0123 08:15:27.615986    77 net.cpp:1712] conv_6/project_conv_6/project_0_split <- conv_6/project
I0123 08:15:27.615993    77 net.cpp:1686] conv_6/project_conv_6/project_0_split -> conv_6/project_conv_6/project_0_split_0
I0123 08:15:27.616000    77 net.cpp:1686] conv_6/project_conv_6/project_0_split -> conv_6/project_conv_6/project_0_split_1
I0123 08:15:27.616008    77 net.cpp:331] Setting up conv_6/project_conv_6/project_0_split
I0123 08:15:27.616014    77 net.cpp:338] Top shape: 64 64 19 19 (1478656)
I0123 08:15:27.616019    77 net.cpp:338] Top shape: 64 64 19 19 (1478656)
I0123 08:15:27.616024    77 net.cpp:347] Memory required for data: 5157673024
I0123 08:15:27.616027    77 net.cpp:349] Biggest Memory of single blob: 552960000
I0123 08:15:27.616031    77 layer_factory.hpp:114] Creating layer conv_7/expand
I0123 08:15:27.616044    77 net.cpp:262] Creating Layer conv_7/expand
I0123 08:15:27.616051    77 net.cpp:1712] conv_7/expand <- conv_6/project_conv_6/project_0_split_0
I0123 08:15:27.616062    77 net.cpp:1686] conv_7/expand -> conv_7/expand
I0123 08:15:27.616293    77 net.cpp:331] Setting up conv_7/expand
I0123 08:15:27.616300    77 net.cpp:338] Top shape: 64 384 19 19 (8871936)
I0123 08:15:27.616305    77 net.cpp:347] Memory required for data: 5193160768
I0123 08:15:27.616309    77 net.cpp:349] Biggest Memory of single blob: 552960000
I0123 08:15:27.616315    77 layer_factory.hpp:114] Creating layer conv_7/expand/relu
I0123 08:15:27.616323    77 net.cpp:262] Creating Layer conv_7/expand/relu
I0123 08:15:27.616328    77 net.cpp:1712] conv_7/expand/relu <- conv_7/expand
I0123 08:15:27.616333    77 net.cpp:1673] conv_7/expand/relu -> conv_7/expand (in-place)
I0123 08:15:27.616340    77 net.cpp:331] Setting up conv_7/expand/relu
I0123 08:15:27.616345    77 net.cpp:338] Top shape: 64 384 19 19 (8871936)
I0123 08:15:27.616349    77 net.cpp:347] Memory required for data: 5228648512
I0123 08:15:27.616353    77 net.cpp:349] Biggest Memory of single blob: 552960000
I0123 08:15:27.616358    77 layer_factory.hpp:114] Creating layer conv_7/depthwise
I0123 08:15:27.616369    77 net.cpp:262] Creating Layer conv_7/depthwise
I0123 08:15:27.616375    77 net.cpp:1712] conv_7/depthwise <- conv_7/expand
I0123 08:15:27.616387    77 net.cpp:1686] conv_7/depthwise -> conv_7/depthwise
I0123 08:15:27.616446    77 net.cpp:331] Setting up conv_7/depthwise
I0123 08:15:27.616454    77 net.cpp:338] Top shape: 64 384 19 19 (8871936)
I0123 08:15:27.616461    77 net.cpp:347] Memory required for data: 5264136256
I0123 08:15:27.616464    77 net.cpp:349] Biggest Memory of single blob: 552960000
I0123 08:15:27.616470    77 layer_factory.hpp:114] Creating layer conv_7/depthwise/relu
I0123 08:15:27.616477    77 net.cpp:262] Creating Layer conv_7/depthwise/relu
I0123 08:15:27.616483    77 net.cpp:1712] conv_7/depthwise/relu <- conv_7/depthwise
I0123 08:15:27.616488    77 net.cpp:1673] conv_7/depthwise/relu -> conv_7/depthwise (in-place)
I0123 08:15:27.616495    77 net.cpp:331] Setting up conv_7/depthwise/relu
I0123 08:15:27.616501    77 net.cpp:338] Top shape: 64 384 19 19 (8871936)
I0123 08:15:27.616504    77 net.cpp:347] Memory required for data: 5299624000
I0123 08:15:27.616508    77 net.cpp:349] Biggest Memory of single blob: 552960000
I0123 08:15:27.616510    77 layer_factory.hpp:114] Creating layer conv_7/project
I0123 08:15:27.616518    77 net.cpp:262] Creating Layer conv_7/project
I0123 08:15:27.616523    77 net.cpp:1712] conv_7/project <- conv_7/depthwise
I0123 08:15:27.616530    77 net.cpp:1686] conv_7/project -> conv_7/project
I0123 08:15:27.616766    77 net.cpp:331] Setting up conv_7/project
I0123 08:15:27.616775    77 net.cpp:338] Top shape: 64 64 19 19 (1478656)
I0123 08:15:27.616780    77 net.cpp:347] Memory required for data: 5305538624
I0123 08:15:27.616783    77 net.cpp:349] Biggest Memory of single blob: 552960000
I0123 08:15:27.616796    77 layer_factory.hpp:114] Creating layer conv_7/sum
I0123 08:15:27.616804    77 net.cpp:262] Creating Layer conv_7/sum
I0123 08:15:27.616809    77 net.cpp:1712] conv_7/sum <- conv_6/project_conv_6/project_0_split_1
I0123 08:15:27.616816    77 net.cpp:1712] conv_7/sum <- conv_7/project
I0123 08:15:27.616822    77 net.cpp:1686] conv_7/sum -> conv_7
I0123 08:15:27.616828    77 net.cpp:331] Setting up conv_7/sum
I0123 08:15:27.616834    77 net.cpp:338] Top shape: 64 64 19 19 (1478656)
I0123 08:15:27.616838    77 net.cpp:347] Memory required for data: 5311453248
I0123 08:15:27.616843    77 net.cpp:349] Biggest Memory of single blob: 552960000
I0123 08:15:27.616848    77 layer_factory.hpp:114] Creating layer conv_7_conv_7/sum_0_split
I0123 08:15:27.616858    77 net.cpp:262] Creating Layer conv_7_conv_7/sum_0_split
I0123 08:15:27.616865    77 net.cpp:1712] conv_7_conv_7/sum_0_split <- conv_7
I0123 08:15:27.616874    77 net.cpp:1686] conv_7_conv_7/sum_0_split -> conv_7_conv_7/sum_0_split_0
I0123 08:15:27.616885    77 net.cpp:1686] conv_7_conv_7/sum_0_split -> conv_7_conv_7/sum_0_split_1
I0123 08:15:27.616897    77 net.cpp:331] Setting up conv_7_conv_7/sum_0_split
I0123 08:15:27.616904    77 net.cpp:338] Top shape: 64 64 19 19 (1478656)
I0123 08:15:27.616907    77 net.cpp:338] Top shape: 64 64 19 19 (1478656)
I0123 08:15:27.616911    77 net.cpp:347] Memory required for data: 5323282496
I0123 08:15:27.616916    77 net.cpp:349] Biggest Memory of single blob: 552960000
I0123 08:15:27.616920    77 layer_factory.hpp:114] Creating layer conv_8/expand
I0123 08:15:27.616932    77 net.cpp:262] Creating Layer conv_8/expand
I0123 08:15:27.616938    77 net.cpp:1712] conv_8/expand <- conv_7_conv_7/sum_0_split_0
I0123 08:15:27.616946    77 net.cpp:1686] conv_8/expand -> conv_8/expand
I0123 08:15:27.617184    77 net.cpp:331] Setting up conv_8/expand
I0123 08:15:27.617193    77 net.cpp:338] Top shape: 64 384 19 19 (8871936)
I0123 08:15:27.617198    77 net.cpp:347] Memory required for data: 5358770240
I0123 08:15:27.617202    77 net.cpp:349] Biggest Memory of single blob: 552960000
I0123 08:15:27.617209    77 layer_factory.hpp:114] Creating layer conv_8/expand/relu
I0123 08:15:27.617218    77 net.cpp:262] Creating Layer conv_8/expand/relu
I0123 08:15:27.617223    77 net.cpp:1712] conv_8/expand/relu <- conv_8/expand
I0123 08:15:27.617229    77 net.cpp:1673] conv_8/expand/relu -> conv_8/expand (in-place)
I0123 08:15:27.617236    77 net.cpp:331] Setting up conv_8/expand/relu
I0123 08:15:27.617241    77 net.cpp:338] Top shape: 64 384 19 19 (8871936)
I0123 08:15:27.617246    77 net.cpp:347] Memory required for data: 5394257984
I0123 08:15:27.617250    77 net.cpp:349] Biggest Memory of single blob: 552960000
I0123 08:15:27.617254    77 layer_factory.hpp:114] Creating layer conv_8/depthwise
I0123 08:15:27.617264    77 net.cpp:262] Creating Layer conv_8/depthwise
I0123 08:15:27.617269    77 net.cpp:1712] conv_8/depthwise <- conv_8/expand
I0123 08:15:27.617282    77 net.cpp:1686] conv_8/depthwise -> conv_8/depthwise
I0123 08:15:27.617350    77 net.cpp:331] Setting up conv_8/depthwise
I0123 08:15:27.617359    77 net.cpp:338] Top shape: 64 384 19 19 (8871936)
I0123 08:15:27.617364    77 net.cpp:347] Memory required for data: 5429745728
I0123 08:15:27.617368    77 net.cpp:349] Biggest Memory of single blob: 552960000
I0123 08:15:27.617375    77 layer_factory.hpp:114] Creating layer conv_8/depthwise/relu
I0123 08:15:27.617383    77 net.cpp:262] Creating Layer conv_8/depthwise/relu
I0123 08:15:27.617388    77 net.cpp:1712] conv_8/depthwise/relu <- conv_8/depthwise
I0123 08:15:27.617394    77 net.cpp:1673] conv_8/depthwise/relu -> conv_8/depthwise (in-place)
I0123 08:15:27.617401    77 net.cpp:331] Setting up conv_8/depthwise/relu
I0123 08:15:27.617408    77 net.cpp:338] Top shape: 64 384 19 19 (8871936)
I0123 08:15:27.617411    77 net.cpp:347] Memory required for data: 5465233472
I0123 08:15:27.617415    77 net.cpp:349] Biggest Memory of single blob: 552960000
I0123 08:15:27.617420    77 layer_factory.hpp:114] Creating layer conv_8/project
I0123 08:15:27.617435    77 net.cpp:262] Creating Layer conv_8/project
I0123 08:15:27.617440    77 net.cpp:1712] conv_8/project <- conv_8/depthwise
I0123 08:15:27.617450    77 net.cpp:1686] conv_8/project -> conv_8/project
I0123 08:15:27.617699    77 net.cpp:331] Setting up conv_8/project
I0123 08:15:27.617709    77 net.cpp:338] Top shape: 64 64 19 19 (1478656)
I0123 08:15:27.617713    77 net.cpp:347] Memory required for data: 5471148096
I0123 08:15:27.617717    77 net.cpp:349] Biggest Memory of single blob: 552960000
I0123 08:15:27.617724    77 layer_factory.hpp:114] Creating layer conv_8/sum
I0123 08:15:27.617733    77 net.cpp:262] Creating Layer conv_8/sum
I0123 08:15:27.617738    77 net.cpp:1712] conv_8/sum <- conv_7_conv_7/sum_0_split_1
I0123 08:15:27.617743    77 net.cpp:1712] conv_8/sum <- conv_8/project
I0123 08:15:27.617749    77 net.cpp:1686] conv_8/sum -> conv_8
I0123 08:15:27.617758    77 net.cpp:331] Setting up conv_8/sum
I0123 08:15:27.617764    77 net.cpp:338] Top shape: 64 64 19 19 (1478656)
I0123 08:15:27.617769    77 net.cpp:347] Memory required for data: 5477062720
I0123 08:15:27.617774    77 net.cpp:349] Biggest Memory of single blob: 552960000
I0123 08:15:27.617779    77 layer_factory.hpp:114] Creating layer conv_8_conv_8/sum_0_split
I0123 08:15:27.617789    77 net.cpp:262] Creating Layer conv_8_conv_8/sum_0_split
I0123 08:15:27.617794    77 net.cpp:1712] conv_8_conv_8/sum_0_split <- conv_8
I0123 08:15:27.617802    77 net.cpp:1686] conv_8_conv_8/sum_0_split -> conv_8_conv_8/sum_0_split_0
I0123 08:15:27.617810    77 net.cpp:1686] conv_8_conv_8/sum_0_split -> conv_8_conv_8/sum_0_split_1
I0123 08:15:27.617816    77 net.cpp:331] Setting up conv_8_conv_8/sum_0_split
I0123 08:15:27.617825    77 net.cpp:338] Top shape: 64 64 19 19 (1478656)
I0123 08:15:27.617833    77 net.cpp:338] Top shape: 64 64 19 19 (1478656)
I0123 08:15:27.617841    77 net.cpp:347] Memory required for data: 5488891968
I0123 08:15:27.617846    77 net.cpp:349] Biggest Memory of single blob: 552960000
I0123 08:15:27.617853    77 layer_factory.hpp:114] Creating layer conv_9/expand
I0123 08:15:27.617863    77 net.cpp:262] Creating Layer conv_9/expand
I0123 08:15:27.617868    77 net.cpp:1712] conv_9/expand <- conv_8_conv_8/sum_0_split_0
I0123 08:15:27.617878    77 net.cpp:1686] conv_9/expand -> conv_9/expand
I0123 08:15:27.618122    77 net.cpp:331] Setting up conv_9/expand
I0123 08:15:27.618132    77 net.cpp:338] Top shape: 64 384 19 19 (8871936)
I0123 08:15:27.618137    77 net.cpp:347] Memory required for data: 5524379712
I0123 08:15:27.618142    77 net.cpp:349] Biggest Memory of single blob: 552960000
I0123 08:15:27.618149    77 layer_factory.hpp:114] Creating layer conv_9/expand/relu
I0123 08:15:27.618156    77 net.cpp:262] Creating Layer conv_9/expand/relu
I0123 08:15:27.618161    77 net.cpp:1712] conv_9/expand/relu <- conv_9/expand
I0123 08:15:27.618168    77 net.cpp:1673] conv_9/expand/relu -> conv_9/expand (in-place)
I0123 08:15:27.618176    77 net.cpp:331] Setting up conv_9/expand/relu
I0123 08:15:27.618181    77 net.cpp:338] Top shape: 64 384 19 19 (8871936)
I0123 08:15:27.618188    77 net.cpp:347] Memory required for data: 5559867456
I0123 08:15:27.618194    77 net.cpp:349] Biggest Memory of single blob: 552960000
I0123 08:15:27.618201    77 layer_factory.hpp:114] Creating layer conv_9/depthwise
I0123 08:15:27.618217    77 net.cpp:262] Creating Layer conv_9/depthwise
I0123 08:15:27.618225    77 net.cpp:1712] conv_9/depthwise <- conv_9/expand
I0123 08:15:27.618233    77 net.cpp:1686] conv_9/depthwise -> conv_9/depthwise
I0123 08:15:27.618294    77 net.cpp:331] Setting up conv_9/depthwise
I0123 08:15:27.618301    77 net.cpp:338] Top shape: 64 384 19 19 (8871936)
I0123 08:15:27.618305    77 net.cpp:347] Memory required for data: 5595355200
I0123 08:15:27.618310    77 net.cpp:349] Biggest Memory of single blob: 552960000
I0123 08:15:27.618317    77 layer_factory.hpp:114] Creating layer conv_9/depthwise/relu
I0123 08:15:27.618324    77 net.cpp:262] Creating Layer conv_9/depthwise/relu
I0123 08:15:27.618340    77 net.cpp:1712] conv_9/depthwise/relu <- conv_9/depthwise
I0123 08:15:27.618351    77 net.cpp:1673] conv_9/depthwise/relu -> conv_9/depthwise (in-place)
I0123 08:15:27.618360    77 net.cpp:331] Setting up conv_9/depthwise/relu
I0123 08:15:27.618364    77 net.cpp:338] Top shape: 64 384 19 19 (8871936)
I0123 08:15:27.618367    77 net.cpp:347] Memory required for data: 5630842944
I0123 08:15:27.618371    77 net.cpp:349] Biggest Memory of single blob: 552960000
I0123 08:15:27.618376    77 layer_factory.hpp:114] Creating layer conv_9/project
I0123 08:15:27.618384    77 net.cpp:262] Creating Layer conv_9/project
I0123 08:15:27.618388    77 net.cpp:1712] conv_9/project <- conv_9/depthwise
I0123 08:15:27.618396    77 net.cpp:1686] conv_9/project -> conv_9/project
I0123 08:15:27.618633    77 net.cpp:331] Setting up conv_9/project
I0123 08:15:27.618641    77 net.cpp:338] Top shape: 64 64 19 19 (1478656)
I0123 08:15:27.618647    77 net.cpp:347] Memory required for data: 5636757568
I0123 08:15:27.618651    77 net.cpp:349] Biggest Memory of single blob: 552960000
I0123 08:15:27.618659    77 layer_factory.hpp:114] Creating layer conv_9/sum
I0123 08:15:27.618667    77 net.cpp:262] Creating Layer conv_9/sum
I0123 08:15:27.618671    77 net.cpp:1712] conv_9/sum <- conv_8_conv_8/sum_0_split_1
I0123 08:15:27.618678    77 net.cpp:1712] conv_9/sum <- conv_9/project
I0123 08:15:27.618685    77 net.cpp:1686] conv_9/sum -> conv_9
I0123 08:15:27.618693    77 net.cpp:331] Setting up conv_9/sum
I0123 08:15:27.618698    77 net.cpp:338] Top shape: 64 64 19 19 (1478656)
I0123 08:15:27.618702    77 net.cpp:347] Memory required for data: 5642672192
I0123 08:15:27.618706    77 net.cpp:349] Biggest Memory of single blob: 552960000
I0123 08:15:27.618711    77 layer_factory.hpp:114] Creating layer conv_10/expand
I0123 08:15:27.618724    77 net.cpp:262] Creating Layer conv_10/expand
I0123 08:15:27.618729    77 net.cpp:1712] conv_10/expand <- conv_9
I0123 08:15:27.618737    77 net.cpp:1686] conv_10/expand -> conv_10/expand
I0123 08:15:27.618988    77 net.cpp:331] Setting up conv_10/expand
I0123 08:15:27.619000    77 net.cpp:338] Top shape: 64 384 19 19 (8871936)
I0123 08:15:27.619005    77 net.cpp:347] Memory required for data: 5678159936
I0123 08:15:27.619010    77 net.cpp:349] Biggest Memory of single blob: 552960000
I0123 08:15:27.619016    77 layer_factory.hpp:114] Creating layer conv_10/expand/relu
I0123 08:15:27.619024    77 net.cpp:262] Creating Layer conv_10/expand/relu
I0123 08:15:27.619032    77 net.cpp:1712] conv_10/expand/relu <- conv_10/expand
I0123 08:15:27.619050    77 net.cpp:1673] conv_10/expand/relu -> conv_10/expand (in-place)
I0123 08:15:27.619061    77 net.cpp:331] Setting up conv_10/expand/relu
I0123 08:15:27.619067    77 net.cpp:338] Top shape: 64 384 19 19 (8871936)
I0123 08:15:27.619071    77 net.cpp:347] Memory required for data: 5713647680
I0123 08:15:27.619074    77 net.cpp:349] Biggest Memory of single blob: 552960000
I0123 08:15:27.619078    77 layer_factory.hpp:114] Creating layer conv_10/depthwise
I0123 08:15:27.619091    77 net.cpp:262] Creating Layer conv_10/depthwise
I0123 08:15:27.619098    77 net.cpp:1712] conv_10/depthwise <- conv_10/expand
I0123 08:15:27.619112    77 net.cpp:1686] conv_10/depthwise -> conv_10/depthwise
I0123 08:15:27.619175    77 net.cpp:331] Setting up conv_10/depthwise
I0123 08:15:27.619186    77 net.cpp:338] Top shape: 64 384 19 19 (8871936)
I0123 08:15:27.619191    77 net.cpp:347] Memory required for data: 5749135424
I0123 08:15:27.619194    77 net.cpp:349] Biggest Memory of single blob: 552960000
I0123 08:15:27.619200    77 layer_factory.hpp:114] Creating layer conv_10/depthwise/relu
I0123 08:15:27.619206    77 net.cpp:262] Creating Layer conv_10/depthwise/relu
I0123 08:15:27.619211    77 net.cpp:1712] conv_10/depthwise/relu <- conv_10/depthwise
I0123 08:15:27.619220    77 net.cpp:1673] conv_10/depthwise/relu -> conv_10/depthwise (in-place)
I0123 08:15:27.619227    77 net.cpp:331] Setting up conv_10/depthwise/relu
I0123 08:15:27.619232    77 net.cpp:338] Top shape: 64 384 19 19 (8871936)
I0123 08:15:27.619246    77 net.cpp:347] Memory required for data: 5784623168
I0123 08:15:27.619248    77 net.cpp:349] Biggest Memory of single blob: 552960000
I0123 08:15:27.619254    77 layer_factory.hpp:114] Creating layer conv_10/project
I0123 08:15:27.619262    77 net.cpp:262] Creating Layer conv_10/project
I0123 08:15:27.619267    77 net.cpp:1712] conv_10/project <- conv_10/depthwise
I0123 08:15:27.619274    77 net.cpp:1686] conv_10/project -> conv_10/project
I0123 08:15:27.619613    77 net.cpp:331] Setting up conv_10/project
I0123 08:15:27.619621    77 net.cpp:338] Top shape: 64 96 19 19 (2217984)
I0123 08:15:27.619626    77 net.cpp:347] Memory required for data: 5793495104
I0123 08:15:27.619630    77 net.cpp:349] Biggest Memory of single blob: 552960000
I0123 08:15:27.619642    77 layer_factory.hpp:114] Creating layer conv_10/project_conv_10/project_0_split
I0123 08:15:27.619649    77 net.cpp:262] Creating Layer conv_10/project_conv_10/project_0_split
I0123 08:15:27.619654    77 net.cpp:1712] conv_10/project_conv_10/project_0_split <- conv_10/project
I0123 08:15:27.619661    77 net.cpp:1686] conv_10/project_conv_10/project_0_split -> conv_10/project_conv_10/project_0_split_0
I0123 08:15:27.619668    77 net.cpp:1686] conv_10/project_conv_10/project_0_split -> conv_10/project_conv_10/project_0_split_1
I0123 08:15:27.619678    77 net.cpp:331] Setting up conv_10/project_conv_10/project_0_split
I0123 08:15:27.619686    77 net.cpp:338] Top shape: 64 96 19 19 (2217984)
I0123 08:15:27.619696    77 net.cpp:338] Top shape: 64 96 19 19 (2217984)
I0123 08:15:27.619704    77 net.cpp:347] Memory required for data: 5811238976
I0123 08:15:27.619709    77 net.cpp:349] Biggest Memory of single blob: 552960000
I0123 08:15:27.619714    77 layer_factory.hpp:114] Creating layer conv_11/expand
I0123 08:15:27.619724    77 net.cpp:262] Creating Layer conv_11/expand
I0123 08:15:27.619732    77 net.cpp:1712] conv_11/expand <- conv_10/project_conv_10/project_0_split_0
I0123 08:15:27.619745    77 net.cpp:1686] conv_11/expand -> conv_11/expand
I0123 08:15:27.620260    77 net.cpp:331] Setting up conv_11/expand
I0123 08:15:27.620270    77 net.cpp:338] Top shape: 64 576 19 19 (13307904)
I0123 08:15:27.620275    77 net.cpp:347] Memory required for data: 5864470592
I0123 08:15:27.620280    77 net.cpp:349] Biggest Memory of single blob: 552960000
I0123 08:15:27.620286    77 layer_factory.hpp:114] Creating layer conv_11/expand/relu
I0123 08:15:27.620294    77 net.cpp:262] Creating Layer conv_11/expand/relu
I0123 08:15:27.620301    77 net.cpp:1712] conv_11/expand/relu <- conv_11/expand
I0123 08:15:27.620311    77 net.cpp:1673] conv_11/expand/relu -> conv_11/expand (in-place)
I0123 08:15:27.620321    77 net.cpp:331] Setting up conv_11/expand/relu
I0123 08:15:27.620330    77 net.cpp:338] Top shape: 64 576 19 19 (13307904)
I0123 08:15:27.620335    77 net.cpp:347] Memory required for data: 5917702208
I0123 08:15:27.620339    77 net.cpp:349] Biggest Memory of single blob: 552960000
I0123 08:15:27.620343    77 layer_factory.hpp:114] Creating layer conv_11/depthwise
I0123 08:15:27.620357    77 net.cpp:262] Creating Layer conv_11/depthwise
I0123 08:15:27.620363    77 net.cpp:1712] conv_11/depthwise <- conv_11/expand
I0123 08:15:27.620374    77 net.cpp:1686] conv_11/depthwise -> conv_11/depthwise
I0123 08:15:27.620462    77 net.cpp:331] Setting up conv_11/depthwise
I0123 08:15:27.620473    77 net.cpp:338] Top shape: 64 576 19 19 (13307904)
I0123 08:15:27.620481    77 net.cpp:347] Memory required for data: 5970933824
I0123 08:15:27.620486    77 net.cpp:349] Biggest Memory of single blob: 552960000
I0123 08:15:27.620496    77 layer_factory.hpp:114] Creating layer conv_11/depthwise/relu
I0123 08:15:27.620507    77 net.cpp:262] Creating Layer conv_11/depthwise/relu
I0123 08:15:27.620515    77 net.cpp:1712] conv_11/depthwise/relu <- conv_11/depthwise
I0123 08:15:27.620525    77 net.cpp:1673] conv_11/depthwise/relu -> conv_11/depthwise (in-place)
I0123 08:15:27.620537    77 net.cpp:331] Setting up conv_11/depthwise/relu
I0123 08:15:27.620546    77 net.cpp:338] Top shape: 64 576 19 19 (13307904)
I0123 08:15:27.620563    77 net.cpp:347] Memory required for data: 6024165440
I0123 08:15:27.620568    77 net.cpp:349] Biggest Memory of single blob: 552960000
I0123 08:15:27.620573    77 layer_factory.hpp:114] Creating layer conv_11/project
I0123 08:15:27.620584    77 net.cpp:262] Creating Layer conv_11/project
I0123 08:15:27.620589    77 net.cpp:1712] conv_11/project <- conv_11/depthwise
I0123 08:15:27.620596    77 net.cpp:1686] conv_11/project -> conv_11/project
I0123 08:15:27.621100    77 net.cpp:331] Setting up conv_11/project
I0123 08:15:27.621111    77 net.cpp:338] Top shape: 64 96 19 19 (2217984)
I0123 08:15:27.621116    77 net.cpp:347] Memory required for data: 6033037376
I0123 08:15:27.621122    77 net.cpp:349] Biggest Memory of single blob: 552960000
I0123 08:15:27.621132    77 layer_factory.hpp:114] Creating layer conv_11/sum
I0123 08:15:27.621145    77 net.cpp:262] Creating Layer conv_11/sum
I0123 08:15:27.621152    77 net.cpp:1712] conv_11/sum <- conv_10/project_conv_10/project_0_split_1
I0123 08:15:27.621163    77 net.cpp:1712] conv_11/sum <- conv_11/project
I0123 08:15:27.621176    77 net.cpp:1686] conv_11/sum -> conv_11
I0123 08:15:27.621189    77 net.cpp:331] Setting up conv_11/sum
I0123 08:15:27.621196    77 net.cpp:338] Top shape: 64 96 19 19 (2217984)
I0123 08:15:27.621201    77 net.cpp:347] Memory required for data: 6041909312
I0123 08:15:27.621206    77 net.cpp:349] Biggest Memory of single blob: 552960000
I0123 08:15:27.621214    77 layer_factory.hpp:114] Creating layer conv_11_conv_11/sum_0_split
I0123 08:15:27.621227    77 net.cpp:262] Creating Layer conv_11_conv_11/sum_0_split
I0123 08:15:27.621235    77 net.cpp:1712] conv_11_conv_11/sum_0_split <- conv_11
I0123 08:15:27.621243    77 net.cpp:1686] conv_11_conv_11/sum_0_split -> conv_11_conv_11/sum_0_split_0
I0123 08:15:27.621251    77 net.cpp:1686] conv_11_conv_11/sum_0_split -> conv_11_conv_11/sum_0_split_1
I0123 08:15:27.621264    77 net.cpp:331] Setting up conv_11_conv_11/sum_0_split
I0123 08:15:27.621274    77 net.cpp:338] Top shape: 64 96 19 19 (2217984)
I0123 08:15:27.621281    77 net.cpp:338] Top shape: 64 96 19 19 (2217984)
I0123 08:15:27.621286    77 net.cpp:347] Memory required for data: 6059653184
I0123 08:15:27.621290    77 net.cpp:349] Biggest Memory of single blob: 552960000
I0123 08:15:27.621294    77 layer_factory.hpp:114] Creating layer conv_12/expand
I0123 08:15:27.621304    77 net.cpp:262] Creating Layer conv_12/expand
I0123 08:15:27.621309    77 net.cpp:1712] conv_12/expand <- conv_11_conv_11/sum_0_split_0
I0123 08:15:27.621316    77 net.cpp:1686] conv_12/expand -> conv_12/expand
I0123 08:15:27.621834    77 net.cpp:331] Setting up conv_12/expand
I0123 08:15:27.621842    77 net.cpp:338] Top shape: 64 576 19 19 (13307904)
I0123 08:15:27.621847    77 net.cpp:347] Memory required for data: 6112884800
I0123 08:15:27.621851    77 net.cpp:349] Biggest Memory of single blob: 552960000
I0123 08:15:27.621858    77 layer_factory.hpp:114] Creating layer conv_12/expand/relu
I0123 08:15:27.621867    77 net.cpp:262] Creating Layer conv_12/expand/relu
I0123 08:15:27.621871    77 net.cpp:1712] conv_12/expand/relu <- conv_12/expand
I0123 08:15:27.621878    77 net.cpp:1673] conv_12/expand/relu -> conv_12/expand (in-place)
I0123 08:15:27.621886    77 net.cpp:331] Setting up conv_12/expand/relu
I0123 08:15:27.621891    77 net.cpp:338] Top shape: 64 576 19 19 (13307904)
I0123 08:15:27.621896    77 net.cpp:347] Memory required for data: 6166116416
I0123 08:15:27.621898    77 net.cpp:349] Biggest Memory of single blob: 552960000
I0123 08:15:27.621902    77 layer_factory.hpp:114] Creating layer conv_12/depthwise
I0123 08:15:27.621912    77 net.cpp:262] Creating Layer conv_12/depthwise
I0123 08:15:27.621917    77 net.cpp:1712] conv_12/depthwise <- conv_12/expand
I0123 08:15:27.621927    77 net.cpp:1686] conv_12/depthwise -> conv_12/depthwise
I0123 08:15:27.622004    77 net.cpp:331] Setting up conv_12/depthwise
I0123 08:15:27.622014    77 net.cpp:338] Top shape: 64 576 19 19 (13307904)
I0123 08:15:27.622018    77 net.cpp:347] Memory required for data: 6219348032
I0123 08:15:27.622031    77 net.cpp:349] Biggest Memory of single blob: 552960000
I0123 08:15:27.622040    77 layer_factory.hpp:114] Creating layer conv_12/depthwise/relu
I0123 08:15:27.622049    77 net.cpp:262] Creating Layer conv_12/depthwise/relu
I0123 08:15:27.622056    77 net.cpp:1712] conv_12/depthwise/relu <- conv_12/depthwise
I0123 08:15:27.622064    77 net.cpp:1673] conv_12/depthwise/relu -> conv_12/depthwise (in-place)
I0123 08:15:27.622074    77 net.cpp:331] Setting up conv_12/depthwise/relu
I0123 08:15:27.622084    77 net.cpp:338] Top shape: 64 576 19 19 (13307904)
I0123 08:15:27.622092    77 net.cpp:347] Memory required for data: 6272579648
I0123 08:15:27.622095    77 net.cpp:349] Biggest Memory of single blob: 552960000
I0123 08:15:27.622099    77 layer_factory.hpp:114] Creating layer conv_12/project
I0123 08:15:27.622112    77 net.cpp:262] Creating Layer conv_12/project
I0123 08:15:27.622118    77 net.cpp:1712] conv_12/project <- conv_12/depthwise
I0123 08:15:27.622128    77 net.cpp:1686] conv_12/project -> conv_12/project
I0123 08:15:27.622638    77 net.cpp:331] Setting up conv_12/project
I0123 08:15:27.622648    77 net.cpp:338] Top shape: 64 96 19 19 (2217984)
I0123 08:15:27.622653    77 net.cpp:347] Memory required for data: 6281451584
I0123 08:15:27.622658    77 net.cpp:349] Biggest Memory of single blob: 552960000
I0123 08:15:27.622664    77 layer_factory.hpp:114] Creating layer conv_12/sum
I0123 08:15:27.622673    77 net.cpp:262] Creating Layer conv_12/sum
I0123 08:15:27.622678    77 net.cpp:1712] conv_12/sum <- conv_11_conv_11/sum_0_split_1
I0123 08:15:27.622684    77 net.cpp:1712] conv_12/sum <- conv_12/project
I0123 08:15:27.622689    77 net.cpp:1686] conv_12/sum -> conv_12
I0123 08:15:27.622696    77 net.cpp:331] Setting up conv_12/sum
I0123 08:15:27.622702    77 net.cpp:338] Top shape: 64 96 19 19 (2217984)
I0123 08:15:27.622706    77 net.cpp:347] Memory required for data: 6290323520
I0123 08:15:27.622711    77 net.cpp:349] Biggest Memory of single blob: 552960000
I0123 08:15:27.622715    77 layer_factory.hpp:114] Creating layer conv_13/expand
I0123 08:15:27.622726    77 net.cpp:262] Creating Layer conv_13/expand
I0123 08:15:27.622731    77 net.cpp:1712] conv_13/expand <- conv_12
I0123 08:15:27.622740    77 net.cpp:1686] conv_13/expand -> conv_13/expand
I0123 08:15:27.623250    77 net.cpp:331] Setting up conv_13/expand
I0123 08:15:27.623260    77 net.cpp:338] Top shape: 64 576 19 19 (13307904)
I0123 08:15:27.623263    77 net.cpp:347] Memory required for data: 6343555136
I0123 08:15:27.623270    77 net.cpp:349] Biggest Memory of single blob: 552960000
I0123 08:15:27.623281    77 layer_factory.hpp:114] Creating layer conv_13/expand/relu
I0123 08:15:27.623291    77 net.cpp:262] Creating Layer conv_13/expand/relu
I0123 08:15:27.623296    77 net.cpp:1712] conv_13/expand/relu <- conv_13/expand
I0123 08:15:27.623303    77 net.cpp:1673] conv_13/expand/relu -> conv_13/expand (in-place)
I0123 08:15:27.623311    77 net.cpp:331] Setting up conv_13/expand/relu
I0123 08:15:27.623320    77 net.cpp:338] Top shape: 64 576 19 19 (13307904)
I0123 08:15:27.623327    77 net.cpp:347] Memory required for data: 6396786752
I0123 08:15:27.623332    77 net.cpp:349] Biggest Memory of single blob: 552960000
I0123 08:15:27.623339    77 layer_factory.hpp:114] Creating layer conv_13/expand_conv_13/expand/relu_0_split
I0123 08:15:27.623351    77 net.cpp:262] Creating Layer conv_13/expand_conv_13/expand/relu_0_split
I0123 08:15:27.623359    77 net.cpp:1712] conv_13/expand_conv_13/expand/relu_0_split <- conv_13/expand
I0123 08:15:27.623371    77 net.cpp:1686] conv_13/expand_conv_13/expand/relu_0_split -> conv_13/expand_conv_13/expand/relu_0_split_0
I0123 08:15:27.623379    77 net.cpp:1686] conv_13/expand_conv_13/expand/relu_0_split -> conv_13/expand_conv_13/expand/relu_0_split_1
I0123 08:15:27.623387    77 net.cpp:1686] conv_13/expand_conv_13/expand/relu_0_split -> conv_13/expand_conv_13/expand/relu_0_split_2
I0123 08:15:27.623396    77 net.cpp:1686] conv_13/expand_conv_13/expand/relu_0_split -> conv_13/expand_conv_13/expand/relu_0_split_3
I0123 08:15:27.623423    77 net.cpp:331] Setting up conv_13/expand_conv_13/expand/relu_0_split
I0123 08:15:27.623435    77 net.cpp:338] Top shape: 64 576 19 19 (13307904)
I0123 08:15:27.623443    77 net.cpp:338] Top shape: 64 576 19 19 (13307904)
I0123 08:15:27.623451    77 net.cpp:338] Top shape: 64 576 19 19 (13307904)
I0123 08:15:27.623461    77 net.cpp:338] Top shape: 64 576 19 19 (13307904)
I0123 08:15:27.623468    77 net.cpp:347] Memory required for data: 6609713216
I0123 08:15:27.623476    77 net.cpp:349] Biggest Memory of single blob: 552960000
I0123 08:15:27.623483    77 layer_factory.hpp:114] Creating layer conv_13/depthwise
I0123 08:15:27.623504    77 net.cpp:262] Creating Layer conv_13/depthwise
I0123 08:15:27.623514    77 net.cpp:1712] conv_13/depthwise <- conv_13/expand_conv_13/expand/relu_0_split_0
I0123 08:15:27.623528    77 net.cpp:1686] conv_13/depthwise -> conv_13/depthwise
I0123 08:15:27.623608    77 net.cpp:331] Setting up conv_13/depthwise
I0123 08:15:27.623616    77 net.cpp:338] Top shape: 64 576 10 10 (3686400)
I0123 08:15:27.623621    77 net.cpp:347] Memory required for data: 6624458816
I0123 08:15:27.623626    77 net.cpp:349] Biggest Memory of single blob: 552960000
I0123 08:15:27.623633    77 layer_factory.hpp:114] Creating layer conv_13/depthwise/relu
I0123 08:15:27.623644    77 net.cpp:262] Creating Layer conv_13/depthwise/relu
I0123 08:15:27.623651    77 net.cpp:1712] conv_13/depthwise/relu <- conv_13/depthwise
I0123 08:15:27.623659    77 net.cpp:1673] conv_13/depthwise/relu -> conv_13/depthwise (in-place)
I0123 08:15:27.623667    77 net.cpp:331] Setting up conv_13/depthwise/relu
I0123 08:15:27.623673    77 net.cpp:338] Top shape: 64 576 10 10 (3686400)
I0123 08:15:27.623677    77 net.cpp:347] Memory required for data: 6639204416
I0123 08:15:27.623682    77 net.cpp:349] Biggest Memory of single blob: 552960000
I0123 08:15:27.623687    77 layer_factory.hpp:114] Creating layer conv_13/project
I0123 08:15:27.623697    77 net.cpp:262] Creating Layer conv_13/project
I0123 08:15:27.623705    77 net.cpp:1712] conv_13/project <- conv_13/depthwise
I0123 08:15:27.623713    77 net.cpp:1686] conv_13/project -> conv_13/project
I0123 08:15:27.624532    77 net.cpp:331] Setting up conv_13/project
I0123 08:15:27.624542    77 net.cpp:338] Top shape: 64 160 10 10 (1024000)
I0123 08:15:27.624547    77 net.cpp:347] Memory required for data: 6643300416
I0123 08:15:27.624552    77 net.cpp:349] Biggest Memory of single blob: 552960000
I0123 08:15:27.624560    77 layer_factory.hpp:114] Creating layer conv_13/project_conv_13/project_0_split
I0123 08:15:27.624574    77 net.cpp:262] Creating Layer conv_13/project_conv_13/project_0_split
I0123 08:15:27.624583    77 net.cpp:1712] conv_13/project_conv_13/project_0_split <- conv_13/project
I0123 08:15:27.624591    77 net.cpp:1686] conv_13/project_conv_13/project_0_split -> conv_13/project_conv_13/project_0_split_0
I0123 08:15:27.624600    77 net.cpp:1686] conv_13/project_conv_13/project_0_split -> conv_13/project_conv_13/project_0_split_1
I0123 08:15:27.624610    77 net.cpp:331] Setting up conv_13/project_conv_13/project_0_split
I0123 08:15:27.624619    77 net.cpp:338] Top shape: 64 160 10 10 (1024000)
I0123 08:15:27.624629    77 net.cpp:338] Top shape: 64 160 10 10 (1024000)
I0123 08:15:27.624635    77 net.cpp:347] Memory required for data: 6651492416
I0123 08:15:27.624642    77 net.cpp:349] Biggest Memory of single blob: 552960000
I0123 08:15:27.624650    77 layer_factory.hpp:114] Creating layer conv_14/expand
I0123 08:15:27.624667    77 net.cpp:262] Creating Layer conv_14/expand
I0123 08:15:27.624675    77 net.cpp:1712] conv_14/expand <- conv_13/project_conv_13/project_0_split_0
I0123 08:15:27.624681    77 net.cpp:1686] conv_14/expand -> conv_14/expand
I0123 08:15:27.626062    77 net.cpp:331] Setting up conv_14/expand
I0123 08:15:27.626075    77 net.cpp:338] Top shape: 64 960 10 10 (6144000)
I0123 08:15:27.626081    77 net.cpp:347] Memory required for data: 6676068416
I0123 08:15:27.626087    77 net.cpp:349] Biggest Memory of single blob: 552960000
I0123 08:15:27.626112    77 layer_factory.hpp:114] Creating layer conv_14/expand/relu
I0123 08:15:27.626128    77 net.cpp:262] Creating Layer conv_14/expand/relu
I0123 08:15:27.626138    77 net.cpp:1712] conv_14/expand/relu <- conv_14/expand
I0123 08:15:27.626147    77 net.cpp:1673] conv_14/expand/relu -> conv_14/expand (in-place)
I0123 08:15:27.626158    77 net.cpp:331] Setting up conv_14/expand/relu
I0123 08:15:27.626168    77 net.cpp:338] Top shape: 64 960 10 10 (6144000)
I0123 08:15:27.626175    77 net.cpp:347] Memory required for data: 6700644416
I0123 08:15:27.626181    77 net.cpp:349] Biggest Memory of single blob: 552960000
I0123 08:15:27.626189    77 layer_factory.hpp:114] Creating layer conv_14/depthwise
I0123 08:15:27.626209    77 net.cpp:262] Creating Layer conv_14/depthwise
I0123 08:15:27.626217    77 net.cpp:1712] conv_14/depthwise <- conv_14/expand
I0123 08:15:27.626230    77 net.cpp:1686] conv_14/depthwise -> conv_14/depthwise
I0123 08:15:27.626341    77 net.cpp:331] Setting up conv_14/depthwise
I0123 08:15:27.626350    77 net.cpp:338] Top shape: 64 960 10 10 (6144000)
I0123 08:15:27.626354    77 net.cpp:347] Memory required for data: 6725220416
I0123 08:15:27.626359    77 net.cpp:349] Biggest Memory of single blob: 552960000
I0123 08:15:27.626368    77 layer_factory.hpp:114] Creating layer conv_14/depthwise/relu
I0123 08:15:27.626382    77 net.cpp:262] Creating Layer conv_14/depthwise/relu
I0123 08:15:27.626390    77 net.cpp:1712] conv_14/depthwise/relu <- conv_14/depthwise
I0123 08:15:27.626399    77 net.cpp:1673] conv_14/depthwise/relu -> conv_14/depthwise (in-place)
I0123 08:15:27.626410    77 net.cpp:331] Setting up conv_14/depthwise/relu
I0123 08:15:27.626420    77 net.cpp:338] Top shape: 64 960 10 10 (6144000)
I0123 08:15:27.626426    77 net.cpp:347] Memory required for data: 6749796416
I0123 08:15:27.626432    77 net.cpp:349] Biggest Memory of single blob: 552960000
I0123 08:15:27.626439    77 layer_factory.hpp:114] Creating layer conv_14/project
I0123 08:15:27.626451    77 net.cpp:262] Creating Layer conv_14/project
I0123 08:15:27.626456    77 net.cpp:1712] conv_14/project <- conv_14/depthwise
I0123 08:15:27.626464    77 net.cpp:1686] conv_14/project -> conv_14/project
I0123 08:15:27.627815    77 net.cpp:331] Setting up conv_14/project
I0123 08:15:27.627825    77 net.cpp:338] Top shape: 64 160 10 10 (1024000)
I0123 08:15:27.627830    77 net.cpp:347] Memory required for data: 6753892416
I0123 08:15:27.627837    77 net.cpp:349] Biggest Memory of single blob: 552960000
I0123 08:15:27.627848    77 layer_factory.hpp:114] Creating layer conv_14/sum
I0123 08:15:27.627861    77 net.cpp:262] Creating Layer conv_14/sum
I0123 08:15:27.627868    77 net.cpp:1712] conv_14/sum <- conv_13/project_conv_13/project_0_split_1
I0123 08:15:27.627876    77 net.cpp:1712] conv_14/sum <- conv_14/project
I0123 08:15:27.627887    77 net.cpp:1686] conv_14/sum -> conv_14
I0123 08:15:27.627897    77 net.cpp:331] Setting up conv_14/sum
I0123 08:15:27.627904    77 net.cpp:338] Top shape: 64 160 10 10 (1024000)
I0123 08:15:27.627912    77 net.cpp:347] Memory required for data: 6757988416
I0123 08:15:27.627918    77 net.cpp:349] Biggest Memory of single blob: 552960000
I0123 08:15:27.627923    77 layer_factory.hpp:114] Creating layer conv_14_conv_14/sum_0_split
I0123 08:15:27.627933    77 net.cpp:262] Creating Layer conv_14_conv_14/sum_0_split
I0123 08:15:27.627938    77 net.cpp:1712] conv_14_conv_14/sum_0_split <- conv_14
I0123 08:15:27.627949    77 net.cpp:1686] conv_14_conv_14/sum_0_split -> conv_14_conv_14/sum_0_split_0
I0123 08:15:27.627960    77 net.cpp:1686] conv_14_conv_14/sum_0_split -> conv_14_conv_14/sum_0_split_1
I0123 08:15:27.627975    77 net.cpp:331] Setting up conv_14_conv_14/sum_0_split
I0123 08:15:27.627985    77 net.cpp:338] Top shape: 64 160 10 10 (1024000)
I0123 08:15:27.627995    77 net.cpp:338] Top shape: 64 160 10 10 (1024000)
I0123 08:15:27.628002    77 net.cpp:347] Memory required for data: 6766180416
I0123 08:15:27.628007    77 net.cpp:349] Biggest Memory of single blob: 552960000
I0123 08:15:27.628024    77 layer_factory.hpp:114] Creating layer conv_15/expand
I0123 08:15:27.628036    77 net.cpp:262] Creating Layer conv_15/expand
I0123 08:15:27.628041    77 net.cpp:1712] conv_15/expand <- conv_14_conv_14/sum_0_split_0
I0123 08:15:27.628049    77 net.cpp:1686] conv_15/expand -> conv_15/expand
I0123 08:15:27.629398    77 net.cpp:331] Setting up conv_15/expand
I0123 08:15:27.629408    77 net.cpp:338] Top shape: 64 960 10 10 (6144000)
I0123 08:15:27.629412    77 net.cpp:347] Memory required for data: 6790756416
I0123 08:15:27.629417    77 net.cpp:349] Biggest Memory of single blob: 552960000
I0123 08:15:27.629427    77 layer_factory.hpp:114] Creating layer conv_15/expand/relu
I0123 08:15:27.629444    77 net.cpp:262] Creating Layer conv_15/expand/relu
I0123 08:15:27.629452    77 net.cpp:1712] conv_15/expand/relu <- conv_15/expand
I0123 08:15:27.629458    77 net.cpp:1673] conv_15/expand/relu -> conv_15/expand (in-place)
I0123 08:15:27.629464    77 net.cpp:331] Setting up conv_15/expand/relu
I0123 08:15:27.629473    77 net.cpp:338] Top shape: 64 960 10 10 (6144000)
I0123 08:15:27.629482    77 net.cpp:347] Memory required for data: 6815332416
I0123 08:15:27.629488    77 net.cpp:349] Biggest Memory of single blob: 552960000
I0123 08:15:27.629495    77 layer_factory.hpp:114] Creating layer conv_15/depthwise
I0123 08:15:27.629520    77 net.cpp:262] Creating Layer conv_15/depthwise
I0123 08:15:27.629529    77 net.cpp:1712] conv_15/depthwise <- conv_15/expand
I0123 08:15:27.629540    77 net.cpp:1686] conv_15/depthwise -> conv_15/depthwise
I0123 08:15:27.629644    77 net.cpp:331] Setting up conv_15/depthwise
I0123 08:15:27.629655    77 net.cpp:338] Top shape: 64 960 10 10 (6144000)
I0123 08:15:27.629660    77 net.cpp:347] Memory required for data: 6839908416
I0123 08:15:27.629664    77 net.cpp:349] Biggest Memory of single blob: 552960000
I0123 08:15:27.629671    77 layer_factory.hpp:114] Creating layer conv_15/depthwise/relu
I0123 08:15:27.629683    77 net.cpp:262] Creating Layer conv_15/depthwise/relu
I0123 08:15:27.629689    77 net.cpp:1712] conv_15/depthwise/relu <- conv_15/depthwise
I0123 08:15:27.629699    77 net.cpp:1673] conv_15/depthwise/relu -> conv_15/depthwise (in-place)
I0123 08:15:27.629712    77 net.cpp:331] Setting up conv_15/depthwise/relu
I0123 08:15:27.629719    77 net.cpp:338] Top shape: 64 960 10 10 (6144000)
I0123 08:15:27.629724    77 net.cpp:347] Memory required for data: 6864484416
I0123 08:15:27.629729    77 net.cpp:349] Biggest Memory of single blob: 552960000
I0123 08:15:27.629753    77 layer_factory.hpp:114] Creating layer conv_15/project
I0123 08:15:27.629765    77 net.cpp:262] Creating Layer conv_15/project
I0123 08:15:27.629770    77 net.cpp:1712] conv_15/project <- conv_15/depthwise
I0123 08:15:27.629778    77 net.cpp:1686] conv_15/project -> conv_15/project
I0123 08:15:27.631126    77 net.cpp:331] Setting up conv_15/project
I0123 08:15:27.631137    77 net.cpp:338] Top shape: 64 160 10 10 (1024000)
I0123 08:15:27.631143    77 net.cpp:347] Memory required for data: 6868580416
I0123 08:15:27.631150    77 net.cpp:349] Biggest Memory of single blob: 552960000
I0123 08:15:27.631161    77 layer_factory.hpp:114] Creating layer conv_15/sum
I0123 08:15:27.631170    77 net.cpp:262] Creating Layer conv_15/sum
I0123 08:15:27.631178    77 net.cpp:1712] conv_15/sum <- conv_14_conv_14/sum_0_split_1
I0123 08:15:27.631188    77 net.cpp:1712] conv_15/sum <- conv_15/project
I0123 08:15:27.631196    77 net.cpp:1686] conv_15/sum -> conv_15
I0123 08:15:27.631206    77 net.cpp:331] Setting up conv_15/sum
I0123 08:15:27.631215    77 net.cpp:338] Top shape: 64 160 10 10 (1024000)
I0123 08:15:27.631222    77 net.cpp:347] Memory required for data: 6872676416
I0123 08:15:27.631230    77 net.cpp:349] Biggest Memory of single blob: 552960000
I0123 08:15:27.631237    77 layer_factory.hpp:114] Creating layer conv_16/expand
I0123 08:15:27.631253    77 net.cpp:262] Creating Layer conv_16/expand
I0123 08:15:27.631260    77 net.cpp:1712] conv_16/expand <- conv_15
I0123 08:15:27.631268    77 net.cpp:1686] conv_16/expand -> conv_16/expand
I0123 08:15:27.632620    77 net.cpp:331] Setting up conv_16/expand
I0123 08:15:27.632630    77 net.cpp:338] Top shape: 64 960 10 10 (6144000)
I0123 08:15:27.632637    77 net.cpp:347] Memory required for data: 6897252416
I0123 08:15:27.632642    77 net.cpp:349] Biggest Memory of single blob: 552960000
I0123 08:15:27.632652    77 layer_factory.hpp:114] Creating layer conv_16/expand/relu
I0123 08:15:27.632663    77 net.cpp:262] Creating Layer conv_16/expand/relu
I0123 08:15:27.632671    77 net.cpp:1712] conv_16/expand/relu <- conv_16/expand
I0123 08:15:27.632684    77 net.cpp:1673] conv_16/expand/relu -> conv_16/expand (in-place)
I0123 08:15:27.632696    77 net.cpp:331] Setting up conv_16/expand/relu
I0123 08:15:27.632705    77 net.cpp:338] Top shape: 64 960 10 10 (6144000)
I0123 08:15:27.632714    77 net.cpp:347] Memory required for data: 6921828416
I0123 08:15:27.632719    77 net.cpp:349] Biggest Memory of single blob: 552960000
I0123 08:15:27.632727    77 layer_factory.hpp:114] Creating layer conv_16/depthwise
I0123 08:15:27.632741    77 net.cpp:262] Creating Layer conv_16/depthwise
I0123 08:15:27.632747    77 net.cpp:1712] conv_16/depthwise <- conv_16/expand
I0123 08:15:27.632758    77 net.cpp:1686] conv_16/depthwise -> conv_16/depthwise
I0123 08:15:27.632867    77 net.cpp:331] Setting up conv_16/depthwise
I0123 08:15:27.632879    77 net.cpp:338] Top shape: 64 960 10 10 (6144000)
I0123 08:15:27.632884    77 net.cpp:347] Memory required for data: 6946404416
I0123 08:15:27.632889    77 net.cpp:349] Biggest Memory of single blob: 552960000
I0123 08:15:27.632894    77 layer_factory.hpp:114] Creating layer conv_16/depthwise/relu
I0123 08:15:27.632905    77 net.cpp:262] Creating Layer conv_16/depthwise/relu
I0123 08:15:27.632910    77 net.cpp:1712] conv_16/depthwise/relu <- conv_16/depthwise
I0123 08:15:27.632920    77 net.cpp:1673] conv_16/depthwise/relu -> conv_16/depthwise (in-place)
I0123 08:15:27.632928    77 net.cpp:331] Setting up conv_16/depthwise/relu
I0123 08:15:27.632933    77 net.cpp:338] Top shape: 64 960 10 10 (6144000)
I0123 08:15:27.632936    77 net.cpp:347] Memory required for data: 6970980416
I0123 08:15:27.632939    77 net.cpp:349] Biggest Memory of single blob: 552960000
I0123 08:15:27.632943    77 layer_factory.hpp:114] Creating layer conv_16/project
I0123 08:15:27.632953    77 net.cpp:262] Creating Layer conv_16/project
I0123 08:15:27.632958    77 net.cpp:1712] conv_16/project <- conv_16/depthwise
I0123 08:15:27.632964    77 net.cpp:1686] conv_16/project -> conv_16/project
I0123 08:15:27.635635    77 net.cpp:331] Setting up conv_16/project
I0123 08:15:27.635646    77 net.cpp:338] Top shape: 64 320 10 10 (2048000)
I0123 08:15:27.635653    77 net.cpp:347] Memory required for data: 6979172416
I0123 08:15:27.635659    77 net.cpp:349] Biggest Memory of single blob: 552960000
I0123 08:15:27.635670    77 layer_factory.hpp:114] Creating layer Conv_1
I0123 08:15:27.635686    77 net.cpp:262] Creating Layer Conv_1
I0123 08:15:27.635692    77 net.cpp:1712] Conv_1 <- conv_16/project
I0123 08:15:27.635701    77 net.cpp:1686] Conv_1 -> Conv_1
I0123 08:15:27.639256    77 net.cpp:331] Setting up Conv_1
I0123 08:15:27.639266    77 net.cpp:338] Top shape: 64 1280 10 10 (8192000)
I0123 08:15:27.639271    77 net.cpp:347] Memory required for data: 7011940416
I0123 08:15:27.639274    77 net.cpp:349] Biggest Memory of single blob: 552960000
I0123 08:15:27.639282    77 layer_factory.hpp:114] Creating layer Conv_1/relu
I0123 08:15:27.639293    77 net.cpp:262] Creating Layer Conv_1/relu
I0123 08:15:27.639300    77 net.cpp:1712] Conv_1/relu <- Conv_1
I0123 08:15:27.639309    77 net.cpp:1673] Conv_1/relu -> Conv_1 (in-place)
I0123 08:15:27.639320    77 net.cpp:331] Setting up Conv_1/relu
I0123 08:15:27.639328    77 net.cpp:338] Top shape: 64 1280 10 10 (8192000)
I0123 08:15:27.639333    77 net.cpp:347] Memory required for data: 7044708416
I0123 08:15:27.639338    77 net.cpp:349] Biggest Memory of single blob: 552960000
I0123 08:15:27.639343    77 layer_factory.hpp:114] Creating layer Conv_1_Conv_1/relu_0_split
I0123 08:15:27.639359    77 net.cpp:262] Creating Layer Conv_1_Conv_1/relu_0_split
I0123 08:15:27.639366    77 net.cpp:1712] Conv_1_Conv_1/relu_0_split <- Conv_1
I0123 08:15:27.639379    77 net.cpp:1686] Conv_1_Conv_1/relu_0_split -> Conv_1_Conv_1/relu_0_split_0
I0123 08:15:27.639387    77 net.cpp:1686] Conv_1_Conv_1/relu_0_split -> Conv_1_Conv_1/relu_0_split_1
I0123 08:15:27.639397    77 net.cpp:1686] Conv_1_Conv_1/relu_0_split -> Conv_1_Conv_1/relu_0_split_2
I0123 08:15:27.639407    77 net.cpp:1686] Conv_1_Conv_1/relu_0_split -> Conv_1_Conv_1/relu_0_split_3
I0123 08:15:27.639420    77 net.cpp:331] Setting up Conv_1_Conv_1/relu_0_split
I0123 08:15:27.639430    77 net.cpp:338] Top shape: 64 1280 10 10 (8192000)
I0123 08:15:27.639438    77 net.cpp:338] Top shape: 64 1280 10 10 (8192000)
I0123 08:15:27.639446    77 net.cpp:338] Top shape: 64 1280 10 10 (8192000)
I0123 08:15:27.639454    77 net.cpp:338] Top shape: 64 1280 10 10 (8192000)
I0123 08:15:27.639461    77 net.cpp:347] Memory required for data: 7175780416
I0123 08:15:27.639468    77 net.cpp:349] Biggest Memory of single blob: 552960000
I0123 08:15:27.639475    77 layer_factory.hpp:114] Creating layer layer_19_1_2
I0123 08:15:27.639493    77 net.cpp:262] Creating Layer layer_19_1_2
I0123 08:15:27.639501    77 net.cpp:1712] layer_19_1_2 <- Conv_1_Conv_1/relu_0_split_0
I0123 08:15:27.639513    77 net.cpp:1686] layer_19_1_2 -> layer_19_1_2
I0123 08:15:27.642357    77 net.cpp:331] Setting up layer_19_1_2
I0123 08:15:27.642369    77 net.cpp:338] Top shape: 64 256 10 10 (1638400)
I0123 08:15:27.642372    77 net.cpp:347] Memory required for data: 7182334016
I0123 08:15:27.642376    77 net.cpp:349] Biggest Memory of single blob: 552960000
I0123 08:15:27.642383    77 layer_factory.hpp:114] Creating layer layer_19_1_2/relu
I0123 08:15:27.642395    77 net.cpp:262] Creating Layer layer_19_1_2/relu
I0123 08:15:27.642402    77 net.cpp:1712] layer_19_1_2/relu <- layer_19_1_2
I0123 08:15:27.642413    77 net.cpp:1673] layer_19_1_2/relu -> layer_19_1_2 (in-place)
I0123 08:15:27.642426    77 net.cpp:331] Setting up layer_19_1_2/relu
I0123 08:15:27.642434    77 net.cpp:338] Top shape: 64 256 10 10 (1638400)
I0123 08:15:27.642441    77 net.cpp:347] Memory required for data: 7188887616
I0123 08:15:27.642443    77 net.cpp:349] Biggest Memory of single blob: 552960000
I0123 08:15:27.642449    77 layer_factory.hpp:114] Creating layer layer_19_2_2/depthwise
I0123 08:15:27.642467    77 net.cpp:262] Creating Layer layer_19_2_2/depthwise
I0123 08:15:27.642474    77 net.cpp:1712] layer_19_2_2/depthwise <- layer_19_1_2
I0123 08:15:27.642490    77 net.cpp:1686] layer_19_2_2/depthwise -> layer_19_2_2/depthwise
I0123 08:15:27.642546    77 net.cpp:331] Setting up layer_19_2_2/depthwise
I0123 08:15:27.642556    77 net.cpp:338] Top shape: 64 256 5 5 (409600)
I0123 08:15:27.642561    77 net.cpp:347] Memory required for data: 7190526016
I0123 08:15:27.642566    77 net.cpp:349] Biggest Memory of single blob: 552960000
I0123 08:15:27.642575    77 layer_factory.hpp:114] Creating layer layer_19_2_2/depthwise/relu
I0123 08:15:27.642585    77 net.cpp:262] Creating Layer layer_19_2_2/depthwise/relu
I0123 08:15:27.642590    77 net.cpp:1712] layer_19_2_2/depthwise/relu <- layer_19_2_2/depthwise
I0123 08:15:27.642601    77 net.cpp:1673] layer_19_2_2/depthwise/relu -> layer_19_2_2/depthwise (in-place)
I0123 08:15:27.642613    77 net.cpp:331] Setting up layer_19_2_2/depthwise/relu
I0123 08:15:27.642621    77 net.cpp:338] Top shape: 64 256 5 5 (409600)
I0123 08:15:27.642627    77 net.cpp:347] Memory required for data: 7192164416
I0123 08:15:27.642633    77 net.cpp:349] Biggest Memory of single blob: 552960000
I0123 08:15:27.642640    77 layer_factory.hpp:114] Creating layer layer_19_2_2
I0123 08:15:27.642654    77 net.cpp:262] Creating Layer layer_19_2_2
I0123 08:15:27.642659    77 net.cpp:1712] layer_19_2_2 <- layer_19_2_2/depthwise
I0123 08:15:27.642666    77 net.cpp:1686] layer_19_2_2 -> layer_19_2_2
I0123 08:15:27.643815    77 net.cpp:331] Setting up layer_19_2_2
I0123 08:15:27.643824    77 net.cpp:338] Top shape: 64 512 5 5 (819200)
I0123 08:15:27.643838    77 net.cpp:347] Memory required for data: 7195441216
I0123 08:15:27.643844    77 net.cpp:349] Biggest Memory of single blob: 552960000
I0123 08:15:27.643855    77 layer_factory.hpp:114] Creating layer layer_19_2_2/relu
I0123 08:15:27.643865    77 net.cpp:262] Creating Layer layer_19_2_2/relu
I0123 08:15:27.643872    77 net.cpp:1712] layer_19_2_2/relu <- layer_19_2_2
I0123 08:15:27.643883    77 net.cpp:1673] layer_19_2_2/relu -> layer_19_2_2 (in-place)
I0123 08:15:27.643894    77 net.cpp:331] Setting up layer_19_2_2/relu
I0123 08:15:27.643899    77 net.cpp:338] Top shape: 64 512 5 5 (819200)
I0123 08:15:27.643904    77 net.cpp:347] Memory required for data: 7198718016
I0123 08:15:27.643911    77 net.cpp:349] Biggest Memory of single blob: 552960000
I0123 08:15:27.643918    77 layer_factory.hpp:114] Creating layer layer_19_2_2_layer_19_2_2/relu_0_split
I0123 08:15:27.643929    77 net.cpp:262] Creating Layer layer_19_2_2_layer_19_2_2/relu_0_split
I0123 08:15:27.643937    77 net.cpp:1712] layer_19_2_2_layer_19_2_2/relu_0_split <- layer_19_2_2
I0123 08:15:27.643951    77 net.cpp:1686] layer_19_2_2_layer_19_2_2/relu_0_split -> layer_19_2_2_layer_19_2_2/relu_0_split_0
I0123 08:15:27.643961    77 net.cpp:1686] layer_19_2_2_layer_19_2_2/relu_0_split -> layer_19_2_2_layer_19_2_2/relu_0_split_1
I0123 08:15:27.643971    77 net.cpp:1686] layer_19_2_2_layer_19_2_2/relu_0_split -> layer_19_2_2_layer_19_2_2/relu_0_split_2
I0123 08:15:27.643981    77 net.cpp:1686] layer_19_2_2_layer_19_2_2/relu_0_split -> layer_19_2_2_layer_19_2_2/relu_0_split_3
I0123 08:15:27.643993    77 net.cpp:331] Setting up layer_19_2_2_layer_19_2_2/relu_0_split
I0123 08:15:27.644001    77 net.cpp:338] Top shape: 64 512 5 5 (819200)
I0123 08:15:27.644011    77 net.cpp:338] Top shape: 64 512 5 5 (819200)
I0123 08:15:27.644019    77 net.cpp:338] Top shape: 64 512 5 5 (819200)
I0123 08:15:27.644027    77 net.cpp:338] Top shape: 64 512 5 5 (819200)
I0123 08:15:27.644035    77 net.cpp:347] Memory required for data: 7211825216
I0123 08:15:27.644040    77 net.cpp:349] Biggest Memory of single blob: 552960000
I0123 08:15:27.644048    77 layer_factory.hpp:114] Creating layer layer_19_1_3
I0123 08:15:27.644064    77 net.cpp:262] Creating Layer layer_19_1_3
I0123 08:15:27.644069    77 net.cpp:1712] layer_19_1_3 <- layer_19_2_2_layer_19_2_2/relu_0_split_0
I0123 08:15:27.644078    77 net.cpp:1686] layer_19_1_3 -> layer_19_1_3
I0123 08:15:27.644662    77 net.cpp:331] Setting up layer_19_1_3
I0123 08:15:27.644672    77 net.cpp:338] Top shape: 64 128 5 5 (204800)
I0123 08:15:27.644677    77 net.cpp:347] Memory required for data: 7212644416
I0123 08:15:27.644682    77 net.cpp:349] Biggest Memory of single blob: 552960000
I0123 08:15:27.644691    77 layer_factory.hpp:114] Creating layer layer_19_1_3/relu
I0123 08:15:27.644702    77 net.cpp:262] Creating Layer layer_19_1_3/relu
I0123 08:15:27.644709    77 net.cpp:1712] layer_19_1_3/relu <- layer_19_1_3
I0123 08:15:27.644719    77 net.cpp:1673] layer_19_1_3/relu -> layer_19_1_3 (in-place)
I0123 08:15:27.644727    77 net.cpp:331] Setting up layer_19_1_3/relu
I0123 08:15:27.644734    77 net.cpp:338] Top shape: 64 128 5 5 (204800)
I0123 08:15:27.644738    77 net.cpp:347] Memory required for data: 7213463616
I0123 08:15:27.644743    77 net.cpp:349] Biggest Memory of single blob: 552960000
I0123 08:15:27.644752    77 layer_factory.hpp:114] Creating layer layer_19_2_3/depthwise
I0123 08:15:27.644763    77 net.cpp:262] Creating Layer layer_19_2_3/depthwise
I0123 08:15:27.644767    77 net.cpp:1712] layer_19_2_3/depthwise <- layer_19_1_3
I0123 08:15:27.644775    77 net.cpp:1686] layer_19_2_3/depthwise -> layer_19_2_3/depthwise
I0123 08:15:27.644815    77 net.cpp:331] Setting up layer_19_2_3/depthwise
I0123 08:15:27.644824    77 net.cpp:338] Top shape: 64 128 3 3 (73728)
I0123 08:15:27.644829    77 net.cpp:347] Memory required for data: 7213758528
I0123 08:15:27.644834    77 net.cpp:349] Biggest Memory of single blob: 552960000
I0123 08:15:27.644842    77 layer_factory.hpp:114] Creating layer layer_19_2_3/depthwise/relu
I0123 08:15:27.644860    77 net.cpp:262] Creating Layer layer_19_2_3/depthwise/relu
I0123 08:15:27.644866    77 net.cpp:1712] layer_19_2_3/depthwise/relu <- layer_19_2_3/depthwise
I0123 08:15:27.644874    77 net.cpp:1673] layer_19_2_3/depthwise/relu -> layer_19_2_3/depthwise (in-place)
I0123 08:15:27.644884    77 net.cpp:331] Setting up layer_19_2_3/depthwise/relu
I0123 08:15:27.644889    77 net.cpp:338] Top shape: 64 128 3 3 (73728)
I0123 08:15:27.644893    77 net.cpp:347] Memory required for data: 7214053440
I0123 08:15:27.644897    77 net.cpp:349] Biggest Memory of single blob: 552960000
I0123 08:15:27.644902    77 layer_factory.hpp:114] Creating layer layer_19_2_3
I0123 08:15:27.644913    77 net.cpp:262] Creating Layer layer_19_2_3
I0123 08:15:27.644918    77 net.cpp:1712] layer_19_2_3 <- layer_19_2_3/depthwise
I0123 08:15:27.644924    77 net.cpp:1686] layer_19_2_3 -> layer_19_2_3
I0123 08:15:27.645223    77 net.cpp:331] Setting up layer_19_2_3
I0123 08:15:27.645231    77 net.cpp:338] Top shape: 64 256 3 3 (147456)
I0123 08:15:27.645236    77 net.cpp:347] Memory required for data: 7214643264
I0123 08:15:27.645239    77 net.cpp:349] Biggest Memory of single blob: 552960000
I0123 08:15:27.645247    77 layer_factory.hpp:114] Creating layer layer_19_2_3/relu
I0123 08:15:27.645259    77 net.cpp:262] Creating Layer layer_19_2_3/relu
I0123 08:15:27.645269    77 net.cpp:1712] layer_19_2_3/relu <- layer_19_2_3
I0123 08:15:27.645279    77 net.cpp:1673] layer_19_2_3/relu -> layer_19_2_3 (in-place)
I0123 08:15:27.645288    77 net.cpp:331] Setting up layer_19_2_3/relu
I0123 08:15:27.645293    77 net.cpp:338] Top shape: 64 256 3 3 (147456)
I0123 08:15:27.645300    77 net.cpp:347] Memory required for data: 7215233088
I0123 08:15:27.645305    77 net.cpp:349] Biggest Memory of single blob: 552960000
I0123 08:15:27.645310    77 layer_factory.hpp:114] Creating layer layer_19_2_3_layer_19_2_3/relu_0_split
I0123 08:15:27.645321    77 net.cpp:262] Creating Layer layer_19_2_3_layer_19_2_3/relu_0_split
I0123 08:15:27.645326    77 net.cpp:1712] layer_19_2_3_layer_19_2_3/relu_0_split <- layer_19_2_3
I0123 08:15:27.645335    77 net.cpp:1686] layer_19_2_3_layer_19_2_3/relu_0_split -> layer_19_2_3_layer_19_2_3/relu_0_split_0
I0123 08:15:27.645345    77 net.cpp:1686] layer_19_2_3_layer_19_2_3/relu_0_split -> layer_19_2_3_layer_19_2_3/relu_0_split_1
I0123 08:15:27.645357    77 net.cpp:1686] layer_19_2_3_layer_19_2_3/relu_0_split -> layer_19_2_3_layer_19_2_3/relu_0_split_2
I0123 08:15:27.645368    77 net.cpp:1686] layer_19_2_3_layer_19_2_3/relu_0_split -> layer_19_2_3_layer_19_2_3/relu_0_split_3
I0123 08:15:27.645381    77 net.cpp:331] Setting up layer_19_2_3_layer_19_2_3/relu_0_split
I0123 08:15:27.645391    77 net.cpp:338] Top shape: 64 256 3 3 (147456)
I0123 08:15:27.645401    77 net.cpp:338] Top shape: 64 256 3 3 (147456)
I0123 08:15:27.645409    77 net.cpp:338] Top shape: 64 256 3 3 (147456)
I0123 08:15:27.645418    77 net.cpp:338] Top shape: 64 256 3 3 (147456)
I0123 08:15:27.645426    77 net.cpp:347] Memory required for data: 7217592384
I0123 08:15:27.645432    77 net.cpp:349] Biggest Memory of single blob: 552960000
I0123 08:15:27.645438    77 layer_factory.hpp:114] Creating layer layer_19_1_4
I0123 08:15:27.645455    77 net.cpp:262] Creating Layer layer_19_1_4
I0123 08:15:27.645463    77 net.cpp:1712] layer_19_1_4 <- layer_19_2_3_layer_19_2_3/relu_0_split_0
I0123 08:15:27.645470    77 net.cpp:1686] layer_19_1_4 -> layer_19_1_4
I0123 08:15:27.645781    77 net.cpp:331] Setting up layer_19_1_4
I0123 08:15:27.645790    77 net.cpp:338] Top shape: 64 128 3 3 (73728)
I0123 08:15:27.645794    77 net.cpp:347] Memory required for data: 7217887296
I0123 08:15:27.645798    77 net.cpp:349] Biggest Memory of single blob: 552960000
I0123 08:15:27.645805    77 layer_factory.hpp:114] Creating layer layer_19_1_4/relu
I0123 08:15:27.645814    77 net.cpp:262] Creating Layer layer_19_1_4/relu
I0123 08:15:27.645820    77 net.cpp:1712] layer_19_1_4/relu <- layer_19_1_4
I0123 08:15:27.645829    77 net.cpp:1673] layer_19_1_4/relu -> layer_19_1_4 (in-place)
I0123 08:15:27.645853    77 net.cpp:331] Setting up layer_19_1_4/relu
I0123 08:15:27.645861    77 net.cpp:338] Top shape: 64 128 3 3 (73728)
I0123 08:15:27.645869    77 net.cpp:347] Memory required for data: 7218182208
I0123 08:15:27.645875    77 net.cpp:349] Biggest Memory of single blob: 552960000
I0123 08:15:27.645882    77 layer_factory.hpp:114] Creating layer layer_19_2_4/depthwise
I0123 08:15:27.645896    77 net.cpp:262] Creating Layer layer_19_2_4/depthwise
I0123 08:15:27.645903    77 net.cpp:1712] layer_19_2_4/depthwise <- layer_19_1_4
I0123 08:15:27.645913    77 net.cpp:1686] layer_19_2_4/depthwise -> layer_19_2_4/depthwise
I0123 08:15:27.645952    77 net.cpp:331] Setting up layer_19_2_4/depthwise
I0123 08:15:27.645961    77 net.cpp:338] Top shape: 64 128 2 2 (32768)
I0123 08:15:27.645965    77 net.cpp:347] Memory required for data: 7218313280
I0123 08:15:27.645969    77 net.cpp:349] Biggest Memory of single blob: 552960000
I0123 08:15:27.645975    77 layer_factory.hpp:114] Creating layer layer_19_2_4/depthwise/relu
I0123 08:15:27.645988    77 net.cpp:262] Creating Layer layer_19_2_4/depthwise/relu
I0123 08:15:27.645994    77 net.cpp:1712] layer_19_2_4/depthwise/relu <- layer_19_2_4/depthwise
I0123 08:15:27.646003    77 net.cpp:1673] layer_19_2_4/depthwise/relu -> layer_19_2_4/depthwise (in-place)
I0123 08:15:27.646013    77 net.cpp:331] Setting up layer_19_2_4/depthwise/relu
I0123 08:15:27.646023    77 net.cpp:338] Top shape: 64 128 2 2 (32768)
I0123 08:15:27.646026    77 net.cpp:347] Memory required for data: 7218444352
I0123 08:15:27.646030    77 net.cpp:349] Biggest Memory of single blob: 552960000
I0123 08:15:27.646034    77 layer_factory.hpp:114] Creating layer layer_19_2_4
I0123 08:15:27.646042    77 net.cpp:262] Creating Layer layer_19_2_4
I0123 08:15:27.646047    77 net.cpp:1712] layer_19_2_4 <- layer_19_2_4/depthwise
I0123 08:15:27.646054    77 net.cpp:1686] layer_19_2_4 -> layer_19_2_4
I0123 08:15:27.646366    77 net.cpp:331] Setting up layer_19_2_4
I0123 08:15:27.646375    77 net.cpp:338] Top shape: 64 256 2 2 (65536)
I0123 08:15:27.646379    77 net.cpp:347] Memory required for data: 7218706496
I0123 08:15:27.646384    77 net.cpp:349] Biggest Memory of single blob: 552960000
I0123 08:15:27.646390    77 layer_factory.hpp:114] Creating layer layer_19_2_4/relu
I0123 08:15:27.646399    77 net.cpp:262] Creating Layer layer_19_2_4/relu
I0123 08:15:27.646404    77 net.cpp:1712] layer_19_2_4/relu <- layer_19_2_4
I0123 08:15:27.646410    77 net.cpp:1673] layer_19_2_4/relu -> layer_19_2_4 (in-place)
I0123 08:15:27.646416    77 net.cpp:331] Setting up layer_19_2_4/relu
I0123 08:15:27.646422    77 net.cpp:338] Top shape: 64 256 2 2 (65536)
I0123 08:15:27.646426    77 net.cpp:347] Memory required for data: 7218968640
I0123 08:15:27.646430    77 net.cpp:349] Biggest Memory of single blob: 552960000
I0123 08:15:27.646435    77 layer_factory.hpp:114] Creating layer layer_19_2_4_layer_19_2_4/relu_0_split
I0123 08:15:27.646443    77 net.cpp:262] Creating Layer layer_19_2_4_layer_19_2_4/relu_0_split
I0123 08:15:27.646447    77 net.cpp:1712] layer_19_2_4_layer_19_2_4/relu_0_split <- layer_19_2_4
I0123 08:15:27.646458    77 net.cpp:1686] layer_19_2_4_layer_19_2_4/relu_0_split -> layer_19_2_4_layer_19_2_4/relu_0_split_0
I0123 08:15:27.646466    77 net.cpp:1686] layer_19_2_4_layer_19_2_4/relu_0_split -> layer_19_2_4_layer_19_2_4/relu_0_split_1
I0123 08:15:27.646474    77 net.cpp:1686] layer_19_2_4_layer_19_2_4/relu_0_split -> layer_19_2_4_layer_19_2_4/relu_0_split_2
I0123 08:15:27.646481    77 net.cpp:1686] layer_19_2_4_layer_19_2_4/relu_0_split -> layer_19_2_4_layer_19_2_4/relu_0_split_3
I0123 08:15:27.646489    77 net.cpp:331] Setting up layer_19_2_4_layer_19_2_4/relu_0_split
I0123 08:15:27.646495    77 net.cpp:338] Top shape: 64 256 2 2 (65536)
I0123 08:15:27.646500    77 net.cpp:338] Top shape: 64 256 2 2 (65536)
I0123 08:15:27.646505    77 net.cpp:338] Top shape: 64 256 2 2 (65536)
I0123 08:15:27.646510    77 net.cpp:338] Top shape: 64 256 2 2 (65536)
I0123 08:15:27.646513    77 net.cpp:347] Memory required for data: 7220017216
I0123 08:15:27.646526    77 net.cpp:349] Biggest Memory of single blob: 552960000
I0123 08:15:27.646533    77 layer_factory.hpp:114] Creating layer layer_19_1_5
I0123 08:15:27.646544    77 net.cpp:262] Creating Layer layer_19_1_5
I0123 08:15:27.646549    77 net.cpp:1712] layer_19_1_5 <- layer_19_2_4_layer_19_2_4/relu_0_split_0
I0123 08:15:27.646555    77 net.cpp:1686] layer_19_1_5 -> layer_19_1_5
I0123 08:15:27.646716    77 net.cpp:331] Setting up layer_19_1_5
I0123 08:15:27.646724    77 net.cpp:338] Top shape: 64 64 2 2 (16384)
I0123 08:15:27.646728    77 net.cpp:347] Memory required for data: 7220082752
I0123 08:15:27.646733    77 net.cpp:349] Biggest Memory of single blob: 552960000
I0123 08:15:27.646739    77 layer_factory.hpp:114] Creating layer layer_19_1_5/relu
I0123 08:15:27.646746    77 net.cpp:262] Creating Layer layer_19_1_5/relu
I0123 08:15:27.646751    77 net.cpp:1712] layer_19_1_5/relu <- layer_19_1_5
I0123 08:15:27.646759    77 net.cpp:1673] layer_19_1_5/relu -> layer_19_1_5 (in-place)
I0123 08:15:27.646768    77 net.cpp:331] Setting up layer_19_1_5/relu
I0123 08:15:27.646775    77 net.cpp:338] Top shape: 64 64 2 2 (16384)
I0123 08:15:27.646778    77 net.cpp:347] Memory required for data: 7220148288
I0123 08:15:27.646781    77 net.cpp:349] Biggest Memory of single blob: 552960000
I0123 08:15:27.646785    77 layer_factory.hpp:114] Creating layer layer_19_2_5/depthwise
I0123 08:15:27.646795    77 net.cpp:262] Creating Layer layer_19_2_5/depthwise
I0123 08:15:27.646800    77 net.cpp:1712] layer_19_2_5/depthwise <- layer_19_1_5
I0123 08:15:27.646806    77 net.cpp:1686] layer_19_2_5/depthwise -> layer_19_2_5/depthwise
I0123 08:15:27.646829    77 net.cpp:331] Setting up layer_19_2_5/depthwise
I0123 08:15:27.646838    77 net.cpp:338] Top shape: 64 64 1 1 (4096)
I0123 08:15:27.646844    77 net.cpp:347] Memory required for data: 7220164672
I0123 08:15:27.646848    77 net.cpp:349] Biggest Memory of single blob: 552960000
I0123 08:15:27.646854    77 layer_factory.hpp:114] Creating layer layer_19_2_5/depthwise/relu
I0123 08:15:27.646863    77 net.cpp:262] Creating Layer layer_19_2_5/depthwise/relu
I0123 08:15:27.646868    77 net.cpp:1712] layer_19_2_5/depthwise/relu <- layer_19_2_5/depthwise
I0123 08:15:27.646874    77 net.cpp:1673] layer_19_2_5/depthwise/relu -> layer_19_2_5/depthwise (in-place)
I0123 08:15:27.646883    77 net.cpp:331] Setting up layer_19_2_5/depthwise/relu
I0123 08:15:27.646888    77 net.cpp:338] Top shape: 64 64 1 1 (4096)
I0123 08:15:27.646893    77 net.cpp:347] Memory required for data: 7220181056
I0123 08:15:27.646896    77 net.cpp:349] Biggest Memory of single blob: 552960000
I0123 08:15:27.646901    77 layer_factory.hpp:114] Creating layer layer_19_2_5
I0123 08:15:27.646916    77 net.cpp:262] Creating Layer layer_19_2_5
I0123 08:15:27.646921    77 net.cpp:1712] layer_19_2_5 <- layer_19_2_5/depthwise
I0123 08:15:27.646929    77 net.cpp:1686] layer_19_2_5 -> layer_19_2_5
I0123 08:15:27.647014    77 net.cpp:331] Setting up layer_19_2_5
I0123 08:15:27.647022    77 net.cpp:338] Top shape: 64 128 1 1 (8192)
I0123 08:15:27.647027    77 net.cpp:347] Memory required for data: 7220213824
I0123 08:15:27.647030    77 net.cpp:349] Biggest Memory of single blob: 552960000
I0123 08:15:27.647037    77 layer_factory.hpp:114] Creating layer layer_19_2_5/relu
I0123 08:15:27.647045    77 net.cpp:262] Creating Layer layer_19_2_5/relu
I0123 08:15:27.647050    77 net.cpp:1712] layer_19_2_5/relu <- layer_19_2_5
I0123 08:15:27.647056    77 net.cpp:1673] layer_19_2_5/relu -> layer_19_2_5 (in-place)
I0123 08:15:27.647063    77 net.cpp:331] Setting up layer_19_2_5/relu
I0123 08:15:27.647070    77 net.cpp:338] Top shape: 64 128 1 1 (8192)
I0123 08:15:27.647076    77 net.cpp:347] Memory required for data: 7220246592
I0123 08:15:27.647083    77 net.cpp:349] Biggest Memory of single blob: 552960000
I0123 08:15:27.647086    77 layer_factory.hpp:114] Creating layer layer_19_2_5_layer_19_2_5/relu_0_split
I0123 08:15:27.647094    77 net.cpp:262] Creating Layer layer_19_2_5_layer_19_2_5/relu_0_split
I0123 08:15:27.647105    77 net.cpp:1712] layer_19_2_5_layer_19_2_5/relu_0_split <- layer_19_2_5
I0123 08:15:27.647114    77 net.cpp:1686] layer_19_2_5_layer_19_2_5/relu_0_split -> layer_19_2_5_layer_19_2_5/relu_0_split_0
I0123 08:15:27.647121    77 net.cpp:1686] layer_19_2_5_layer_19_2_5/relu_0_split -> layer_19_2_5_layer_19_2_5/relu_0_split_1
I0123 08:15:27.647127    77 net.cpp:1686] layer_19_2_5_layer_19_2_5/relu_0_split -> layer_19_2_5_layer_19_2_5/relu_0_split_2
I0123 08:15:27.647136    77 net.cpp:331] Setting up layer_19_2_5_layer_19_2_5/relu_0_split
I0123 08:15:27.647145    77 net.cpp:338] Top shape: 64 128 1 1 (8192)
I0123 08:15:27.647151    77 net.cpp:338] Top shape: 64 128 1 1 (8192)
I0123 08:15:27.647156    77 net.cpp:338] Top shape: 64 128 1 1 (8192)
I0123 08:15:27.647161    77 net.cpp:347] Memory required for data: 7220344896
I0123 08:15:27.647166    77 net.cpp:349] Biggest Memory of single blob: 552960000
I0123 08:15:27.647171    77 layer_factory.hpp:114] Creating layer conv_13/expand_mbox_loc/depthwise
I0123 08:15:27.647181    77 net.cpp:262] Creating Layer conv_13/expand_mbox_loc/depthwise
I0123 08:15:27.647188    77 net.cpp:1712] conv_13/expand_mbox_loc/depthwise <- conv_13/expand_conv_13/expand/relu_0_split_1
I0123 08:15:27.647197    77 net.cpp:1686] conv_13/expand_mbox_loc/depthwise -> conv_13/expand_mbox_loc/depthwise
I0123 08:15:27.647256    77 net.cpp:331] Setting up conv_13/expand_mbox_loc/depthwise
I0123 08:15:27.647266    77 net.cpp:338] Top shape: 64 576 19 19 (13307904)
I0123 08:15:27.647271    77 net.cpp:347] Memory required for data: 7273576512
I0123 08:15:27.647276    77 net.cpp:349] Biggest Memory of single blob: 552960000
I0123 08:15:27.647289    77 layer_factory.hpp:114] Creating layer conv_13/expand_mbox_loc/depthwise/bn
I0123 08:15:27.647300    77 net.cpp:262] Creating Layer conv_13/expand_mbox_loc/depthwise/bn
I0123 08:15:27.647305    77 net.cpp:1712] conv_13/expand_mbox_loc/depthwise/bn <- conv_13/expand_mbox_loc/depthwise
I0123 08:15:27.647310    77 net.cpp:1673] conv_13/expand_mbox_loc/depthwise/bn -> conv_13/expand_mbox_loc/depthwise (in-place)
I0123 08:15:27.647336    77 net.cpp:331] Setting up conv_13/expand_mbox_loc/depthwise/bn
I0123 08:15:27.647346    77 net.cpp:338] Top shape: 64 576 19 19 (13307904)
I0123 08:15:27.647349    77 net.cpp:347] Memory required for data: 7326808128
I0123 08:15:27.647352    77 net.cpp:349] Biggest Memory of single blob: 552960000
I0123 08:15:27.647361    77 layer_factory.hpp:114] Creating layer conv_13/expand_mbox_loc/depthwise/relu
I0123 08:15:27.647368    77 net.cpp:262] Creating Layer conv_13/expand_mbox_loc/depthwise/relu
I0123 08:15:27.647373    77 net.cpp:1712] conv_13/expand_mbox_loc/depthwise/relu <- conv_13/expand_mbox_loc/depthwise
I0123 08:15:27.647379    77 net.cpp:1673] conv_13/expand_mbox_loc/depthwise/relu -> conv_13/expand_mbox_loc/depthwise (in-place)
I0123 08:15:27.647387    77 net.cpp:331] Setting up conv_13/expand_mbox_loc/depthwise/relu
I0123 08:15:27.647394    77 net.cpp:338] Top shape: 64 576 19 19 (13307904)
I0123 08:15:27.647399    77 net.cpp:347] Memory required for data: 7380039744
I0123 08:15:27.647403    77 net.cpp:349] Biggest Memory of single blob: 552960000
I0123 08:15:27.647406    77 layer_factory.hpp:114] Creating layer conv_13/expand_mbox_loc
I0123 08:15:27.647416    77 net.cpp:262] Creating Layer conv_13/expand_mbox_loc
I0123 08:15:27.647420    77 net.cpp:1712] conv_13/expand_mbox_loc <- conv_13/expand_mbox_loc/depthwise
I0123 08:15:27.647428    77 net.cpp:1686] conv_13/expand_mbox_loc -> conv_13/expand_mbox_loc
I0123 08:15:27.647505    77 net.cpp:331] Setting up conv_13/expand_mbox_loc
I0123 08:15:27.647512    77 net.cpp:338] Top shape: 64 12 19 19 (277248)
I0123 08:15:27.647517    77 net.cpp:347] Memory required for data: 7381148736
I0123 08:15:27.647522    77 net.cpp:349] Biggest Memory of single blob: 552960000
I0123 08:15:27.647528    77 layer_factory.hpp:114] Creating layer conv_13/expand_mbox_loc_perm
I0123 08:15:27.647536    77 net.cpp:262] Creating Layer conv_13/expand_mbox_loc_perm
I0123 08:15:27.647548    77 net.cpp:1712] conv_13/expand_mbox_loc_perm <- conv_13/expand_mbox_loc
I0123 08:15:27.647555    77 net.cpp:1686] conv_13/expand_mbox_loc_perm -> conv_13/expand_mbox_loc_perm
I0123 08:15:27.647574    77 net.cpp:331] Setting up conv_13/expand_mbox_loc_perm
I0123 08:15:27.647581    77 net.cpp:338] Top shape: 64 19 19 12 (277248)
I0123 08:15:27.647586    77 net.cpp:347] Memory required for data: 7382257728
I0123 08:15:27.647590    77 net.cpp:349] Biggest Memory of single blob: 552960000
I0123 08:15:27.647598    77 layer_factory.hpp:114] Creating layer conv_13/expand_mbox_loc_flat
I0123 08:15:27.647609    77 net.cpp:262] Creating Layer conv_13/expand_mbox_loc_flat
I0123 08:15:27.647614    77 net.cpp:1712] conv_13/expand_mbox_loc_flat <- conv_13/expand_mbox_loc_perm
I0123 08:15:27.647619    77 net.cpp:1686] conv_13/expand_mbox_loc_flat -> conv_13/expand_mbox_loc_flat
I0123 08:15:27.647626    77 net.cpp:331] Setting up conv_13/expand_mbox_loc_flat
I0123 08:15:27.647632    77 net.cpp:338] Top shape: 64 4332 (277248)
I0123 08:15:27.647636    77 net.cpp:347] Memory required for data: 7383366720
I0123 08:15:27.647640    77 net.cpp:349] Biggest Memory of single blob: 552960000
I0123 08:15:27.647644    77 layer_factory.hpp:114] Creating layer conv_13/expand_mbox_conf/depthwise
I0123 08:15:27.647655    77 net.cpp:262] Creating Layer conv_13/expand_mbox_conf/depthwise
I0123 08:15:27.647660    77 net.cpp:1712] conv_13/expand_mbox_conf/depthwise <- conv_13/expand_conv_13/expand/relu_0_split_2
I0123 08:15:27.647668    77 net.cpp:1686] conv_13/expand_mbox_conf/depthwise -> conv_13/expand_mbox_conf/depthwise
I0123 08:15:27.647732    77 net.cpp:331] Setting up conv_13/expand_mbox_conf/depthwise
I0123 08:15:27.647739    77 net.cpp:338] Top shape: 64 576 19 19 (13307904)
I0123 08:15:27.647742    77 net.cpp:347] Memory required for data: 7436598336
I0123 08:15:27.647747    77 net.cpp:349] Biggest Memory of single blob: 552960000
I0123 08:15:27.647753    77 layer_factory.hpp:114] Creating layer conv_13/expand_mbox_conf/depthwise/bn
I0123 08:15:27.647764    77 net.cpp:262] Creating Layer conv_13/expand_mbox_conf/depthwise/bn
I0123 08:15:27.647769    77 net.cpp:1712] conv_13/expand_mbox_conf/depthwise/bn <- conv_13/expand_mbox_conf/depthwise
I0123 08:15:27.647775    77 net.cpp:1673] conv_13/expand_mbox_conf/depthwise/bn -> conv_13/expand_mbox_conf/depthwise (in-place)
I0123 08:15:27.647799    77 net.cpp:331] Setting up conv_13/expand_mbox_conf/depthwise/bn
I0123 08:15:27.647805    77 net.cpp:338] Top shape: 64 576 19 19 (13307904)
I0123 08:15:27.647809    77 net.cpp:347] Memory required for data: 7489829952
I0123 08:15:27.647812    77 net.cpp:349] Biggest Memory of single blob: 552960000
I0123 08:15:27.647820    77 layer_factory.hpp:114] Creating layer conv_13/expand_mbox_conf/depthwise/relu
I0123 08:15:27.647827    77 net.cpp:262] Creating Layer conv_13/expand_mbox_conf/depthwise/relu
I0123 08:15:27.647832    77 net.cpp:1712] conv_13/expand_mbox_conf/depthwise/relu <- conv_13/expand_mbox_conf/depthwise
I0123 08:15:27.647840    77 net.cpp:1673] conv_13/expand_mbox_conf/depthwise/relu -> conv_13/expand_mbox_conf/depthwise (in-place)
I0123 08:15:27.647850    77 net.cpp:331] Setting up conv_13/expand_mbox_conf/depthwise/relu
I0123 08:15:27.647856    77 net.cpp:338] Top shape: 64 576 19 19 (13307904)
I0123 08:15:27.647859    77 net.cpp:347] Memory required for data: 7543061568
I0123 08:15:27.647862    77 net.cpp:349] Biggest Memory of single blob: 552960000
I0123 08:15:27.647866    77 layer_factory.hpp:114] Creating layer conv_13/expand_mbox_conf_new
I0123 08:15:27.647876    77 net.cpp:262] Creating Layer conv_13/expand_mbox_conf_new
I0123 08:15:27.647881    77 net.cpp:1712] conv_13/expand_mbox_conf_new <- conv_13/expand_mbox_conf/depthwise
I0123 08:15:27.647888    77 net.cpp:1686] conv_13/expand_mbox_conf_new -> conv_13/expand_mbox_conf_new
I0123 08:15:27.648221    77 net.cpp:331] Setting up conv_13/expand_mbox_conf_new
I0123 08:15:27.648231    77 net.cpp:338] Top shape: 64 63 19 19 (1455552)
I0123 08:15:27.648236    77 net.cpp:347] Memory required for data: 7548883776
I0123 08:15:27.648247    77 net.cpp:349] Biggest Memory of single blob: 552960000
I0123 08:15:27.648257    77 layer_factory.hpp:114] Creating layer conv_13/expand_mbox_conf_perm
I0123 08:15:27.648267    77 net.cpp:262] Creating Layer conv_13/expand_mbox_conf_perm
I0123 08:15:27.648275    77 net.cpp:1712] conv_13/expand_mbox_conf_perm <- conv_13/expand_mbox_conf_new
I0123 08:15:27.648288    77 net.cpp:1686] conv_13/expand_mbox_conf_perm -> conv_13/expand_mbox_conf_perm
I0123 08:15:27.648305    77 net.cpp:331] Setting up conv_13/expand_mbox_conf_perm
I0123 08:15:27.648313    77 net.cpp:338] Top shape: 64 19 19 63 (1455552)
I0123 08:15:27.648316    77 net.cpp:347] Memory required for data: 7554705984
I0123 08:15:27.648320    77 net.cpp:349] Biggest Memory of single blob: 552960000
I0123 08:15:27.648325    77 layer_factory.hpp:114] Creating layer conv_13/expand_mbox_conf_flat
I0123 08:15:27.648334    77 net.cpp:262] Creating Layer conv_13/expand_mbox_conf_flat
I0123 08:15:27.648339    77 net.cpp:1712] conv_13/expand_mbox_conf_flat <- conv_13/expand_mbox_conf_perm
I0123 08:15:27.648345    77 net.cpp:1686] conv_13/expand_mbox_conf_flat -> conv_13/expand_mbox_conf_flat
I0123 08:15:27.648352    77 net.cpp:331] Setting up conv_13/expand_mbox_conf_flat
I0123 08:15:27.648358    77 net.cpp:338] Top shape: 64 22743 (1455552)
I0123 08:15:27.648362    77 net.cpp:347] Memory required for data: 7560528192
I0123 08:15:27.648366    77 net.cpp:349] Biggest Memory of single blob: 552960000
I0123 08:15:27.648375    77 layer_factory.hpp:114] Creating layer conv_13/expand_mbox_priorbox
I0123 08:15:27.648381    77 net.cpp:262] Creating Layer conv_13/expand_mbox_priorbox
I0123 08:15:27.648389    77 net.cpp:1712] conv_13/expand_mbox_priorbox <- conv_13/expand_conv_13/expand/relu_0_split_3
I0123 08:15:27.648399    77 net.cpp:1712] conv_13/expand_mbox_priorbox <- data_data_0_split_1
I0123 08:15:27.648411    77 net.cpp:1686] conv_13/expand_mbox_priorbox -> conv_13/expand_mbox_priorbox
I0123 08:15:27.648422    77 net.cpp:331] Setting up conv_13/expand_mbox_priorbox
I0123 08:15:27.648432    77 net.cpp:338] Top shape: 1 2 4332 (8664)
I0123 08:15:27.648439    77 net.cpp:347] Memory required for data: 7560562848
I0123 08:15:27.648444    77 net.cpp:349] Biggest Memory of single blob: 552960000
I0123 08:15:27.648452    77 layer_factory.hpp:114] Creating layer Conv_1_mbox_loc/depthwise
I0123 08:15:27.648464    77 net.cpp:262] Creating Layer Conv_1_mbox_loc/depthwise
I0123 08:15:27.648470    77 net.cpp:1712] Conv_1_mbox_loc/depthwise <- Conv_1_Conv_1/relu_0_split_1
I0123 08:15:27.648480    77 net.cpp:1686] Conv_1_mbox_loc/depthwise -> Conv_1_mbox_loc/depthwise
I0123 08:15:27.648607    77 net.cpp:331] Setting up Conv_1_mbox_loc/depthwise
I0123 08:15:27.648617    77 net.cpp:338] Top shape: 64 1280 10 10 (8192000)
I0123 08:15:27.648620    77 net.cpp:347] Memory required for data: 7593330848
I0123 08:15:27.648624    77 net.cpp:349] Biggest Memory of single blob: 552960000
I0123 08:15:27.648630    77 layer_factory.hpp:114] Creating layer Conv_1_mbox_loc/depthwise/bn
I0123 08:15:27.648640    77 net.cpp:262] Creating Layer Conv_1_mbox_loc/depthwise/bn
I0123 08:15:27.648645    77 net.cpp:1712] Conv_1_mbox_loc/depthwise/bn <- Conv_1_mbox_loc/depthwise
I0123 08:15:27.648654    77 net.cpp:1673] Conv_1_mbox_loc/depthwise/bn -> Conv_1_mbox_loc/depthwise (in-place)
I0123 08:15:27.648689    77 net.cpp:331] Setting up Conv_1_mbox_loc/depthwise/bn
I0123 08:15:27.648699    77 net.cpp:338] Top shape: 64 1280 10 10 (8192000)
I0123 08:15:27.648707    77 net.cpp:347] Memory required for data: 7626098848
I0123 08:15:27.648712    77 net.cpp:349] Biggest Memory of single blob: 552960000
I0123 08:15:27.648725    77 layer_factory.hpp:114] Creating layer Conv_1_mbox_loc/depthwise/relu
I0123 08:15:27.648736    77 net.cpp:262] Creating Layer Conv_1_mbox_loc/depthwise/relu
I0123 08:15:27.648743    77 net.cpp:1712] Conv_1_mbox_loc/depthwise/relu <- Conv_1_mbox_loc/depthwise
I0123 08:15:27.648753    77 net.cpp:1673] Conv_1_mbox_loc/depthwise/relu -> Conv_1_mbox_loc/depthwise (in-place)
I0123 08:15:27.648772    77 net.cpp:331] Setting up Conv_1_mbox_loc/depthwise/relu
I0123 08:15:27.648779    77 net.cpp:338] Top shape: 64 1280 10 10 (8192000)
I0123 08:15:27.648783    77 net.cpp:347] Memory required for data: 7658866848
I0123 08:15:27.648787    77 net.cpp:349] Biggest Memory of single blob: 552960000
I0123 08:15:27.648792    77 layer_factory.hpp:114] Creating layer Conv_1_mbox_loc
I0123 08:15:27.648805    77 net.cpp:262] Creating Layer Conv_1_mbox_loc
I0123 08:15:27.648814    77 net.cpp:1712] Conv_1_mbox_loc <- Conv_1_mbox_loc/depthwise
I0123 08:15:27.648825    77 net.cpp:1686] Conv_1_mbox_loc -> Conv_1_mbox_loc
I0123 08:15:27.649121    77 net.cpp:331] Setting up Conv_1_mbox_loc
I0123 08:15:27.649130    77 net.cpp:338] Top shape: 64 24 10 10 (153600)
I0123 08:15:27.649134    77 net.cpp:347] Memory required for data: 7659481248
I0123 08:15:27.649138    77 net.cpp:349] Biggest Memory of single blob: 552960000
I0123 08:15:27.649145    77 layer_factory.hpp:114] Creating layer Conv_1_mbox_loc_perm
I0123 08:15:27.649153    77 net.cpp:262] Creating Layer Conv_1_mbox_loc_perm
I0123 08:15:27.649161    77 net.cpp:1712] Conv_1_mbox_loc_perm <- Conv_1_mbox_loc
I0123 08:15:27.649169    77 net.cpp:1686] Conv_1_mbox_loc_perm -> Conv_1_mbox_loc_perm
I0123 08:15:27.649188    77 net.cpp:331] Setting up Conv_1_mbox_loc_perm
I0123 08:15:27.649197    77 net.cpp:338] Top shape: 64 10 10 24 (153600)
I0123 08:15:27.649204    77 net.cpp:347] Memory required for data: 7660095648
I0123 08:15:27.649210    77 net.cpp:349] Biggest Memory of single blob: 552960000
I0123 08:15:27.649216    77 layer_factory.hpp:114] Creating layer Conv_1_mbox_loc_flat
I0123 08:15:27.649226    77 net.cpp:262] Creating Layer Conv_1_mbox_loc_flat
I0123 08:15:27.649235    77 net.cpp:1712] Conv_1_mbox_loc_flat <- Conv_1_mbox_loc_perm
I0123 08:15:27.649245    77 net.cpp:1686] Conv_1_mbox_loc_flat -> Conv_1_mbox_loc_flat
I0123 08:15:27.649257    77 net.cpp:331] Setting up Conv_1_mbox_loc_flat
I0123 08:15:27.649266    77 net.cpp:338] Top shape: 64 2400 (153600)
I0123 08:15:27.649273    77 net.cpp:347] Memory required for data: 7660710048
I0123 08:15:27.649279    77 net.cpp:349] Biggest Memory of single blob: 552960000
I0123 08:15:27.649286    77 layer_factory.hpp:114] Creating layer Conv_1_mbox_conf/depthwise
I0123 08:15:27.649299    77 net.cpp:262] Creating Layer Conv_1_mbox_conf/depthwise
I0123 08:15:27.649307    77 net.cpp:1712] Conv_1_mbox_conf/depthwise <- Conv_1_Conv_1/relu_0_split_2
I0123 08:15:27.649320    77 net.cpp:1686] Conv_1_mbox_conf/depthwise -> Conv_1_mbox_conf/depthwise
I0123 08:15:27.649447    77 net.cpp:331] Setting up Conv_1_mbox_conf/depthwise
I0123 08:15:27.649456    77 net.cpp:338] Top shape: 64 1280 10 10 (8192000)
I0123 08:15:27.649459    77 net.cpp:347] Memory required for data: 7693478048
I0123 08:15:27.649463    77 net.cpp:349] Biggest Memory of single blob: 552960000
I0123 08:15:27.649469    77 layer_factory.hpp:114] Creating layer Conv_1_mbox_conf/depthwise/bn
I0123 08:15:27.649479    77 net.cpp:262] Creating Layer Conv_1_mbox_conf/depthwise/bn
I0123 08:15:27.649489    77 net.cpp:1712] Conv_1_mbox_conf/depthwise/bn <- Conv_1_mbox_conf/depthwise
I0123 08:15:27.649507    77 net.cpp:1673] Conv_1_mbox_conf/depthwise/bn -> Conv_1_mbox_conf/depthwise (in-place)
I0123 08:15:27.649541    77 net.cpp:331] Setting up Conv_1_mbox_conf/depthwise/bn
I0123 08:15:27.649552    77 net.cpp:338] Top shape: 64 1280 10 10 (8192000)
I0123 08:15:27.649557    77 net.cpp:347] Memory required for data: 7726246048
I0123 08:15:27.649560    77 net.cpp:349] Biggest Memory of single blob: 552960000
I0123 08:15:27.649569    77 layer_factory.hpp:114] Creating layer Conv_1_mbox_conf/depthwise/relu
I0123 08:15:27.649580    77 net.cpp:262] Creating Layer Conv_1_mbox_conf/depthwise/relu
I0123 08:15:27.649588    77 net.cpp:1712] Conv_1_mbox_conf/depthwise/relu <- Conv_1_mbox_conf/depthwise
I0123 08:15:27.649598    77 net.cpp:1673] Conv_1_mbox_conf/depthwise/relu -> Conv_1_mbox_conf/depthwise (in-place)
I0123 08:15:27.649610    77 net.cpp:331] Setting up Conv_1_mbox_conf/depthwise/relu
I0123 08:15:27.649624    77 net.cpp:338] Top shape: 64 1280 10 10 (8192000)
I0123 08:15:27.649631    77 net.cpp:347] Memory required for data: 7759014048
I0123 08:15:27.649633    77 net.cpp:349] Biggest Memory of single blob: 552960000
I0123 08:15:27.649637    77 layer_factory.hpp:114] Creating layer Conv_1_mbox_conf_new
I0123 08:15:27.649650    77 net.cpp:262] Creating Layer Conv_1_mbox_conf_new
I0123 08:15:27.649659    77 net.cpp:1712] Conv_1_mbox_conf_new <- Conv_1_mbox_conf/depthwise
I0123 08:15:27.649672    77 net.cpp:1686] Conv_1_mbox_conf_new -> Conv_1_mbox_conf_new
I0123 08:15:27.651096    77 net.cpp:331] Setting up Conv_1_mbox_conf_new
I0123 08:15:27.651109    77 net.cpp:338] Top shape: 64 126 10 10 (806400)
I0123 08:15:27.651118    77 net.cpp:347] Memory required for data: 7762239648
I0123 08:15:27.651124    77 net.cpp:349] Biggest Memory of single blob: 552960000
I0123 08:15:27.651134    77 layer_factory.hpp:114] Creating layer Conv_1_mbox_conf_perm
I0123 08:15:27.651145    77 net.cpp:262] Creating Layer Conv_1_mbox_conf_perm
I0123 08:15:27.651154    77 net.cpp:1712] Conv_1_mbox_conf_perm <- Conv_1_mbox_conf_new
I0123 08:15:27.651165    77 net.cpp:1686] Conv_1_mbox_conf_perm -> Conv_1_mbox_conf_perm
I0123 08:15:27.651185    77 net.cpp:331] Setting up Conv_1_mbox_conf_perm
I0123 08:15:27.651199    77 net.cpp:338] Top shape: 64 10 10 126 (806400)
I0123 08:15:27.651207    77 net.cpp:347] Memory required for data: 7765465248
I0123 08:15:27.651216    77 net.cpp:349] Biggest Memory of single blob: 552960000
I0123 08:15:27.651221    77 layer_factory.hpp:114] Creating layer Conv_1_mbox_conf_flat
I0123 08:15:27.651229    77 net.cpp:262] Creating Layer Conv_1_mbox_conf_flat
I0123 08:15:27.651237    77 net.cpp:1712] Conv_1_mbox_conf_flat <- Conv_1_mbox_conf_perm
I0123 08:15:27.651249    77 net.cpp:1686] Conv_1_mbox_conf_flat -> Conv_1_mbox_conf_flat
I0123 08:15:27.651264    77 net.cpp:331] Setting up Conv_1_mbox_conf_flat
I0123 08:15:27.651271    77 net.cpp:338] Top shape: 64 12600 (806400)
I0123 08:15:27.651278    77 net.cpp:347] Memory required for data: 7768690848
I0123 08:15:27.651283    77 net.cpp:349] Biggest Memory of single blob: 552960000
I0123 08:15:27.651289    77 layer_factory.hpp:114] Creating layer Conv_1_mbox_priorbox
I0123 08:15:27.651299    77 net.cpp:262] Creating Layer Conv_1_mbox_priorbox
I0123 08:15:27.651304    77 net.cpp:1712] Conv_1_mbox_priorbox <- Conv_1_Conv_1/relu_0_split_3
I0123 08:15:27.651311    77 net.cpp:1712] Conv_1_mbox_priorbox <- data_data_0_split_2
I0123 08:15:27.651322    77 net.cpp:1686] Conv_1_mbox_priorbox -> Conv_1_mbox_priorbox
I0123 08:15:27.651335    77 net.cpp:331] Setting up Conv_1_mbox_priorbox
I0123 08:15:27.651342    77 net.cpp:338] Top shape: 1 2 2400 (4800)
I0123 08:15:27.651346    77 net.cpp:347] Memory required for data: 7768710048
I0123 08:15:27.651351    77 net.cpp:349] Biggest Memory of single blob: 552960000
I0123 08:15:27.651356    77 layer_factory.hpp:114] Creating layer layer_19_2_2_mbox_loc/depthwise
I0123 08:15:27.651367    77 net.cpp:262] Creating Layer layer_19_2_2_mbox_loc/depthwise
I0123 08:15:27.651373    77 net.cpp:1712] layer_19_2_2_mbox_loc/depthwise <- layer_19_2_2_layer_19_2_2/relu_0_split_1
I0123 08:15:27.651384    77 net.cpp:1686] layer_19_2_2_mbox_loc/depthwise -> layer_19_2_2_mbox_loc/depthwise
I0123 08:15:27.651450    77 net.cpp:331] Setting up layer_19_2_2_mbox_loc/depthwise
I0123 08:15:27.651458    77 net.cpp:338] Top shape: 64 512 5 5 (819200)
I0123 08:15:27.651463    77 net.cpp:347] Memory required for data: 7771986848
I0123 08:15:27.651466    77 net.cpp:349] Biggest Memory of single blob: 552960000
I0123 08:15:27.651474    77 layer_factory.hpp:114] Creating layer layer_19_2_2_mbox_loc/depthwise/bn
I0123 08:15:27.651482    77 net.cpp:262] Creating Layer layer_19_2_2_mbox_loc/depthwise/bn
I0123 08:15:27.651487    77 net.cpp:1712] layer_19_2_2_mbox_loc/depthwise/bn <- layer_19_2_2_mbox_loc/depthwise
I0123 08:15:27.651494    77 net.cpp:1673] layer_19_2_2_mbox_loc/depthwise/bn -> layer_19_2_2_mbox_loc/depthwise (in-place)
I0123 08:15:27.651530    77 net.cpp:331] Setting up layer_19_2_2_mbox_loc/depthwise/bn
I0123 08:15:27.651538    77 net.cpp:338] Top shape: 64 512 5 5 (819200)
I0123 08:15:27.651543    77 net.cpp:347] Memory required for data: 7775263648
I0123 08:15:27.651547    77 net.cpp:349] Biggest Memory of single blob: 552960000
I0123 08:15:27.651556    77 layer_factory.hpp:114] Creating layer layer_19_2_2_mbox_loc/depthwise/relu
I0123 08:15:27.651571    77 net.cpp:262] Creating Layer layer_19_2_2_mbox_loc/depthwise/relu
I0123 08:15:27.651578    77 net.cpp:1712] layer_19_2_2_mbox_loc/depthwise/relu <- layer_19_2_2_mbox_loc/depthwise
I0123 08:15:27.651585    77 net.cpp:1673] layer_19_2_2_mbox_loc/depthwise/relu -> layer_19_2_2_mbox_loc/depthwise (in-place)
I0123 08:15:27.651592    77 net.cpp:331] Setting up layer_19_2_2_mbox_loc/depthwise/relu
I0123 08:15:27.651599    77 net.cpp:338] Top shape: 64 512 5 5 (819200)
I0123 08:15:27.651604    77 net.cpp:347] Memory required for data: 7778540448
I0123 08:15:27.651608    77 net.cpp:349] Biggest Memory of single blob: 552960000
I0123 08:15:27.651613    77 layer_factory.hpp:114] Creating layer layer_19_2_2_mbox_loc
I0123 08:15:27.651623    77 net.cpp:262] Creating Layer layer_19_2_2_mbox_loc
I0123 08:15:27.651628    77 net.cpp:1712] layer_19_2_2_mbox_loc <- layer_19_2_2_mbox_loc/depthwise
I0123 08:15:27.651643    77 net.cpp:1686] layer_19_2_2_mbox_loc -> layer_19_2_2_mbox_loc
I0123 08:15:27.651782    77 net.cpp:331] Setting up layer_19_2_2_mbox_loc
I0123 08:15:27.651793    77 net.cpp:338] Top shape: 64 24 5 5 (38400)
I0123 08:15:27.651798    77 net.cpp:347] Memory required for data: 7778694048
I0123 08:15:27.651803    77 net.cpp:349] Biggest Memory of single blob: 552960000
I0123 08:15:27.651808    77 layer_factory.hpp:114] Creating layer layer_19_2_2_mbox_loc_perm
I0123 08:15:27.651818    77 net.cpp:262] Creating Layer layer_19_2_2_mbox_loc_perm
I0123 08:15:27.651823    77 net.cpp:1712] layer_19_2_2_mbox_loc_perm <- layer_19_2_2_mbox_loc
I0123 08:15:27.651829    77 net.cpp:1686] layer_19_2_2_mbox_loc_perm -> layer_19_2_2_mbox_loc_perm
I0123 08:15:27.651841    77 net.cpp:331] Setting up layer_19_2_2_mbox_loc_perm
I0123 08:15:27.651849    77 net.cpp:338] Top shape: 64 5 5 24 (38400)
I0123 08:15:27.651854    77 net.cpp:347] Memory required for data: 7778847648
I0123 08:15:27.651859    77 net.cpp:349] Biggest Memory of single blob: 552960000
I0123 08:15:27.651865    77 layer_factory.hpp:114] Creating layer layer_19_2_2_mbox_loc_flat
I0123 08:15:27.651872    77 net.cpp:262] Creating Layer layer_19_2_2_mbox_loc_flat
I0123 08:15:27.651876    77 net.cpp:1712] layer_19_2_2_mbox_loc_flat <- layer_19_2_2_mbox_loc_perm
I0123 08:15:27.651883    77 net.cpp:1686] layer_19_2_2_mbox_loc_flat -> layer_19_2_2_mbox_loc_flat
I0123 08:15:27.651893    77 net.cpp:331] Setting up layer_19_2_2_mbox_loc_flat
I0123 08:15:27.651902    77 net.cpp:338] Top shape: 64 600 (38400)
I0123 08:15:27.651909    77 net.cpp:347] Memory required for data: 7779001248
I0123 08:15:27.651914    77 net.cpp:349] Biggest Memory of single blob: 552960000
I0123 08:15:27.651921    77 layer_factory.hpp:114] Creating layer layer_19_2_2_mbox_conf/depthwise
I0123 08:15:27.651932    77 net.cpp:262] Creating Layer layer_19_2_2_mbox_conf/depthwise
I0123 08:15:27.651939    77 net.cpp:1712] layer_19_2_2_mbox_conf/depthwise <- layer_19_2_2_layer_19_2_2/relu_0_split_2
I0123 08:15:27.651952    77 net.cpp:1686] layer_19_2_2_mbox_conf/depthwise -> layer_19_2_2_mbox_conf/depthwise
I0123 08:15:27.652022    77 net.cpp:331] Setting up layer_19_2_2_mbox_conf/depthwise
I0123 08:15:27.652031    77 net.cpp:338] Top shape: 64 512 5 5 (819200)
I0123 08:15:27.652038    77 net.cpp:347] Memory required for data: 7782278048
I0123 08:15:27.652042    77 net.cpp:349] Biggest Memory of single blob: 552960000
I0123 08:15:27.652048    77 layer_factory.hpp:114] Creating layer layer_19_2_2_mbox_conf/depthwise/bn
I0123 08:15:27.652060    77 net.cpp:262] Creating Layer layer_19_2_2_mbox_conf/depthwise/bn
I0123 08:15:27.652067    77 net.cpp:1712] layer_19_2_2_mbox_conf/depthwise/bn <- layer_19_2_2_mbox_conf/depthwise
I0123 08:15:27.652087    77 net.cpp:1673] layer_19_2_2_mbox_conf/depthwise/bn -> layer_19_2_2_mbox_conf/depthwise (in-place)
I0123 08:15:27.652117    77 net.cpp:331] Setting up layer_19_2_2_mbox_conf/depthwise/bn
I0123 08:15:27.652127    77 net.cpp:338] Top shape: 64 512 5 5 (819200)
I0123 08:15:27.652132    77 net.cpp:347] Memory required for data: 7785554848
I0123 08:15:27.652137    77 net.cpp:349] Biggest Memory of single blob: 552960000
I0123 08:15:27.652145    77 layer_factory.hpp:114] Creating layer layer_19_2_2_mbox_conf/depthwise/relu
I0123 08:15:27.652158    77 net.cpp:262] Creating Layer layer_19_2_2_mbox_conf/depthwise/relu
I0123 08:15:27.652165    77 net.cpp:1712] layer_19_2_2_mbox_conf/depthwise/relu <- layer_19_2_2_mbox_conf/depthwise
I0123 08:15:27.652179    77 net.cpp:1673] layer_19_2_2_mbox_conf/depthwise/relu -> layer_19_2_2_mbox_conf/depthwise (in-place)
I0123 08:15:27.652189    77 net.cpp:331] Setting up layer_19_2_2_mbox_conf/depthwise/relu
I0123 08:15:27.652194    77 net.cpp:338] Top shape: 64 512 5 5 (819200)
I0123 08:15:27.652201    77 net.cpp:347] Memory required for data: 7788831648
I0123 08:15:27.652204    77 net.cpp:349] Biggest Memory of single blob: 552960000
I0123 08:15:27.652209    77 layer_factory.hpp:114] Creating layer layer_19_2_2_mbox_conf_new
I0123 08:15:27.652220    77 net.cpp:262] Creating Layer layer_19_2_2_mbox_conf_new
I0123 08:15:27.652226    77 net.cpp:1712] layer_19_2_2_mbox_conf_new <- layer_19_2_2_mbox_conf/depthwise
I0123 08:15:27.652238    77 net.cpp:1686] layer_19_2_2_mbox_conf_new -> layer_19_2_2_mbox_conf_new
I0123 08:15:27.652814    77 net.cpp:331] Setting up layer_19_2_2_mbox_conf_new
I0123 08:15:27.652824    77 net.cpp:338] Top shape: 64 126 5 5 (201600)
I0123 08:15:27.652828    77 net.cpp:347] Memory required for data: 7789638048
I0123 08:15:27.652833    77 net.cpp:349] Biggest Memory of single blob: 552960000
I0123 08:15:27.652839    77 layer_factory.hpp:114] Creating layer layer_19_2_2_mbox_conf_perm
I0123 08:15:27.652848    77 net.cpp:262] Creating Layer layer_19_2_2_mbox_conf_perm
I0123 08:15:27.652853    77 net.cpp:1712] layer_19_2_2_mbox_conf_perm <- layer_19_2_2_mbox_conf_new
I0123 08:15:27.652860    77 net.cpp:1686] layer_19_2_2_mbox_conf_perm -> layer_19_2_2_mbox_conf_perm
I0123 08:15:27.652873    77 net.cpp:331] Setting up layer_19_2_2_mbox_conf_perm
I0123 08:15:27.652881    77 net.cpp:338] Top shape: 64 5 5 126 (201600)
I0123 08:15:27.652886    77 net.cpp:347] Memory required for data: 7790444448
I0123 08:15:27.652890    77 net.cpp:349] Biggest Memory of single blob: 552960000
I0123 08:15:27.652895    77 layer_factory.hpp:114] Creating layer layer_19_2_2_mbox_conf_flat
I0123 08:15:27.652902    77 net.cpp:262] Creating Layer layer_19_2_2_mbox_conf_flat
I0123 08:15:27.652907    77 net.cpp:1712] layer_19_2_2_mbox_conf_flat <- layer_19_2_2_mbox_conf_perm
I0123 08:15:27.652913    77 net.cpp:1686] layer_19_2_2_mbox_conf_flat -> layer_19_2_2_mbox_conf_flat
I0123 08:15:27.652921    77 net.cpp:331] Setting up layer_19_2_2_mbox_conf_flat
I0123 08:15:27.652930    77 net.cpp:338] Top shape: 64 3150 (201600)
I0123 08:15:27.652936    77 net.cpp:347] Memory required for data: 7791250848
I0123 08:15:27.652942    77 net.cpp:349] Biggest Memory of single blob: 552960000
I0123 08:15:27.652949    77 layer_factory.hpp:114] Creating layer layer_19_2_2_mbox_priorbox
I0123 08:15:27.652956    77 net.cpp:262] Creating Layer layer_19_2_2_mbox_priorbox
I0123 08:15:27.652961    77 net.cpp:1712] layer_19_2_2_mbox_priorbox <- layer_19_2_2_layer_19_2_2/relu_0_split_3
I0123 08:15:27.652966    77 net.cpp:1712] layer_19_2_2_mbox_priorbox <- data_data_0_split_3
I0123 08:15:27.652974    77 net.cpp:1686] layer_19_2_2_mbox_priorbox -> layer_19_2_2_mbox_priorbox
I0123 08:15:27.652985    77 net.cpp:331] Setting up layer_19_2_2_mbox_priorbox
I0123 08:15:27.652992    77 net.cpp:338] Top shape: 1 2 600 (1200)
I0123 08:15:27.652997    77 net.cpp:347] Memory required for data: 7791255648
I0123 08:15:27.652999    77 net.cpp:349] Biggest Memory of single blob: 552960000
I0123 08:15:27.653015    77 layer_factory.hpp:114] Creating layer layer_19_2_3_mbox_loc/depthwise
I0123 08:15:27.653029    77 net.cpp:262] Creating Layer layer_19_2_3_mbox_loc/depthwise
I0123 08:15:27.653034    77 net.cpp:1712] layer_19_2_3_mbox_loc/depthwise <- layer_19_2_3_layer_19_2_3/relu_0_split_1
I0123 08:15:27.653043    77 net.cpp:1686] layer_19_2_3_mbox_loc/depthwise -> layer_19_2_3_mbox_loc/depthwise
I0123 08:15:27.653084    77 net.cpp:331] Setting up layer_19_2_3_mbox_loc/depthwise
I0123 08:15:27.653090    77 net.cpp:338] Top shape: 64 256 3 3 (147456)
I0123 08:15:27.653095    77 net.cpp:347] Memory required for data: 7791845472
I0123 08:15:27.653100    77 net.cpp:349] Biggest Memory of single blob: 552960000
I0123 08:15:27.653105    77 layer_factory.hpp:114] Creating layer layer_19_2_3_mbox_loc/depthwise/bn
I0123 08:15:27.653115    77 net.cpp:262] Creating Layer layer_19_2_3_mbox_loc/depthwise/bn
I0123 08:15:27.653120    77 net.cpp:1712] layer_19_2_3_mbox_loc/depthwise/bn <- layer_19_2_3_mbox_loc/depthwise
I0123 08:15:27.653126    77 net.cpp:1673] layer_19_2_3_mbox_loc/depthwise/bn -> layer_19_2_3_mbox_loc/depthwise (in-place)
I0123 08:15:27.653146    77 net.cpp:331] Setting up layer_19_2_3_mbox_loc/depthwise/bn
I0123 08:15:27.653154    77 net.cpp:338] Top shape: 64 256 3 3 (147456)
I0123 08:15:27.653160    77 net.cpp:347] Memory required for data: 7792435296
I0123 08:15:27.653163    77 net.cpp:349] Biggest Memory of single blob: 552960000
I0123 08:15:27.653172    77 layer_factory.hpp:114] Creating layer layer_19_2_3_mbox_loc/depthwise/relu
I0123 08:15:27.653178    77 net.cpp:262] Creating Layer layer_19_2_3_mbox_loc/depthwise/relu
I0123 08:15:27.653183    77 net.cpp:1712] layer_19_2_3_mbox_loc/depthwise/relu <- layer_19_2_3_mbox_loc/depthwise
I0123 08:15:27.653188    77 net.cpp:1673] layer_19_2_3_mbox_loc/depthwise/relu -> layer_19_2_3_mbox_loc/depthwise (in-place)
I0123 08:15:27.653195    77 net.cpp:331] Setting up layer_19_2_3_mbox_loc/depthwise/relu
I0123 08:15:27.653203    77 net.cpp:338] Top shape: 64 256 3 3 (147456)
I0123 08:15:27.653208    77 net.cpp:347] Memory required for data: 7793025120
I0123 08:15:27.653211    77 net.cpp:349] Biggest Memory of single blob: 552960000
I0123 08:15:27.653216    77 layer_factory.hpp:114] Creating layer layer_19_2_3_mbox_loc
I0123 08:15:27.653225    77 net.cpp:262] Creating Layer layer_19_2_3_mbox_loc
I0123 08:15:27.653231    77 net.cpp:1712] layer_19_2_3_mbox_loc <- layer_19_2_3_mbox_loc/depthwise
I0123 08:15:27.653242    77 net.cpp:1686] layer_19_2_3_mbox_loc -> layer_19_2_3_mbox_loc
I0123 08:15:27.653312    77 net.cpp:331] Setting up layer_19_2_3_mbox_loc
I0123 08:15:27.653319    77 net.cpp:338] Top shape: 64 24 3 3 (13824)
I0123 08:15:27.653324    77 net.cpp:347] Memory required for data: 7793080416
I0123 08:15:27.653328    77 net.cpp:349] Biggest Memory of single blob: 552960000
I0123 08:15:27.653333    77 layer_factory.hpp:114] Creating layer layer_19_2_3_mbox_loc_perm
I0123 08:15:27.653342    77 net.cpp:262] Creating Layer layer_19_2_3_mbox_loc_perm
I0123 08:15:27.653347    77 net.cpp:1712] layer_19_2_3_mbox_loc_perm <- layer_19_2_3_mbox_loc
I0123 08:15:27.653353    77 net.cpp:1686] layer_19_2_3_mbox_loc_perm -> layer_19_2_3_mbox_loc_perm
I0123 08:15:27.653364    77 net.cpp:331] Setting up layer_19_2_3_mbox_loc_perm
I0123 08:15:27.653370    77 net.cpp:338] Top shape: 64 3 3 24 (13824)
I0123 08:15:27.653374    77 net.cpp:347] Memory required for data: 7793135712
I0123 08:15:27.653379    77 net.cpp:349] Biggest Memory of single blob: 552960000
I0123 08:15:27.653383    77 layer_factory.hpp:114] Creating layer layer_19_2_3_mbox_loc_flat
I0123 08:15:27.653389    77 net.cpp:262] Creating Layer layer_19_2_3_mbox_loc_flat
I0123 08:15:27.653393    77 net.cpp:1712] layer_19_2_3_mbox_loc_flat <- layer_19_2_3_mbox_loc_perm
I0123 08:15:27.653403    77 net.cpp:1686] layer_19_2_3_mbox_loc_flat -> layer_19_2_3_mbox_loc_flat
I0123 08:15:27.653414    77 net.cpp:331] Setting up layer_19_2_3_mbox_loc_flat
I0123 08:15:27.653422    77 net.cpp:338] Top shape: 64 216 (13824)
I0123 08:15:27.653439    77 net.cpp:347] Memory required for data: 7793191008
I0123 08:15:27.653445    77 net.cpp:349] Biggest Memory of single blob: 552960000
I0123 08:15:27.653447    77 layer_factory.hpp:114] Creating layer layer_19_2_3_mbox_conf/depthwise
I0123 08:15:27.653457    77 net.cpp:262] Creating Layer layer_19_2_3_mbox_conf/depthwise
I0123 08:15:27.653462    77 net.cpp:1712] layer_19_2_3_mbox_conf/depthwise <- layer_19_2_3_layer_19_2_3/relu_0_split_2
I0123 08:15:27.653470    77 net.cpp:1686] layer_19_2_3_mbox_conf/depthwise -> layer_19_2_3_mbox_conf/depthwise
I0123 08:15:27.653532    77 net.cpp:331] Setting up layer_19_2_3_mbox_conf/depthwise
I0123 08:15:27.653540    77 net.cpp:338] Top shape: 64 256 3 3 (147456)
I0123 08:15:27.653544    77 net.cpp:347] Memory required for data: 7793780832
I0123 08:15:27.653549    77 net.cpp:349] Biggest Memory of single blob: 552960000
I0123 08:15:27.653554    77 layer_factory.hpp:114] Creating layer layer_19_2_3_mbox_conf/depthwise/bn
I0123 08:15:27.653563    77 net.cpp:262] Creating Layer layer_19_2_3_mbox_conf/depthwise/bn
I0123 08:15:27.653568    77 net.cpp:1712] layer_19_2_3_mbox_conf/depthwise/bn <- layer_19_2_3_mbox_conf/depthwise
I0123 08:15:27.653575    77 net.cpp:1673] layer_19_2_3_mbox_conf/depthwise/bn -> layer_19_2_3_mbox_conf/depthwise (in-place)
I0123 08:15:27.653590    77 net.cpp:331] Setting up layer_19_2_3_mbox_conf/depthwise/bn
I0123 08:15:27.653596    77 net.cpp:338] Top shape: 64 256 3 3 (147456)
I0123 08:15:27.653600    77 net.cpp:347] Memory required for data: 7794370656
I0123 08:15:27.653605    77 net.cpp:349] Biggest Memory of single blob: 552960000
I0123 08:15:27.653614    77 layer_factory.hpp:114] Creating layer layer_19_2_3_mbox_conf/depthwise/relu
I0123 08:15:27.653621    77 net.cpp:262] Creating Layer layer_19_2_3_mbox_conf/depthwise/relu
I0123 08:15:27.653628    77 net.cpp:1712] layer_19_2_3_mbox_conf/depthwise/relu <- layer_19_2_3_mbox_conf/depthwise
I0123 08:15:27.653636    77 net.cpp:1673] layer_19_2_3_mbox_conf/depthwise/relu -> layer_19_2_3_mbox_conf/depthwise (in-place)
I0123 08:15:27.653647    77 net.cpp:331] Setting up layer_19_2_3_mbox_conf/depthwise/relu
I0123 08:15:27.653653    77 net.cpp:338] Top shape: 64 256 3 3 (147456)
I0123 08:15:27.653657    77 net.cpp:347] Memory required for data: 7794960480
I0123 08:15:27.653661    77 net.cpp:349] Biggest Memory of single blob: 552960000
I0123 08:15:27.653664    77 layer_factory.hpp:114] Creating layer layer_19_2_3_mbox_conf_new
I0123 08:15:27.653673    77 net.cpp:262] Creating Layer layer_19_2_3_mbox_conf_new
I0123 08:15:27.653678    77 net.cpp:1712] layer_19_2_3_mbox_conf_new <- layer_19_2_3_mbox_conf/depthwise
I0123 08:15:27.653687    77 net.cpp:1686] layer_19_2_3_mbox_conf_new -> layer_19_2_3_mbox_conf_new
I0123 08:15:27.653986    77 net.cpp:331] Setting up layer_19_2_3_mbox_conf_new
I0123 08:15:27.653996    77 net.cpp:338] Top shape: 64 126 3 3 (72576)
I0123 08:15:27.654001    77 net.cpp:347] Memory required for data: 7795250784
I0123 08:15:27.654006    77 net.cpp:349] Biggest Memory of single blob: 552960000
I0123 08:15:27.654016    77 layer_factory.hpp:114] Creating layer layer_19_2_3_mbox_conf_perm
I0123 08:15:27.654024    77 net.cpp:262] Creating Layer layer_19_2_3_mbox_conf_perm
I0123 08:15:27.654029    77 net.cpp:1712] layer_19_2_3_mbox_conf_perm <- layer_19_2_3_mbox_conf_new
I0123 08:15:27.654037    77 net.cpp:1686] layer_19_2_3_mbox_conf_perm -> layer_19_2_3_mbox_conf_perm
I0123 08:15:27.654050    77 net.cpp:331] Setting up layer_19_2_3_mbox_conf_perm
I0123 08:15:27.654057    77 net.cpp:338] Top shape: 64 3 3 126 (72576)
I0123 08:15:27.654059    77 net.cpp:347] Memory required for data: 7795541088
I0123 08:15:27.654062    77 net.cpp:349] Biggest Memory of single blob: 552960000
I0123 08:15:27.654067    77 layer_factory.hpp:114] Creating layer layer_19_2_3_mbox_conf_flat
I0123 08:15:27.654072    77 net.cpp:262] Creating Layer layer_19_2_3_mbox_conf_flat
I0123 08:15:27.654076    77 net.cpp:1712] layer_19_2_3_mbox_conf_flat <- layer_19_2_3_mbox_conf_perm
I0123 08:15:27.654091    77 net.cpp:1686] layer_19_2_3_mbox_conf_flat -> layer_19_2_3_mbox_conf_flat
I0123 08:15:27.654100    77 net.cpp:331] Setting up layer_19_2_3_mbox_conf_flat
I0123 08:15:27.654106    77 net.cpp:338] Top shape: 64 1134 (72576)
I0123 08:15:27.654110    77 net.cpp:347] Memory required for data: 7795831392
I0123 08:15:27.654114    77 net.cpp:349] Biggest Memory of single blob: 552960000
I0123 08:15:27.654119    77 layer_factory.hpp:114] Creating layer layer_19_2_3_mbox_priorbox
I0123 08:15:27.654124    77 net.cpp:262] Creating Layer layer_19_2_3_mbox_priorbox
I0123 08:15:27.654129    77 net.cpp:1712] layer_19_2_3_mbox_priorbox <- layer_19_2_3_layer_19_2_3/relu_0_split_3
I0123 08:15:27.654134    77 net.cpp:1712] layer_19_2_3_mbox_priorbox <- data_data_0_split_4
I0123 08:15:27.654141    77 net.cpp:1686] layer_19_2_3_mbox_priorbox -> layer_19_2_3_mbox_priorbox
I0123 08:15:27.654150    77 net.cpp:331] Setting up layer_19_2_3_mbox_priorbox
I0123 08:15:27.654155    77 net.cpp:338] Top shape: 1 2 216 (432)
I0123 08:15:27.654160    77 net.cpp:347] Memory required for data: 7795833120
I0123 08:15:27.654163    77 net.cpp:349] Biggest Memory of single blob: 552960000
I0123 08:15:27.654167    77 layer_factory.hpp:114] Creating layer layer_19_2_4_mbox_loc/depthwise
I0123 08:15:27.654178    77 net.cpp:262] Creating Layer layer_19_2_4_mbox_loc/depthwise
I0123 08:15:27.654182    77 net.cpp:1712] layer_19_2_4_mbox_loc/depthwise <- layer_19_2_4_layer_19_2_4/relu_0_split_1
I0123 08:15:27.654188    77 net.cpp:1686] layer_19_2_4_mbox_loc/depthwise -> layer_19_2_4_mbox_loc/depthwise
I0123 08:15:27.654225    77 net.cpp:331] Setting up layer_19_2_4_mbox_loc/depthwise
I0123 08:15:27.654232    77 net.cpp:338] Top shape: 64 256 2 2 (65536)
I0123 08:15:27.654235    77 net.cpp:347] Memory required for data: 7796095264
I0123 08:15:27.654239    77 net.cpp:349] Biggest Memory of single blob: 552960000
I0123 08:15:27.654244    77 layer_factory.hpp:114] Creating layer layer_19_2_4_mbox_loc/depthwise/bn
I0123 08:15:27.654253    77 net.cpp:262] Creating Layer layer_19_2_4_mbox_loc/depthwise/bn
I0123 08:15:27.654258    77 net.cpp:1712] layer_19_2_4_mbox_loc/depthwise/bn <- layer_19_2_4_mbox_loc/depthwise
I0123 08:15:27.654266    77 net.cpp:1673] layer_19_2_4_mbox_loc/depthwise/bn -> layer_19_2_4_mbox_loc/depthwise (in-place)
I0123 08:15:27.654282    77 net.cpp:331] Setting up layer_19_2_4_mbox_loc/depthwise/bn
I0123 08:15:27.654289    77 net.cpp:338] Top shape: 64 256 2 2 (65536)
I0123 08:15:27.654294    77 net.cpp:347] Memory required for data: 7796357408
I0123 08:15:27.654297    77 net.cpp:349] Biggest Memory of single blob: 552960000
I0123 08:15:27.654306    77 layer_factory.hpp:114] Creating layer layer_19_2_4_mbox_loc/depthwise/relu
I0123 08:15:27.654314    77 net.cpp:262] Creating Layer layer_19_2_4_mbox_loc/depthwise/relu
I0123 08:15:27.654320    77 net.cpp:1712] layer_19_2_4_mbox_loc/depthwise/relu <- layer_19_2_4_mbox_loc/depthwise
I0123 08:15:27.654325    77 net.cpp:1673] layer_19_2_4_mbox_loc/depthwise/relu -> layer_19_2_4_mbox_loc/depthwise (in-place)
I0123 08:15:27.654332    77 net.cpp:331] Setting up layer_19_2_4_mbox_loc/depthwise/relu
I0123 08:15:27.654338    77 net.cpp:338] Top shape: 64 256 2 2 (65536)
I0123 08:15:27.654342    77 net.cpp:347] Memory required for data: 7796619552
I0123 08:15:27.654347    77 net.cpp:349] Biggest Memory of single blob: 552960000
I0123 08:15:27.654352    77 layer_factory.hpp:114] Creating layer layer_19_2_4_mbox_loc
I0123 08:15:27.654363    77 net.cpp:262] Creating Layer layer_19_2_4_mbox_loc
I0123 08:15:27.654368    77 net.cpp:1712] layer_19_2_4_mbox_loc <- layer_19_2_4_mbox_loc/depthwise
I0123 08:15:27.654376    77 net.cpp:1686] layer_19_2_4_mbox_loc -> layer_19_2_4_mbox_loc
I0123 08:15:27.654441    77 net.cpp:331] Setting up layer_19_2_4_mbox_loc
I0123 08:15:27.654448    77 net.cpp:338] Top shape: 64 24 2 2 (6144)
I0123 08:15:27.654453    77 net.cpp:347] Memory required for data: 7796644128
I0123 08:15:27.654456    77 net.cpp:349] Biggest Memory of single blob: 552960000
I0123 08:15:27.654469    77 layer_factory.hpp:114] Creating layer layer_19_2_4_mbox_loc_perm
I0123 08:15:27.654475    77 net.cpp:262] Creating Layer layer_19_2_4_mbox_loc_perm
I0123 08:15:27.654480    77 net.cpp:1712] layer_19_2_4_mbox_loc_perm <- layer_19_2_4_mbox_loc
I0123 08:15:27.654486    77 net.cpp:1686] layer_19_2_4_mbox_loc_perm -> layer_19_2_4_mbox_loc_perm
I0123 08:15:27.654498    77 net.cpp:331] Setting up layer_19_2_4_mbox_loc_perm
I0123 08:15:27.654505    77 net.cpp:338] Top shape: 64 2 2 24 (6144)
I0123 08:15:27.654510    77 net.cpp:347] Memory required for data: 7796668704
I0123 08:15:27.654513    77 net.cpp:349] Biggest Memory of single blob: 552960000
I0123 08:15:27.654517    77 layer_factory.hpp:114] Creating layer layer_19_2_4_mbox_loc_flat
I0123 08:15:27.654525    77 net.cpp:262] Creating Layer layer_19_2_4_mbox_loc_flat
I0123 08:15:27.654529    77 net.cpp:1712] layer_19_2_4_mbox_loc_flat <- layer_19_2_4_mbox_loc_perm
I0123 08:15:27.654536    77 net.cpp:1686] layer_19_2_4_mbox_loc_flat -> layer_19_2_4_mbox_loc_flat
I0123 08:15:27.654542    77 net.cpp:331] Setting up layer_19_2_4_mbox_loc_flat
I0123 08:15:27.654547    77 net.cpp:338] Top shape: 64 96 (6144)
I0123 08:15:27.654552    77 net.cpp:347] Memory required for data: 7796693280
I0123 08:15:27.654556    77 net.cpp:349] Biggest Memory of single blob: 552960000
I0123 08:15:27.654559    77 layer_factory.hpp:114] Creating layer layer_19_2_4_mbox_conf/depthwise
I0123 08:15:27.654569    77 net.cpp:262] Creating Layer layer_19_2_4_mbox_conf/depthwise
I0123 08:15:27.654574    77 net.cpp:1712] layer_19_2_4_mbox_conf/depthwise <- layer_19_2_4_layer_19_2_4/relu_0_split_2
I0123 08:15:27.654582    77 net.cpp:1686] layer_19_2_4_mbox_conf/depthwise -> layer_19_2_4_mbox_conf/depthwise
I0123 08:15:27.654619    77 net.cpp:331] Setting up layer_19_2_4_mbox_conf/depthwise
I0123 08:15:27.654626    77 net.cpp:338] Top shape: 64 256 2 2 (65536)
I0123 08:15:27.654631    77 net.cpp:347] Memory required for data: 7796955424
I0123 08:15:27.654635    77 net.cpp:349] Biggest Memory of single blob: 552960000
I0123 08:15:27.654639    77 layer_factory.hpp:114] Creating layer layer_19_2_4_mbox_conf/depthwise/bn
I0123 08:15:27.654649    77 net.cpp:262] Creating Layer layer_19_2_4_mbox_conf/depthwise/bn
I0123 08:15:27.654654    77 net.cpp:1712] layer_19_2_4_mbox_conf/depthwise/bn <- layer_19_2_4_mbox_conf/depthwise
I0123 08:15:27.654660    77 net.cpp:1673] layer_19_2_4_mbox_conf/depthwise/bn -> layer_19_2_4_mbox_conf/depthwise (in-place)
I0123 08:15:27.654675    77 net.cpp:331] Setting up layer_19_2_4_mbox_conf/depthwise/bn
I0123 08:15:27.654685    77 net.cpp:338] Top shape: 64 256 2 2 (65536)
I0123 08:15:27.654690    77 net.cpp:347] Memory required for data: 7797217568
I0123 08:15:27.654695    77 net.cpp:349] Biggest Memory of single blob: 552960000
I0123 08:15:27.654703    77 layer_factory.hpp:114] Creating layer layer_19_2_4_mbox_conf/depthwise/relu
I0123 08:15:27.654711    77 net.cpp:262] Creating Layer layer_19_2_4_mbox_conf/depthwise/relu
I0123 08:15:27.654716    77 net.cpp:1712] layer_19_2_4_mbox_conf/depthwise/relu <- layer_19_2_4_mbox_conf/depthwise
I0123 08:15:27.654722    77 net.cpp:1673] layer_19_2_4_mbox_conf/depthwise/relu -> layer_19_2_4_mbox_conf/depthwise (in-place)
I0123 08:15:27.654731    77 net.cpp:331] Setting up layer_19_2_4_mbox_conf/depthwise/relu
I0123 08:15:27.654736    77 net.cpp:338] Top shape: 64 256 2 2 (65536)
I0123 08:15:27.654740    77 net.cpp:347] Memory required for data: 7797479712
I0123 08:15:27.654744    77 net.cpp:349] Biggest Memory of single blob: 552960000
I0123 08:15:27.654748    77 layer_factory.hpp:114] Creating layer layer_19_2_4_mbox_conf_new
I0123 08:15:27.654757    77 net.cpp:262] Creating Layer layer_19_2_4_mbox_conf_new
I0123 08:15:27.654762    77 net.cpp:1712] layer_19_2_4_mbox_conf_new <- layer_19_2_4_mbox_conf/depthwise
I0123 08:15:27.654768    77 net.cpp:1686] layer_19_2_4_mbox_conf_new -> layer_19_2_4_mbox_conf_new
I0123 08:15:27.655058    77 net.cpp:331] Setting up layer_19_2_4_mbox_conf_new
I0123 08:15:27.655066    77 net.cpp:338] Top shape: 64 126 2 2 (32256)
I0123 08:15:27.655077    77 net.cpp:347] Memory required for data: 7797608736
I0123 08:15:27.655081    77 net.cpp:349] Biggest Memory of single blob: 552960000
I0123 08:15:27.655087    77 layer_factory.hpp:114] Creating layer layer_19_2_4_mbox_conf_perm
I0123 08:15:27.655095    77 net.cpp:262] Creating Layer layer_19_2_4_mbox_conf_perm
I0123 08:15:27.655100    77 net.cpp:1712] layer_19_2_4_mbox_conf_perm <- layer_19_2_4_mbox_conf_new
I0123 08:15:27.655107    77 net.cpp:1686] layer_19_2_4_mbox_conf_perm -> layer_19_2_4_mbox_conf_perm
I0123 08:15:27.655118    77 net.cpp:331] Setting up layer_19_2_4_mbox_conf_perm
I0123 08:15:27.655124    77 net.cpp:338] Top shape: 64 2 2 126 (32256)
I0123 08:15:27.655128    77 net.cpp:347] Memory required for data: 7797737760
I0123 08:15:27.655131    77 net.cpp:349] Biggest Memory of single blob: 552960000
I0123 08:15:27.655136    77 layer_factory.hpp:114] Creating layer layer_19_2_4_mbox_conf_flat
I0123 08:15:27.655143    77 net.cpp:262] Creating Layer layer_19_2_4_mbox_conf_flat
I0123 08:15:27.655148    77 net.cpp:1712] layer_19_2_4_mbox_conf_flat <- layer_19_2_4_mbox_conf_perm
I0123 08:15:27.655154    77 net.cpp:1686] layer_19_2_4_mbox_conf_flat -> layer_19_2_4_mbox_conf_flat
I0123 08:15:27.655161    77 net.cpp:331] Setting up layer_19_2_4_mbox_conf_flat
I0123 08:15:27.655166    77 net.cpp:338] Top shape: 64 504 (32256)
I0123 08:15:27.655170    77 net.cpp:347] Memory required for data: 7797866784
I0123 08:15:27.655174    77 net.cpp:349] Biggest Memory of single blob: 552960000
I0123 08:15:27.655179    77 layer_factory.hpp:114] Creating layer layer_19_2_4_mbox_priorbox
I0123 08:15:27.655184    77 net.cpp:262] Creating Layer layer_19_2_4_mbox_priorbox
I0123 08:15:27.655189    77 net.cpp:1712] layer_19_2_4_mbox_priorbox <- layer_19_2_4_layer_19_2_4/relu_0_split_3
I0123 08:15:27.655194    77 net.cpp:1712] layer_19_2_4_mbox_priorbox <- data_data_0_split_5
I0123 08:15:27.655202    77 net.cpp:1686] layer_19_2_4_mbox_priorbox -> layer_19_2_4_mbox_priorbox
I0123 08:15:27.655211    77 net.cpp:331] Setting up layer_19_2_4_mbox_priorbox
I0123 08:15:27.655216    77 net.cpp:338] Top shape: 1 2 96 (192)
I0123 08:15:27.655221    77 net.cpp:347] Memory required for data: 7797867552
I0123 08:15:27.655225    77 net.cpp:349] Biggest Memory of single blob: 552960000
I0123 08:15:27.655230    77 layer_factory.hpp:114] Creating layer layer_19_2_5_mbox_loc/depthwise
I0123 08:15:27.655239    77 net.cpp:262] Creating Layer layer_19_2_5_mbox_loc/depthwise
I0123 08:15:27.655244    77 net.cpp:1712] layer_19_2_5_mbox_loc/depthwise <- layer_19_2_5_layer_19_2_5/relu_0_split_0
I0123 08:15:27.655251    77 net.cpp:1686] layer_19_2_5_mbox_loc/depthwise -> layer_19_2_5_mbox_loc/depthwise
I0123 08:15:27.655277    77 net.cpp:331] Setting up layer_19_2_5_mbox_loc/depthwise
I0123 08:15:27.655282    77 net.cpp:338] Top shape: 64 128 1 1 (8192)
I0123 08:15:27.655287    77 net.cpp:347] Memory required for data: 7797900320
I0123 08:15:27.655292    77 net.cpp:349] Biggest Memory of single blob: 552960000
I0123 08:15:27.655297    77 layer_factory.hpp:114] Creating layer layer_19_2_5_mbox_loc/depthwise/bn
I0123 08:15:27.655304    77 net.cpp:262] Creating Layer layer_19_2_5_mbox_loc/depthwise/bn
I0123 08:15:27.655309    77 net.cpp:1712] layer_19_2_5_mbox_loc/depthwise/bn <- layer_19_2_5_mbox_loc/depthwise
I0123 08:15:27.655316    77 net.cpp:1673] layer_19_2_5_mbox_loc/depthwise/bn -> layer_19_2_5_mbox_loc/depthwise (in-place)
I0123 08:15:27.655330    77 net.cpp:331] Setting up layer_19_2_5_mbox_loc/depthwise/bn
I0123 08:15:27.655337    77 net.cpp:338] Top shape: 64 128 1 1 (8192)
I0123 08:15:27.655341    77 net.cpp:347] Memory required for data: 7797933088
I0123 08:15:27.655346    77 net.cpp:349] Biggest Memory of single blob: 552960000
I0123 08:15:27.655354    77 layer_factory.hpp:114] Creating layer layer_19_2_5_mbox_loc/depthwise/relu
I0123 08:15:27.655362    77 net.cpp:262] Creating Layer layer_19_2_5_mbox_loc/depthwise/relu
I0123 08:15:27.655367    77 net.cpp:1712] layer_19_2_5_mbox_loc/depthwise/relu <- layer_19_2_5_mbox_loc/depthwise
I0123 08:15:27.655380    77 net.cpp:1673] layer_19_2_5_mbox_loc/depthwise/relu -> layer_19_2_5_mbox_loc/depthwise (in-place)
I0123 08:15:27.655387    77 net.cpp:331] Setting up layer_19_2_5_mbox_loc/depthwise/relu
I0123 08:15:27.655393    77 net.cpp:338] Top shape: 64 128 1 1 (8192)
I0123 08:15:27.655397    77 net.cpp:347] Memory required for data: 7797965856
I0123 08:15:27.655401    77 net.cpp:349] Biggest Memory of single blob: 552960000
I0123 08:15:27.655405    77 layer_factory.hpp:114] Creating layer layer_19_2_5_mbox_loc
I0123 08:15:27.655416    77 net.cpp:262] Creating Layer layer_19_2_5_mbox_loc
I0123 08:15:27.655421    77 net.cpp:1712] layer_19_2_5_mbox_loc <- layer_19_2_5_mbox_loc/depthwise
I0123 08:15:27.655426    77 net.cpp:1686] layer_19_2_5_mbox_loc -> layer_19_2_5_mbox_loc
I0123 08:15:27.655467    77 net.cpp:331] Setting up layer_19_2_5_mbox_loc
I0123 08:15:27.655474    77 net.cpp:338] Top shape: 64 24 1 1 (1536)
I0123 08:15:27.655478    77 net.cpp:347] Memory required for data: 7797972000
I0123 08:15:27.655483    77 net.cpp:349] Biggest Memory of single blob: 552960000
I0123 08:15:27.655488    77 layer_factory.hpp:114] Creating layer layer_19_2_5_mbox_loc_perm
I0123 08:15:27.655496    77 net.cpp:262] Creating Layer layer_19_2_5_mbox_loc_perm
I0123 08:15:27.655501    77 net.cpp:1712] layer_19_2_5_mbox_loc_perm <- layer_19_2_5_mbox_loc
I0123 08:15:27.655508    77 net.cpp:1686] layer_19_2_5_mbox_loc_perm -> layer_19_2_5_mbox_loc_perm
I0123 08:15:27.655519    77 net.cpp:331] Setting up layer_19_2_5_mbox_loc_perm
I0123 08:15:27.655525    77 net.cpp:338] Top shape: 64 1 1 24 (1536)
I0123 08:15:27.655530    77 net.cpp:347] Memory required for data: 7797978144
I0123 08:15:27.655534    77 net.cpp:349] Biggest Memory of single blob: 552960000
I0123 08:15:27.655539    77 layer_factory.hpp:114] Creating layer layer_19_2_5_mbox_loc_flat
I0123 08:15:27.655545    77 net.cpp:262] Creating Layer layer_19_2_5_mbox_loc_flat
I0123 08:15:27.655550    77 net.cpp:1712] layer_19_2_5_mbox_loc_flat <- layer_19_2_5_mbox_loc_perm
I0123 08:15:27.655556    77 net.cpp:1686] layer_19_2_5_mbox_loc_flat -> layer_19_2_5_mbox_loc_flat
I0123 08:15:27.655563    77 net.cpp:331] Setting up layer_19_2_5_mbox_loc_flat
I0123 08:15:27.655570    77 net.cpp:338] Top shape: 64 24 (1536)
I0123 08:15:27.655573    77 net.cpp:347] Memory required for data: 7797984288
I0123 08:15:27.655577    77 net.cpp:349] Biggest Memory of single blob: 552960000
I0123 08:15:27.655581    77 layer_factory.hpp:114] Creating layer layer_19_2_5_mbox_conf/depthwise
I0123 08:15:27.655591    77 net.cpp:262] Creating Layer layer_19_2_5_mbox_conf/depthwise
I0123 08:15:27.655596    77 net.cpp:1712] layer_19_2_5_mbox_conf/depthwise <- layer_19_2_5_layer_19_2_5/relu_0_split_1
I0123 08:15:27.655602    77 net.cpp:1686] layer_19_2_5_mbox_conf/depthwise -> layer_19_2_5_mbox_conf/depthwise
I0123 08:15:27.655627    77 net.cpp:331] Setting up layer_19_2_5_mbox_conf/depthwise
I0123 08:15:27.655634    77 net.cpp:338] Top shape: 64 128 1 1 (8192)
I0123 08:15:27.655639    77 net.cpp:347] Memory required for data: 7798017056
I0123 08:15:27.655642    77 net.cpp:349] Biggest Memory of single blob: 552960000
I0123 08:15:27.655647    77 layer_factory.hpp:114] Creating layer layer_19_2_5_mbox_conf/depthwise/bn
I0123 08:15:27.655655    77 net.cpp:262] Creating Layer layer_19_2_5_mbox_conf/depthwise/bn
I0123 08:15:27.655659    77 net.cpp:1712] layer_19_2_5_mbox_conf/depthwise/bn <- layer_19_2_5_mbox_conf/depthwise
I0123 08:15:27.655666    77 net.cpp:1673] layer_19_2_5_mbox_conf/depthwise/bn -> layer_19_2_5_mbox_conf/depthwise (in-place)
I0123 08:15:27.655681    77 net.cpp:331] Setting up layer_19_2_5_mbox_conf/depthwise/bn
I0123 08:15:27.655689    77 net.cpp:338] Top shape: 64 128 1 1 (8192)
I0123 08:15:27.655692    77 net.cpp:347] Memory required for data: 7798049824
I0123 08:15:27.655696    77 net.cpp:349] Biggest Memory of single blob: 552960000
I0123 08:15:27.655704    77 layer_factory.hpp:114] Creating layer layer_19_2_5_mbox_conf/depthwise/relu
I0123 08:15:27.655714    77 net.cpp:262] Creating Layer layer_19_2_5_mbox_conf/depthwise/relu
I0123 08:15:27.655725    77 net.cpp:1712] layer_19_2_5_mbox_conf/depthwise/relu <- layer_19_2_5_mbox_conf/depthwise
I0123 08:15:27.655731    77 net.cpp:1673] layer_19_2_5_mbox_conf/depthwise/relu -> layer_19_2_5_mbox_conf/depthwise (in-place)
I0123 08:15:27.655738    77 net.cpp:331] Setting up layer_19_2_5_mbox_conf/depthwise/relu
I0123 08:15:27.655745    77 net.cpp:338] Top shape: 64 128 1 1 (8192)
I0123 08:15:27.655750    77 net.cpp:347] Memory required for data: 7798082592
I0123 08:15:27.655753    77 net.cpp:349] Biggest Memory of single blob: 552960000
I0123 08:15:27.655757    77 layer_factory.hpp:114] Creating layer layer_19_2_5_mbox_conf_new
I0123 08:15:27.655766    77 net.cpp:262] Creating Layer layer_19_2_5_mbox_conf_new
I0123 08:15:27.655771    77 net.cpp:1712] layer_19_2_5_mbox_conf_new <- layer_19_2_5_mbox_conf/depthwise
I0123 08:15:27.655778    77 net.cpp:1686] layer_19_2_5_mbox_conf_new -> layer_19_2_5_mbox_conf_new
I0123 08:15:27.655930    77 net.cpp:331] Setting up layer_19_2_5_mbox_conf_new
I0123 08:15:27.655938    77 net.cpp:338] Top shape: 64 126 1 1 (8064)
I0123 08:15:27.655942    77 net.cpp:347] Memory required for data: 7798114848
I0123 08:15:27.655946    77 net.cpp:349] Biggest Memory of single blob: 552960000
I0123 08:15:27.655953    77 layer_factory.hpp:114] Creating layer layer_19_2_5_mbox_conf_perm
I0123 08:15:27.655961    77 net.cpp:262] Creating Layer layer_19_2_5_mbox_conf_perm
I0123 08:15:27.655966    77 net.cpp:1712] layer_19_2_5_mbox_conf_perm <- layer_19_2_5_mbox_conf_new
I0123 08:15:27.655972    77 net.cpp:1686] layer_19_2_5_mbox_conf_perm -> layer_19_2_5_mbox_conf_perm
I0123 08:15:27.655983    77 net.cpp:331] Setting up layer_19_2_5_mbox_conf_perm
I0123 08:15:27.655988    77 net.cpp:338] Top shape: 64 1 1 126 (8064)
I0123 08:15:27.655993    77 net.cpp:347] Memory required for data: 7798147104
I0123 08:15:27.655998    77 net.cpp:349] Biggest Memory of single blob: 552960000
I0123 08:15:27.656002    77 layer_factory.hpp:114] Creating layer layer_19_2_5_mbox_conf_flat
I0123 08:15:27.656010    77 net.cpp:262] Creating Layer layer_19_2_5_mbox_conf_flat
I0123 08:15:27.656014    77 net.cpp:1712] layer_19_2_5_mbox_conf_flat <- layer_19_2_5_mbox_conf_perm
I0123 08:15:27.656021    77 net.cpp:1686] layer_19_2_5_mbox_conf_flat -> layer_19_2_5_mbox_conf_flat
I0123 08:15:27.656029    77 net.cpp:331] Setting up layer_19_2_5_mbox_conf_flat
…
I0123 08:15:27.707535    77 net.cpp:1712] layer_19_1_4 <- layer_19_2_3_layer_19_2_3/relu_0_split_0
I0123 08:15:27.707541    77 net.cpp:1686] layer_19_1_4 -> layer_19_1_4
I0123 08:15:27.707854    77 net.cpp:331] Setting up layer_19_1_4
I0123 08:15:27.707861    77 net.cpp:338] Top shape: 8 128 3 3 (9216)
I0123 08:15:27.707866    77 net.cpp:347] Memory required for data: 531251808
I0123 08:15:27.707870    77 net.cpp:349] Biggest Memory of single blob: 69120000
I0123 08:15:27.707876    77 layer_factory.hpp:114] Creating layer layer_19_2_4/depthwise
I0123 08:15:27.707890    77 net.cpp:262] Creating Layer layer_19_2_4/depthwise
I0123 08:15:27.707902    77 net.cpp:1712] layer_19_2_4/depthwise <- layer_19_1_4
I0123 08:15:27.707911    77 net.cpp:1686] layer_19_2_4/depthwise -> layer_19_2_4/depthwise
I0123 08:15:27.707947    77 net.cpp:331] Setting up layer_19_2_4/depthwise
I0123 08:15:27.707957    77 net.cpp:338] Top shape: 8 128 2 2 (4096)
I0123 08:15:27.707964    77 net.cpp:347] Memory required for data: 531268192
I0123 08:15:27.707970    77 net.cpp:349] Biggest Memory of single blob: 69120000
I0123 08:15:27.707978    77 layer_factory.hpp:114] Creating layer layer_19_2_4
I0123 08:15:27.707989    77 net.cpp:262] Creating Layer layer_19_2_4
I0123 08:15:27.707994    77 net.cpp:1712] layer_19_2_4 <- layer_19_2_4/depthwise
I0123 08:15:27.708003    77 net.cpp:1686] layer_19_2_4 -> layer_19_2_4
I0123 08:15:27.708307    77 net.cpp:331] Setting up layer_19_2_4
I0123 08:15:27.708317    77 net.cpp:338] Top shape: 8 256 2 2 (8192)
I0123 08:15:27.708320    77 net.cpp:347] Memory required for data: 531300960
I0123 08:15:27.708324    77 net.cpp:349] Biggest Memory of single blob: 69120000
I0123 08:15:27.708331    77 layer_factory.hpp:114] Creating layer layer_19_2_4_layer_19_2_4/relu_0_split
I0123 08:15:27.708341    77 net.cpp:262] Creating Layer layer_19_2_4_layer_19_2_4/relu_0_split
I0123 08:15:27.708346    77 net.cpp:1712] layer_19_2_4_layer_19_2_4/relu_0_split <- layer_19_2_4
I0123 08:15:27.708353    77 net.cpp:1686] layer_19_2_4_layer_19_2_4/relu_0_split -> layer_19_2_4_layer_19_2_4/relu_0_split_0
I0123 08:15:27.708360    77 net.cpp:1686] layer_19_2_4_layer_19_2_4/relu_0_split -> layer_19_2_4_layer_19_2_4/relu_0_split_1
I0123 08:15:27.708369    77 net.cpp:1686] layer_19_2_4_layer_19_2_4/relu_0_split -> layer_19_2_4_layer_19_2_4/relu_0_split_2
I0123 08:15:27.708374    77 net.cpp:1686] layer_19_2_4_layer_19_2_4/relu_0_split -> layer_19_2_4_layer_19_2_4/relu_0_split_3
I0123 08:15:27.708385    77 net.cpp:331] Setting up layer_19_2_4_layer_19_2_4/relu_0_split
I0123 08:15:27.708392    77 net.cpp:338] Top shape: 8 256 2 2 (8192)
I0123 08:15:27.708401    77 net.cpp:338] Top shape: 8 256 2 2 (8192)
I0123 08:15:27.708408    77 net.cpp:338] Top shape: 8 256 2 2 (8192)
I0123 08:15:27.708413    77 net.cpp:338] Top shape: 8 256 2 2 (8192)
I0123 08:15:27.708417    77 net.cpp:347] Memory required for data: 531432032
I0123 08:15:27.708421    77 net.cpp:349] Biggest Memory of single blob: 69120000
I0123 08:15:27.708426    77 layer_factory.hpp:114] Creating layer layer_19_1_5
I0123 08:15:27.708436    77 net.cpp:262] Creating Layer layer_19_1_5
I0123 08:15:27.708441    77 net.cpp:1712] layer_19_1_5 <- layer_19_2_4_layer_19_2_4/relu_0_split_0
I0123 08:15:27.708447    77 net.cpp:1686] layer_19_1_5 -> layer_19_1_5
I0123 08:15:27.708611    77 net.cpp:331] Setting up layer_19_1_5
I0123 08:15:27.708618    77 net.cpp:338] Top shape: 8 64 2 2 (2048)
I0123 08:15:27.708622    77 net.cpp:347] Memory required for data: 531440224
I0123 08:15:27.708627    77 net.cpp:349] Biggest Memory of single blob: 69120000
I0123 08:15:27.708633    77 layer_factory.hpp:114] Creating layer layer_19_2_5/depthwise
I0123 08:15:27.708643    77 net.cpp:262] Creating Layer layer_19_2_5/depthwise
I0123 08:15:27.708648    77 net.cpp:1712] layer_19_2_5/depthwise <- layer_19_1_5
I0123 08:15:27.708657    77 net.cpp:1686] layer_19_2_5/depthwise -> layer_19_2_5/depthwise
I0123 08:15:27.708681    77 net.cpp:331] Setting up layer_19_2_5/depthwise
I0123 08:15:27.708688    77 net.cpp:338] Top shape: 8 64 1 1 (512)
I0123 08:15:27.708693    77 net.cpp:347] Memory required for data: 531442272
I0123 08:15:27.708695    77 net.cpp:349] Biggest Memory of single blob: 69120000
I0123 08:15:27.708703    77 layer_factory.hpp:114] Creating layer layer_19_2_5
I0123 08:15:27.708714    77 net.cpp:262] Creating Layer layer_19_2_5
I0123 08:15:27.708719    77 net.cpp:1712] layer_19_2_5 <- layer_19_2_5/depthwise
I0123 08:15:27.708729    77 net.cpp:1686] layer_19_2_5 -> layer_19_2_5
I0123 08:15:27.708820    77 net.cpp:331] Setting up layer_19_2_5
I0123 08:15:27.708828    77 net.cpp:338] Top shape: 8 128 1 1 (1024)
I0123 08:15:27.708840    77 net.cpp:347] Memory required for data: 531446368
I0123 08:15:27.708845    77 net.cpp:349] Biggest Memory of single blob: 69120000
I0123 08:15:27.708853    77 layer_factory.hpp:114] Creating layer layer_19_2_5_layer_19_2_5/relu_0_split
I0123 08:15:27.708859    77 net.cpp:262] Creating Layer layer_19_2_5_layer_19_2_5/relu_0_split
I0123 08:15:27.708864    77 net.cpp:1712] layer_19_2_5_layer_19_2_5/relu_0_split <- layer_19_2_5
I0123 08:15:27.708871    77 net.cpp:1686] layer_19_2_5_layer_19_2_5/relu_0_split -> layer_19_2_5_layer_19_2_5/relu_0_split_0
I0123 08:15:27.708878    77 net.cpp:1686] layer_19_2_5_layer_19_2_5/relu_0_split -> layer_19_2_5_layer_19_2_5/relu_0_split_1
I0123 08:15:27.708887    77 net.cpp:1686] layer_19_2_5_layer_19_2_5/relu_0_split -> layer_19_2_5_layer_19_2_5/relu_0_split_2
I0123 08:15:27.708900    77 net.cpp:331] Setting up layer_19_2_5_layer_19_2_5/relu_0_split
I0123 08:15:27.708907    77 net.cpp:338] Top shape: 8 128 1 1 (1024)
I0123 08:15:27.708912    77 net.cpp:338] Top shape: 8 128 1 1 (1024)
I0123 08:15:27.708917    77 net.cpp:338] Top shape: 8 128 1 1 (1024)
I0123 08:15:27.708921    77 net.cpp:347] Memory required for data: 531458656
I0123 08:15:27.708925    77 net.cpp:349] Biggest Memory of single blob: 69120000
I0123 08:15:27.708930    77 layer_factory.hpp:114] Creating layer conv_13/expand_mbox_loc/depthwise
I0123 08:15:27.708940    77 net.cpp:262] Creating Layer conv_13/expand_mbox_loc/depthwise
I0123 08:15:27.708945    77 net.cpp:1712] conv_13/expand_mbox_loc/depthwise <- conv_13/expand_conv_13/expand/relu_0_split_1
I0123 08:15:27.708954    77 net.cpp:1686] conv_13/expand_mbox_loc/depthwise -> conv_13/expand_mbox_loc/depthwise
I0123 08:15:27.709022    77 net.cpp:331] Setting up conv_13/expand_mbox_loc/depthwise
I0123 08:15:27.709029    77 net.cpp:338] Top shape: 8 576 19 19 (1663488)
I0123 08:15:27.709033    77 net.cpp:347] Memory required for data: 538112608
I0123 08:15:27.709039    77 net.cpp:349] Biggest Memory of single blob: 69120000
I0123 08:15:27.709059    77 layer_factory.hpp:114] Creating layer conv_13/expand_mbox_loc
I0123 08:15:27.709069    77 net.cpp:262] Creating Layer conv_13/expand_mbox_loc
I0123 08:15:27.709074    77 net.cpp:1712] conv_13/expand_mbox_loc <- conv_13/expand_mbox_loc/depthwise
I0123 08:15:27.709082    77 net.cpp:1686] conv_13/expand_mbox_loc -> conv_13/expand_mbox_loc
I0123 08:15:27.709168    77 net.cpp:331] Setting up conv_13/expand_mbox_loc
I0123 08:15:27.709177    77 net.cpp:338] Top shape: 8 12 19 19 (34656)
I0123 08:15:27.709180    77 net.cpp:347] Memory required for data: 538251232
I0123 08:15:27.709184    77 net.cpp:349] Biggest Memory of single blob: 69120000
I0123 08:15:27.709192    77 layer_factory.hpp:114] Creating layer conv_13/expand_mbox_loc_perm
I0123 08:15:27.709199    77 net.cpp:262] Creating Layer conv_13/expand_mbox_loc_perm
I0123 08:15:27.709204    77 net.cpp:1712] conv_13/expand_mbox_loc_perm <- conv_13/expand_mbox_loc
I0123 08:15:27.709213    77 net.cpp:1686] conv_13/expand_mbox_loc_perm -> conv_13/expand_mbox_loc_perm
I0123 08:15:27.709225    77 net.cpp:331] Setting up conv_13/expand_mbox_loc_perm
I0123 08:15:27.709231    77 net.cpp:338] Top shape: 8 19 19 12 (34656)
I0123 08:15:27.709236    77 net.cpp:347] Memory required for data: 538389856
I0123 08:15:27.709240    77 net.cpp:349] Biggest Memory of single blob: 69120000
I0123 08:15:27.709244    77 layer_factory.hpp:114] Creating layer conv_13/expand_mbox_loc_flat
I0123 08:15:27.709252    77 net.cpp:262] Creating Layer conv_13/expand_mbox_loc_flat
I0123 08:15:27.709260    77 net.cpp:1712] conv_13/expand_mbox_loc_flat <- conv_13/expand_mbox_loc_perm
I0123 08:15:27.709270    77 net.cpp:1686] conv_13/expand_mbox_loc_flat -> conv_13/expand_mbox_loc_flat
I0123 08:15:27.709282    77 net.cpp:331] Setting up conv_13/expand_mbox_loc_flat
I0123 08:15:27.709290    77 net.cpp:338] Top shape: 8 4332 (34656)
I0123 08:15:27.709293    77 net.cpp:347] Memory required for data: 538528480
I0123 08:15:27.709297    77 net.cpp:349] Biggest Memory of single blob: 69120000
I0123 08:15:27.709312    77 layer_factory.hpp:114] Creating layer conv_13/expand_mbox_conf/depthwise
I0123 08:15:27.709326    77 net.cpp:262] Creating Layer conv_13/expand_mbox_conf/depthwise
I0123 08:15:27.709336    77 net.cpp:1712] conv_13/expand_mbox_conf/depthwise <- conv_13/expand_conv_13/expand/relu_0_split_2
I0123 08:15:27.709345    77 net.cpp:1686] conv_13/expand_mbox_conf/depthwise -> conv_13/expand_mbox_conf/depthwise
I0123 08:15:27.709420    77 net.cpp:331] Setting up conv_13/expand_mbox_conf/depthwise
I0123 08:15:27.709429    77 net.cpp:338] Top shape: 8 576 19 19 (1663488)
I0123 08:15:27.709432    77 net.cpp:347] Memory required for data: 545182432
I0123 08:15:27.709436    77 net.cpp:349] Biggest Memory of single blob: 69120000
I0123 08:15:27.709444    77 layer_factory.hpp:114] Creating layer conv_13/expand_mbox_conf_new
I0123 08:15:27.709455    77 net.cpp:262] Creating Layer conv_13/expand_mbox_conf_new
I0123 08:15:27.709458    77 net.cpp:1712] conv_13/expand_mbox_conf_new <- conv_13/expand_mbox_conf/depthwise
I0123 08:15:27.709467    77 net.cpp:1686] conv_13/expand_mbox_conf_new -> conv_13/expand_mbox_conf_new
I0123 08:15:27.709825    77 net.cpp:331] Setting up conv_13/expand_mbox_conf_new
I0123 08:15:27.709836    77 net.cpp:338] Top shape: 8 63 19 19 (181944)
I0123 08:15:27.709841    77 net.cpp:347] Memory required for data: 545910208
I0123 08:15:27.709846    77 net.cpp:349] Biggest Memory of single blob: 69120000
I0123 08:15:27.709852    77 layer_factory.hpp:114] Creating layer conv_13/expand_mbox_conf_perm
I0123 08:15:27.709861    77 net.cpp:262] Creating Layer conv_13/expand_mbox_conf_perm
I0123 08:15:27.709867    77 net.cpp:1712] conv_13/expand_mbox_conf_perm <- conv_13/expand_mbox_conf_new
I0123 08:15:27.709873    77 net.cpp:1686] conv_13/expand_mbox_conf_perm -> conv_13/expand_mbox_conf_perm
I0123 08:15:27.709885    77 net.cpp:331] Setting up conv_13/expand_mbox_conf_perm
I0123 08:15:27.709892    77 net.cpp:338] Top shape: 8 19 19 63 (181944)
I0123 08:15:27.709897    77 net.cpp:347] Memory required for data: 546637984
I0123 08:15:27.709901    77 net.cpp:349] Biggest Memory of single blob: 69120000
I0123 08:15:27.709908    77 layer_factory.hpp:114] Creating layer conv_13/expand_mbox_conf_flat
I0123 08:15:27.709920    77 net.cpp:262] Creating Layer conv_13/expand_mbox_conf_flat
I0123 08:15:27.709926    77 net.cpp:1712] conv_13/expand_mbox_conf_flat <- conv_13/expand_mbox_conf_perm
I0123 08:15:27.709933    77 net.cpp:1686] conv_13/expand_mbox_conf_flat -> conv_13/expand_mbox_conf_flat
I0123 08:15:27.709939    77 net.cpp:331] Setting up conv_13/expand_mbox_conf_flat
I0123 08:15:27.709945    77 net.cpp:338] Top shape: 8 22743 (181944)
I0123 08:15:27.709950    77 net.cpp:347] Memory required for data: 547365760
I0123 08:15:27.709954    77 net.cpp:349] Biggest Memory of single blob: 69120000
I0123 08:15:27.709959    77 layer_factory.hpp:114] Creating layer conv_13/expand_mbox_priorbox
I0123 08:15:27.709967    77 net.cpp:262] Creating Layer conv_13/expand_mbox_priorbox
I0123 08:15:27.709972    77 net.cpp:1712] conv_13/expand_mbox_priorbox <- conv_13/expand_conv_13/expand/relu_0_split_3
I0123 08:15:27.709978    77 net.cpp:1712] conv_13/expand_mbox_priorbox <- data_data_0_split_1
I0123 08:15:27.709990    77 net.cpp:1686] conv_13/expand_mbox_priorbox -> conv_13/expand_mbox_priorbox
I0123 08:15:27.710001    77 net.cpp:331] Setting up conv_13/expand_mbox_priorbox
I0123 08:15:27.710007    77 net.cpp:338] Top shape: 1 2 4332 (8664)
I0123 08:15:27.710011    77 net.cpp:347] Memory required for data: 547400416
I0123 08:15:27.710016    77 net.cpp:349] Biggest Memory of single blob: 69120000
I0123 08:15:27.710019    77 layer_factory.hpp:114] Creating layer Conv_1_mbox_loc/depthwise
I0123 08:15:27.710031    77 net.cpp:262] Creating Layer Conv_1_mbox_loc/depthwise
I0123 08:15:27.710039    77 net.cpp:1712] Conv_1_mbox_loc/depthwise <- Conv_1_Conv_1/relu_0_split_1
I0123 08:15:27.710052    77 net.cpp:1686] Conv_1_mbox_loc/depthwise -> Conv_1_mbox_loc/depthwise
I0123 08:15:27.710180    77 net.cpp:331] Setting up Conv_1_mbox_loc/depthwise
I0123 08:15:27.710197    77 net.cpp:338] Top shape: 8 1280 10 10 (1024000)
I0123 08:15:27.710202    77 net.cpp:347] Memory required for data: 551496416
I0123 08:15:27.710206    77 net.cpp:349] Biggest Memory of single blob: 69120000
I0123 08:15:27.710212    77 layer_factory.hpp:114] Creating layer Conv_1_mbox_loc
I0123 08:15:27.710222    77 net.cpp:262] Creating Layer Conv_1_mbox_loc
I0123 08:15:27.710227    77 net.cpp:1712] Conv_1_mbox_loc <- Conv_1_mbox_loc/depthwise
I0123 08:15:27.710235    77 net.cpp:1686] Conv_1_mbox_loc -> Conv_1_mbox_loc
I0123 08:15:27.710527    77 net.cpp:331] Setting up Conv_1_mbox_loc
I0123 08:15:27.710536    77 net.cpp:338] Top shape: 8 24 10 10 (19200)
I0123 08:15:27.710541    77 net.cpp:347] Memory required for data: 551573216
I0123 08:15:27.710544    77 net.cpp:349] Biggest Memory of single blob: 69120000
I0123 08:15:27.710551    77 layer_factory.hpp:114] Creating layer Conv_1_mbox_loc_perm
I0123 08:15:27.710557    77 net.cpp:262] Creating Layer Conv_1_mbox_loc_perm
I0123 08:15:27.710562    77 net.cpp:1712] Conv_1_mbox_loc_perm <- Conv_1_mbox_loc
I0123 08:15:27.710570    77 net.cpp:1686] Conv_1_mbox_loc_perm -> Conv_1_mbox_loc_perm
I0123 08:15:27.710580    77 net.cpp:331] Setting up Conv_1_mbox_loc_perm
I0123 08:15:27.710587    77 net.cpp:338] Top shape: 8 10 10 24 (19200)
I0123 08:15:27.710590    77 net.cpp:347] Memory required for data: 551650016
I0123 08:15:27.710595    77 net.cpp:349] Biggest Memory of single blob: 69120000
I0123 08:15:27.710599    77 layer_factory.hpp:114] Creating layer Conv_1_mbox_loc_flat
I0123 08:15:27.710606    77 net.cpp:262] Creating Layer Conv_1_mbox_loc_flat
I0123 08:15:27.710611    77 net.cpp:1712] Conv_1_mbox_loc_flat <- Conv_1_mbox_loc_perm
I0123 08:15:27.710618    77 net.cpp:1686] Conv_1_mbox_loc_flat -> Conv_1_mbox_loc_flat
I0123 08:15:27.710638    77 net.cpp:331] Setting up Conv_1_mbox_loc_flat
I0123 08:15:27.710646    77 net.cpp:338] Top shape: 8 2400 (19200)
I0123 08:15:27.710650    77 net.cpp:347] Memory required for data: 551726816
I0123 08:15:27.710654    77 net.cpp:349] Biggest Memory of single blob: 69120000
I0123 08:15:27.710659    77 layer_factory.hpp:114] Creating layer Conv_1_mbox_conf/depthwise
I0123 08:15:27.710669    77 net.cpp:262] Creating Layer Conv_1_mbox_conf/depthwise
I0123 08:15:27.710677    77 net.cpp:1712] Conv_1_mbox_conf/depthwise <- Conv_1_Conv_1/relu_0_split_2
I0123 08:15:27.710685    77 net.cpp:1686] Conv_1_mbox_conf/depthwise -> Conv_1_mbox_conf/depthwise
I0123 08:15:27.710804    77 net.cpp:331] Setting up Conv_1_mbox_conf/depthwise
I0123 08:15:27.710813    77 net.cpp:338] Top shape: 8 1280 10 10 (1024000)
I0123 08:15:27.710816    77 net.cpp:347] Memory required for data: 555822816
I0123 08:15:27.710820    77 net.cpp:349] Biggest Memory of single blob: 69120000
I0123 08:15:27.710827    77 layer_factory.hpp:114] Creating layer Conv_1_mbox_conf_new
I0123 08:15:27.710837    77 net.cpp:262] Creating Layer Conv_1_mbox_conf_new
I0123 08:15:27.710842    77 net.cpp:1712] Conv_1_mbox_conf_new <- Conv_1_mbox_conf/depthwise
I0123 08:15:27.710851    77 net.cpp:1686] Conv_1_mbox_conf_new -> Conv_1_mbox_conf_new
I0123 08:15:27.712253    77 net.cpp:331] Setting up Conv_1_mbox_conf_new
I0123 08:15:27.712262    77 net.cpp:338] Top shape: 8 126 10 10 (100800)
I0123 08:15:27.712268    77 net.cpp:347] Memory required for data: 556226016
I0123 08:15:27.712275    77 net.cpp:349] Biggest Memory of single blob: 69120000
I0123 08:15:27.712286    77 layer_factory.hpp:114] Creating layer Conv_1_mbox_conf_perm
I0123 08:15:27.712298    77 net.cpp:262] Creating Layer Conv_1_mbox_conf_perm
I0123 08:15:27.712307    77 net.cpp:1712] Conv_1_mbox_conf_perm <- Conv_1_mbox_conf_new
I0123 08:15:27.712318    77 net.cpp:1686] Conv_1_mbox_conf_perm -> Conv_1_mbox_conf_perm
I0123 08:15:27.712334    77 net.cpp:331] Setting up Conv_1_mbox_conf_perm
I0123 08:15:27.712344    77 net.cpp:338] Top shape: 8 10 10 126 (100800)
I0123 08:15:27.712352    77 net.cpp:347] Memory required for data: 556629216
I0123 08:15:27.712358    77 net.cpp:349] Biggest Memory of single blob: 69120000
I0123 08:15:27.712373    77 layer_factory.hpp:114] Creating layer Conv_1_mbox_conf_flat
I0123 08:15:27.712384    77 net.cpp:262] Creating Layer Conv_1_mbox_conf_flat
I0123 08:15:27.712393    77 net.cpp:1712] Conv_1_mbox_conf_flat <- Conv_1_mbox_conf_perm
I0123 08:15:27.712400    77 net.cpp:1686] Conv_1_mbox_conf_flat -> Conv_1_mbox_conf_flat
I0123 08:15:27.712410    77 net.cpp:331] Setting up Conv_1_mbox_conf_flat
I0123 08:15:27.712416    77 net.cpp:338] Top shape: 8 12600 (100800)
I0123 08:15:27.712421    77 net.cpp:347] Memory required for data: 557032416
I0123 08:15:27.712427    77 net.cpp:349] Biggest Memory of single blob: 69120000
I0123 08:15:27.712435    77 layer_factory.hpp:114] Creating layer Conv_1_mbox_priorbox
I0123 08:15:27.712445    77 net.cpp:262] Creating Layer Conv_1_mbox_priorbox
I0123 08:15:27.712451    77 net.cpp:1712] Conv_1_mbox_priorbox <- Conv_1_Conv_1/relu_0_split_3
I0123 08:15:27.712460    77 net.cpp:1712] Conv_1_mbox_priorbox <- data_data_0_split_2
I0123 08:15:27.712472    77 net.cpp:1686] Conv_1_mbox_priorbox -> Conv_1_mbox_priorbox
I0123 08:15:27.712486    77 net.cpp:331] Setting up Conv_1_mbox_priorbox
I0123 08:15:27.712493    77 net.cpp:338] Top shape: 1 2 2400 (4800)
I0123 08:15:27.712499    77 net.cpp:347] Memory required for data: 557051616
I0123 08:15:27.712507    77 net.cpp:349] Biggest Memory of single blob: 69120000
I0123 08:15:27.712513    77 layer_factory.hpp:114] Creating layer layer_19_2_2_mbox_loc/depthwise
I0123 08:15:27.712524    77 net.cpp:262] Creating Layer layer_19_2_2_mbox_loc/depthwise
I0123 08:15:27.712530    77 net.cpp:1712] layer_19_2_2_mbox_loc/depthwise <- layer_19_2_2_layer_19_2_2/relu_0_split_1
I0123 08:15:27.712543    77 net.cpp:1686] layer_19_2_2_mbox_loc/depthwise -> layer_19_2_2_mbox_loc/depthwise
I0123 08:15:27.712616    77 net.cpp:331] Setting up layer_19_2_2_mbox_loc/depthwise
I0123 08:15:27.712625    77 net.cpp:338] Top shape: 8 512 5 5 (102400)
I0123 08:15:27.712630    77 net.cpp:347] Memory required for data: 557461216
I0123 08:15:27.712635    77 net.cpp:349] Biggest Memory of single blob: 69120000
I0123 08:15:27.712641    77 layer_factory.hpp:114] Creating layer layer_19_2_2_mbox_loc
I0123 08:15:27.712651    77 net.cpp:262] Creating Layer layer_19_2_2_mbox_loc
I0123 08:15:27.712656    77 net.cpp:1712] layer_19_2_2_mbox_loc <- layer_19_2_2_mbox_loc/depthwise
I0123 08:15:27.712664    77 net.cpp:1686] layer_19_2_2_mbox_loc -> layer_19_2_2_mbox_loc
I0123 08:15:27.712790    77 net.cpp:331] Setting up layer_19_2_2_mbox_loc
I0123 08:15:27.712798    77 net.cpp:338] Top shape: 8 24 5 5 (4800)
I0123 08:15:27.712802    77 net.cpp:347] Memory required for data: 557480416
I0123 08:15:27.712806    77 net.cpp:349] Biggest Memory of single blob: 69120000
I0123 08:15:27.712813    77 layer_factory.hpp:114] Creating layer layer_19_2_2_mbox_loc_perm
I0123 08:15:27.712821    77 net.cpp:262] Creating Layer layer_19_2_2_mbox_loc_perm
I0123 08:15:27.712828    77 net.cpp:1712] layer_19_2_2_mbox_loc_perm <- layer_19_2_2_mbox_loc
I0123 08:15:27.712836    77 net.cpp:1686] layer_19_2_2_mbox_loc_perm -> layer_19_2_2_mbox_loc_perm
I0123 08:15:27.712847    77 net.cpp:331] Setting up layer_19_2_2_mbox_loc_perm
I0123 08:15:27.712853    77 net.cpp:338] Top shape: 8 5 5 24 (4800)
I0123 08:15:27.712857    77 net.cpp:347] Memory required for data: 557499616
I0123 08:15:27.712862    77 net.cpp:349] Biggest Memory of single blob: 69120000
I0123 08:15:27.712867    77 layer_factory.hpp:114] Creating layer layer_19_2_2_mbox_loc_flat
I0123 08:15:27.712874    77 net.cpp:262] Creating Layer layer_19_2_2_mbox_loc_flat
I0123 08:15:27.712879    77 net.cpp:1712] layer_19_2_2_mbox_loc_flat <- layer_19_2_2_mbox_loc_perm
I0123 08:15:27.712891    77 net.cpp:1686] layer_19_2_2_mbox_loc_flat -> layer_19_2_2_mbox_loc_flat
I0123 08:15:27.712903    77 net.cpp:331] Setting up layer_19_2_2_mbox_loc_flat
I0123 08:15:27.712913    77 net.cpp:338] Top shape: 8 600 (4800)
I0123 08:15:27.712919    77 net.cpp:347] Memory required for data: 557518816
I0123 08:15:27.712929    77 net.cpp:349] Biggest Memory of single blob: 69120000
I0123 08:15:27.712947    77 layer_factory.hpp:114] Creating layer layer_19_2_2_mbox_conf/depthwise
I0123 08:15:27.712960    77 net.cpp:262] Creating Layer layer_19_2_2_mbox_conf/depthwise
I0123 08:15:27.712966    77 net.cpp:1712] layer_19_2_2_mbox_conf/depthwise <- layer_19_2_2_layer_19_2_2/relu_0_split_2
I0123 08:15:27.712980    77 net.cpp:1686] layer_19_2_2_mbox_conf/depthwise -> layer_19_2_2_mbox_conf/depthwise
I0123 08:15:27.713047    77 net.cpp:331] Setting up layer_19_2_2_mbox_conf/depthwise
I0123 08:15:27.713054    77 net.cpp:338] Top shape: 8 512 5 5 (102400)
I0123 08:15:27.713059    77 net.cpp:347] Memory required for data: 557928416
I0123 08:15:27.713065    77 net.cpp:349] Biggest Memory of single blob: 69120000
I0123 08:15:27.713073    77 layer_factory.hpp:114] Creating layer layer_19_2_2_mbox_conf_new
I0123 08:15:27.713083    77 net.cpp:262] Creating Layer layer_19_2_2_mbox_conf_new
I0123 08:15:27.713088    77 net.cpp:1712] layer_19_2_2_mbox_conf_new <- layer_19_2_2_mbox_conf/depthwise
I0123 08:15:27.713096    77 net.cpp:1686] layer_19_2_2_mbox_conf_new -> layer_19_2_2_mbox_conf_new
I0123 08:15:27.713685    77 net.cpp:331] Setting up layer_19_2_2_mbox_conf_new
I0123 08:15:27.713694    77 net.cpp:338] Top shape: 8 126 5 5 (25200)
I0123 08:15:27.713699    77 net.cpp:347] Memory required for data: 558029216
I0123 08:15:27.713706    77 net.cpp:349] Biggest Memory of single blob: 69120000
I0123 08:15:27.713716    77 layer_factory.hpp:114] Creating layer layer_19_2_2_mbox_conf_perm
I0123 08:15:27.713726    77 net.cpp:262] Creating Layer layer_19_2_2_mbox_conf_perm
I0123 08:15:27.713732    77 net.cpp:1712] layer_19_2_2_mbox_conf_perm <- layer_19_2_2_mbox_conf_new
I0123 08:15:27.713739    77 net.cpp:1686] layer_19_2_2_mbox_conf_perm -> layer_19_2_2_mbox_conf_perm
I0123 08:15:27.713752    77 net.cpp:331] Setting up layer_19_2_2_mbox_conf_perm
I0123 08:15:27.713759    77 net.cpp:338] Top shape: 8 5 5 126 (25200)
I0123 08:15:27.713763    77 net.cpp:347] Memory required for data: 558130016
I0123 08:15:27.713768    77 net.cpp:349] Biggest Memory of single blob: 69120000
I0123 08:15:27.713774    77 layer_factory.hpp:114] Creating layer layer_19_2_2_mbox_conf_flat
I0123 08:15:27.713784    77 net.cpp:262] Creating Layer layer_19_2_2_mbox_conf_flat
I0123 08:15:27.713793    77 net.cpp:1712] layer_19_2_2_mbox_conf_flat <- layer_19_2_2_mbox_conf_perm
I0123 08:15:27.713801    77 net.cpp:1686] layer_19_2_2_mbox_conf_flat -> layer_19_2_2_mbox_conf_flat
I0123 08:15:27.713811    77 net.cpp:331] Setting up layer_19_2_2_mbox_conf_flat
I0123 08:15:27.713817    77 net.cpp:338] Top shape: 8 3150 (25200)
I0123 08:15:27.713821    77 net.cpp:347] Memory required for data: 558230816
I0123 08:15:27.713825    77 net.cpp:349] Biggest Memory of single blob: 69120000
I0123 08:15:27.713829    77 layer_factory.hpp:114] Creating layer layer_19_2_2_mbox_priorbox
I0123 08:15:27.713837    77 net.cpp:262] Creating Layer layer_19_2_2_mbox_priorbox
I0123 08:15:27.713842    77 net.cpp:1712] layer_19_2_2_mbox_priorbox <- layer_19_2_2_layer_19_2_2/relu_0_split_3
I0123 08:15:27.713847    77 net.cpp:1712] layer_19_2_2_mbox_priorbox <- data_data_0_split_3
I0123 08:15:27.713855    77 net.cpp:1686] layer_19_2_2_mbox_priorbox -> layer_19_2_2_mbox_priorbox
I0123 08:15:27.713865    77 net.cpp:331] Setting up layer_19_2_2_mbox_priorbox
I0123 08:15:27.713874    77 net.cpp:338] Top shape: 1 2 600 (1200)
I0123 08:15:27.713881    77 net.cpp:347] Memory required for data: 558235616
I0123 08:15:27.713886    77 net.cpp:349] Biggest Memory of single blob: 69120000
I0123 08:15:27.713891    77 layer_factory.hpp:114] Creating layer layer_19_2_3_mbox_loc/depthwise
I0123 08:15:27.713901    77 net.cpp:262] Creating Layer layer_19_2_3_mbox_loc/depthwise
I0123 08:15:27.713907    77 net.cpp:1712] layer_19_2_3_mbox_loc/depthwise <- layer_19_2_3_layer_19_2_3/relu_0_split_1
I0123 08:15:27.713917    77 net.cpp:1686] layer_19_2_3_mbox_loc/depthwise -> layer_19_2_3_mbox_loc/depthwise
I0123 08:15:27.713963    77 net.cpp:331] Setting up layer_19_2_3_mbox_loc/depthwise
I0123 08:15:27.713980    77 net.cpp:338] Top shape: 8 256 3 3 (18432)
I0123 08:15:27.713989    77 net.cpp:347] Memory required for data: 558309344
I0123 08:15:27.713994    77 net.cpp:349] Biggest Memory of single blob: 69120000
I0123 08:15:27.714004    77 layer_factory.hpp:114] Creating layer layer_19_2_3_mbox_loc
I0123 08:15:27.714017    77 net.cpp:262] Creating Layer layer_19_2_3_mbox_loc
I0123 08:15:27.714025    77 net.cpp:1712] layer_19_2_3_mbox_loc <- layer_19_2_3_mbox_loc/depthwise
I0123 08:15:27.714035    77 net.cpp:1686] layer_19_2_3_mbox_loc -> layer_19_2_3_mbox_loc
I0123 08:15:27.714104    77 net.cpp:331] Setting up layer_19_2_3_mbox_loc
I0123 08:15:27.714113    77 net.cpp:338] Top shape: 8 24 3 3 (1728)
I0123 08:15:27.714119    77 net.cpp:347] Memory required for data: 558316256
I0123 08:15:27.714124    77 net.cpp:349] Biggest Memory of single blob: 69120000
I0123 08:15:27.714133    77 layer_factory.hpp:114] Creating layer layer_19_2_3_mbox_loc_perm
I0123 08:15:27.714141    77 net.cpp:262] Creating Layer layer_19_2_3_mbox_loc_perm
I0123 08:15:27.714148    77 net.cpp:1712] layer_19_2_3_mbox_loc_perm <- layer_19_2_3_mbox_loc
I0123 08:15:27.714156    77 net.cpp:1686] layer_19_2_3_mbox_loc_perm -> layer_19_2_3_mbox_loc_perm
I0123 08:15:27.714170    77 net.cpp:331] Setting up layer_19_2_3_mbox_loc_perm
I0123 08:15:27.714177    77 net.cpp:338] Top shape: 8 3 3 24 (1728)
I0123 08:15:27.714180    77 net.cpp:347] Memory required for data: 558323168
I0123 08:15:27.714184    77 net.cpp:349] Biggest Memory of single blob: 69120000
I0123 08:15:27.714187    77 layer_factory.hpp:114] Creating layer layer_19_2_3_mbox_loc_flat
I0123 08:15:27.714195    77 net.cpp:262] Creating Layer layer_19_2_3_mbox_loc_flat
I0123 08:15:27.714198    77 net.cpp:1712] layer_19_2_3_mbox_loc_flat <- layer_19_2_3_mbox_loc_perm
I0123 08:15:27.714205    77 net.cpp:1686] layer_19_2_3_mbox_loc_flat -> layer_19_2_3_mbox_loc_flat
I0123 08:15:27.714216    77 net.cpp:331] Setting up layer_19_2_3_mbox_loc_flat
I0123 08:15:27.714223    77 net.cpp:338] Top shape: 8 216 (1728)
I0123 08:15:27.714227    77 net.cpp:347] Memory required for data: 558330080
I0123 08:15:27.714231    77 net.cpp:349] Biggest Memory of single blob: 69120000
I0123 08:15:27.714236    77 layer_factory.hpp:114] Creating layer layer_19_2_3_mbox_conf/depthwise
I0123 08:15:27.714246    77 net.cpp:262] Creating Layer layer_19_2_3_mbox_conf/depthwise
I0123 08:15:27.714251    77 net.cpp:1712] layer_19_2_3_mbox_conf/depthwise <- layer_19_2_3_layer_19_2_3/relu_0_split_2
I0123 08:15:27.714260    77 net.cpp:1686] layer_19_2_3_mbox_conf/depthwise -> layer_19_2_3_mbox_conf/depthwise
I0123 08:15:27.714303    77 net.cpp:331] Setting up layer_19_2_3_mbox_conf/depthwise
I0123 08:15:27.714310    77 net.cpp:338] Top shape: 8 256 3 3 (18432)
I0123 08:15:27.714316    77 net.cpp:347] Memory required for data: 558403808
I0123 08:15:27.714323    77 net.cpp:349] Biggest Memory of single blob: 69120000
I0123 08:15:27.714332    77 layer_factory.hpp:114] Creating layer layer_19_2_3_mbox_conf_new
I0123 08:15:27.714346    77 net.cpp:262] Creating Layer layer_19_2_3_mbox_conf_new
I0123 08:15:27.714352    77 net.cpp:1712] layer_19_2_3_mbox_conf_new <- layer_19_2_3_mbox_conf/depthwise
I0123 08:15:27.714362    77 net.cpp:1686] layer_19_2_3_mbox_conf_new -> layer_19_2_3_mbox_conf_new
I0123 08:15:27.714660    77 net.cpp:331] Setting up layer_19_2_3_mbox_conf_new
I0123 08:15:27.714669    77 net.cpp:338] Top shape: 8 126 3 3 (9072)
I0123 08:15:27.714675    77 net.cpp:347] Memory required for data: 558440096
I0123 08:15:27.714681    77 net.cpp:349] Biggest Memory of single blob: 69120000
I0123 08:15:27.714691    77 layer_factory.hpp:114] Creating layer layer_19_2_3_mbox_conf_perm
I0123 08:15:27.714701    77 net.cpp:262] Creating Layer layer_19_2_3_mbox_conf_perm
I0123 08:15:27.714709    77 net.cpp:1712] layer_19_2_3_mbox_conf_perm <- layer_19_2_3_mbox_conf_new
I0123 08:15:27.714722    77 net.cpp:1686] layer_19_2_3_mbox_conf_perm -> layer_19_2_3_mbox_conf_perm
I0123 08:15:27.714738    77 net.cpp:331] Setting up layer_19_2_3_mbox_conf_perm
I0123 08:15:27.714757    77 net.cpp:338] Top shape: 8 3 3 126 (9072)
I0123 08:15:27.714762    77 net.cpp:347] Memory required for data: 558476384
I0123 08:15:27.714766    77 net.cpp:349] Biggest Memory of single blob: 69120000
I0123 08:15:27.714768    77 layer_factory.hpp:114] Creating layer layer_19_2_3_mbox_conf_flat
I0123 08:15:27.714779    77 net.cpp:262] Creating Layer layer_19_2_3_mbox_conf_flat
I0123 08:15:27.714788    77 net.cpp:1712] layer_19_2_3_mbox_conf_flat <- layer_19_2_3_mbox_conf_perm
I0123 08:15:27.714799    77 net.cpp:1686] layer_19_2_3_mbox_conf_flat -> layer_19_2_3_mbox_conf_flat
I0123 08:15:27.714812    77 net.cpp:331] Setting up layer_19_2_3_mbox_conf_flat
I0123 08:15:27.714820    77 net.cpp:338] Top shape: 8 1134 (9072)
I0123 08:15:27.714828    77 net.cpp:347] Memory required for data: 558512672
I0123 08:15:27.714833    77 net.cpp:349] Biggest Memory of single blob: 69120000
I0123 08:15:27.714840    77 layer_factory.hpp:114] Creating layer layer_19_2_3_mbox_priorbox
I0123 08:15:27.714848    77 net.cpp:262] Creating Layer layer_19_2_3_mbox_priorbox
I0123 08:15:27.714851    77 net.cpp:1712] layer_19_2_3_mbox_priorbox <- layer_19_2_3_layer_19_2_3/relu_0_split_3
I0123 08:15:27.714859    77 net.cpp:1712] layer_19_2_3_mbox_priorbox <- data_data_0_split_4
I0123 08:15:27.714871    77 net.cpp:1686] layer_19_2_3_mbox_priorbox -> layer_19_2_3_mbox_priorbox
I0123 08:15:27.714884    77 net.cpp:331] Setting up layer_19_2_3_mbox_priorbox
I0123 08:15:27.714890    77 net.cpp:338] Top shape: 1 2 216 (432)
I0123 08:15:27.714893    77 net.cpp:347] Memory required for data: 558514400
I0123 08:15:27.714896    77 net.cpp:349] Biggest Memory of single blob: 69120000
I0123 08:15:27.714901    77 layer_factory.hpp:114] Creating layer layer_19_2_4_mbox_loc/depthwise
I0123 08:15:27.714915    77 net.cpp:262] Creating Layer layer_19_2_4_mbox_loc/depthwise
I0123 08:15:27.714923    77 net.cpp:1712] layer_19_2_4_mbox_loc/depthwise <- layer_19_2_4_layer_19_2_4/relu_0_split_1
I0123 08:15:27.714932    77 net.cpp:1686] layer_19_2_4_mbox_loc/depthwise -> layer_19_2_4_mbox_loc/depthwise
I0123 08:15:27.714978    77 net.cpp:331] Setting up layer_19_2_4_mbox_loc/depthwise
I0123 08:15:27.714985    77 net.cpp:338] Top shape: 8 256 2 2 (8192)
I0123 08:15:27.714990    77 net.cpp:347] Memory required for data: 558547168
I0123 08:15:27.714993    77 net.cpp:349] Biggest Memory of single blob: 69120000
I0123 08:15:27.714999    77 layer_factory.hpp:114] Creating layer layer_19_2_4_mbox_loc
I0123 08:15:27.715008    77 net.cpp:262] Creating Layer layer_19_2_4_mbox_loc
I0123 08:15:27.715011    77 net.cpp:1712] layer_19_2_4_mbox_loc <- layer_19_2_4_mbox_loc/depthwise
I0123 08:15:27.715019    77 net.cpp:1686] layer_19_2_4_mbox_loc -> layer_19_2_4_mbox_loc
I0123 08:15:27.715091    77 net.cpp:331] Setting up layer_19_2_4_mbox_loc
I0123 08:15:27.715102    77 net.cpp:338] Top shape: 8 24 2 2 (768)
I0123 08:15:27.715107    77 net.cpp:347] Memory required for data: 558550240
I0123 08:15:27.715111    77 net.cpp:349] Biggest Memory of single blob: 69120000
I0123 08:15:27.715116    77 layer_factory.hpp:114] Creating layer layer_19_2_4_mbox_loc_perm
I0123 08:15:27.715121    77 net.cpp:262] Creating Layer layer_19_2_4_mbox_loc_perm
I0123 08:15:27.715127    77 net.cpp:1712] layer_19_2_4_mbox_loc_perm <- layer_19_2_4_mbox_loc
I0123 08:15:27.715134    77 net.cpp:1686] layer_19_2_4_mbox_loc_perm -> layer_19_2_4_mbox_loc_perm
I0123 08:15:27.715149    77 net.cpp:331] Setting up layer_19_2_4_mbox_loc_perm
I0123 08:15:27.715158    77 net.cpp:338] Top shape: 8 2 2 24 (768)
I0123 08:15:27.715163    77 net.cpp:347] Memory required for data: 558553312
I0123 08:15:27.715167    77 net.cpp:349] Biggest Memory of single blob: 69120000
I0123 08:15:27.715170    77 layer_factory.hpp:114] Creating layer layer_19_2_4_mbox_loc_flat
I0123 08:15:27.715175    77 net.cpp:262] Creating Layer layer_19_2_4_mbox_loc_flat
I0123 08:15:27.715179    77 net.cpp:1712] layer_19_2_4_mbox_loc_flat <- layer_19_2_4_mbox_loc_perm
I0123 08:15:27.715186    77 net.cpp:1686] layer_19_2_4_mbox_loc_flat -> layer_19_2_4_mbox_loc_flat
I0123 08:15:27.715205    77 net.cpp:331] Setting up layer_19_2_4_mbox_loc_flat
I0123 08:15:27.715214    77 net.cpp:338] Top shape: 8 96 (768)
I0123 08:15:27.715221    77 net.cpp:347] Memory required for data: 558556384
I0123 08:15:27.715226    77 net.cpp:349] Biggest Memory of single blob: 69120000
I0123 08:15:27.715230    77 layer_factory.hpp:114] Creating layer layer_19_2_4_mbox_conf/depthwise
I0123 08:15:27.715240    77 net.cpp:262] Creating Layer layer_19_2_4_mbox_conf/depthwise
I0123 08:15:27.715243    77 net.cpp:1712] layer_19_2_4_mbox_conf/depthwise <- layer_19_2_4_layer_19_2_4/relu_0_split_2
I0123 08:15:27.715251    77 net.cpp:1686] layer_19_2_4_mbox_conf/depthwise -> layer_19_2_4_mbox_conf/depthwise
I0123 08:15:27.715299    77 net.cpp:331] Setting up layer_19_2_4_mbox_conf/depthwise
I0123 08:15:27.715307    77 net.cpp:338] Top shape: 8 256 2 2 (8192)
I0123 08:15:27.715312    77 net.cpp:347] Memory required for data: 558589152
I0123 08:15:27.715317    77 net.cpp:349] Biggest Memory of single blob: 69120000
I0123 08:15:27.715324    77 layer_factory.hpp:114] Creating layer layer_19_2_4_mbox_conf_new
I0123 08:15:27.715338    77 net.cpp:262] Creating Layer layer_19_2_4_mbox_conf_new
I0123 08:15:27.715348    77 net.cpp:1712] layer_19_2_4_mbox_conf_new <- layer_19_2_4_mbox_conf/depthwise
I0123 08:15:27.715358    77 net.cpp:1686] layer_19_2_4_mbox_conf_new -> layer_19_2_4_mbox_conf_new
I0123 08:15:27.715654    77 net.cpp:331] Setting up layer_19_2_4_mbox_conf_new
I0123 08:15:27.715663    77 net.cpp:338] Top shape: 8 126 2 2 (4032)
I0123 08:15:27.715668    77 net.cpp:347] Memory required for data: 558605280
I0123 08:15:27.715674    77 net.cpp:349] Biggest Memory of single blob: 69120000
I0123 08:15:27.715685    77 layer_factory.hpp:114] Creating layer layer_19_2_4_mbox_conf_perm
I0123 08:15:27.715695    77 net.cpp:262] Creating Layer layer_19_2_4_mbox_conf_perm
I0123 08:15:27.715705    77 net.cpp:1712] layer_19_2_4_mbox_conf_perm <- layer_19_2_4_mbox_conf_new
I0123 08:15:27.715718    77 net.cpp:1686] layer_19_2_4_mbox_conf_perm -> layer_19_2_4_mbox_conf_perm
I0123 08:15:27.715737    77 net.cpp:331] Setting up layer_19_2_4_mbox_conf_perm
I0123 08:15:27.715747    77 net.cpp:338] Top shape: 8 2 2 126 (4032)
I0123 08:15:27.715754    77 net.cpp:347] Memory required for data: 558621408
I0123 08:15:27.715760    77 net.cpp:349] Biggest Memory of single blob: 69120000
I0123 08:15:27.715765    77 layer_factory.hpp:114] Creating layer layer_19_2_4_mbox_conf_flat
I0123 08:15:27.715772    77 net.cpp:262] Creating Layer layer_19_2_4_mbox_conf_flat
I0123 08:15:27.715780    77 net.cpp:1712] layer_19_2_4_mbox_conf_flat <- layer_19_2_4_mbox_conf_perm
I0123 08:15:27.715792    77 net.cpp:1686] layer_19_2_4_mbox_conf_flat -> layer_19_2_4_mbox_conf_flat
I0123 08:15:27.715806    77 net.cpp:331] Setting up layer_19_2_4_mbox_conf_flat
I0123 08:15:27.715812    77 net.cpp:338] Top shape: 8 504 (4032)
I0123 08:15:27.715817    77 net.cpp:347] Memory required for data: 558637536
I0123 08:15:27.715823    77 net.cpp:349] Biggest Memory of single blob: 69120000
I0123 08:15:27.715828    77 layer_factory.hpp:114] Creating layer layer_19_2_4_mbox_priorbox
I0123 08:15:27.715840    77 net.cpp:262] Creating Layer layer_19_2_4_mbox_priorbox
I0123 08:15:27.715847    77 net.cpp:1712] layer_19_2_4_mbox_priorbox <- layer_19_2_4_layer_19_2_4/relu_0_split_3
I0123 08:15:27.715855    77 net.cpp:1712] layer_19_2_4_mbox_priorbox <- data_data_0_split_5
I0123 08:15:27.715868    77 net.cpp:1686] layer_19_2_4_mbox_priorbox -> layer_19_2_4_mbox_priorbox
I0123 08:15:27.715881    77 net.cpp:331] Setting up layer_19_2_4_mbox_priorbox
I0123 08:15:27.715888    77 net.cpp:338] Top shape: 1 2 96 (192)
I0123 08:15:27.715891    77 net.cpp:347] Memory required for data: 558638304
I0123 08:15:27.715898    77 net.cpp:349] Biggest Memory of single blob: 69120000
I0123 08:15:27.715905    77 layer_factory.hpp:114] Creating layer layer_19_2_5_mbox_loc/depthwise
I0123 08:15:27.715921    77 net.cpp:262] Creating Layer layer_19_2_5_mbox_loc/depthwise
I0123 08:15:27.715939    77 net.cpp:1712] layer_19_2_5_mbox_loc/depthwise <- layer_19_2_5_layer_19_2_5/relu_0_split_0
I0123 08:15:27.715953    77 net.cpp:1686] layer_19_2_5_mbox_loc/depthwise -> layer_19_2_5_mbox_loc/depthwise
I0123 08:15:27.715991    77 net.cpp:331] Setting up layer_19_2_5_mbox_loc/depthwise
I0123 08:15:27.715998    77 net.cpp:338] Top shape: 8 128 1 1 (1024)
I0123 08:15:27.716002    77 net.cpp:347] Memory required for data: 558642400
I0123 08:15:27.716006    77 net.cpp:349] Biggest Memory of single blob: 69120000
I0123 08:15:27.716013    77 layer_factory.hpp:114] Creating layer layer_19_2_5_mbox_loc
I0123 08:15:27.716028    77 net.cpp:262] Creating Layer layer_19_2_5_mbox_loc
I0123 08:15:27.716033    77 net.cpp:1712] layer_19_2_5_mbox_loc <- layer_19_2_5_mbox_loc/depthwise
I0123 08:15:27.716040    77 net.cpp:1686] layer_19_2_5_mbox_loc -> layer_19_2_5_mbox_loc
I0123 08:15:27.716096    77 net.cpp:331] Setting up layer_19_2_5_mbox_loc
I0123 08:15:27.716104    77 net.cpp:338] Top shape: 8 24 1 1 (192)
I0123 08:15:27.716109    77 net.cpp:347] Memory required for data: 558643168
I0123 08:15:27.716114    77 net.cpp:349] Biggest Memory of single blob: 69120000
I0123 08:15:27.716120    77 layer_factory.hpp:114] Creating layer layer_19_2_5_mbox_loc_perm
I0123 08:15:27.716128    77 net.cpp:262] Creating Layer layer_19_2_5_mbox_loc_perm
I0123 08:15:27.716135    77 net.cpp:1712] layer_19_2_5_mbox_loc_perm <- layer_19_2_5_mbox_loc
I0123 08:15:27.716148    77 net.cpp:1686] layer_19_2_5_mbox_loc_perm -> layer_19_2_5_mbox_loc_perm
I0123 08:15:27.716163    77 net.cpp:331] Setting up layer_19_2_5_mbox_loc_perm
I0123 08:15:27.716171    77 net.cpp:338] Top shape: 8 1 1 24 (192)
I0123 08:15:27.716174    77 net.cpp:347] Memory required for data: 558643936
I0123 08:15:27.716178    77 net.cpp:349] Biggest Memory of single blob: 69120000
I0123 08:15:27.716183    77 layer_factory.hpp:114] Creating layer layer_19_2_5_mbox_loc_flat
I0123 08:15:27.716192    77 net.cpp:262] Creating Layer layer_19_2_5_mbox_loc_flat
I0123 08:15:27.716199    77 net.cpp:1712] layer_19_2_5_mbox_loc_flat <- layer_19_2_5_mbox_loc_perm
I0123 08:15:27.716212    77 net.cpp:1686] layer_19_2_5_mbox_loc_flat -> layer_19_2_5_mbox_loc_flat
I0123 08:15:27.716225    77 net.cpp:331] Setting up layer_19_2_5_mbox_loc_flat
I0123 08:15:27.716235    77 net.cpp:338] Top shape: 8 24 (192)
I0123 08:15:27.716240    77 net.cpp:347] Memory required for data: 558644704
I0123 08:15:27.716244    77 net.cpp:349] Biggest Memory of single blob: 69120000
I0123 08:15:27.716250    77 layer_factory.hpp:114] Creating layer layer_19_2_5_mbox_conf/depthwise
I0123 08:15:27.716264    77 net.cpp:262] Creating Layer layer_19_2_5_mbox_conf/depthwise
I0123 08:15:27.716270    77 net.cpp:1712] layer_19_2_5_mbox_conf/depthwise <- layer_19_2_5_layer_19_2_5/relu_0_split_1
I0123 08:15:27.716276    77 net.cpp:1686] layer_19_2_5_mbox_conf/depthwise -> layer_19_2_5_mbox_conf/depthwise
I0123 08:15:27.716305    77 net.cpp:331] Setting up layer_19_2_5_mbox_conf/depthwise
I0123 08:15:27.716316    77 net.cpp:338] Top shape: 8 128 1 1 (1024)
I0123 08:15:27.716325    77 net.cpp:347] Memory required for data: 558648800
I0123 08:15:27.716331    77 net.cpp:349] Biggest Memory of single blob: 69120000
I0123 08:15:27.716339    77 layer_factory.hpp:114] Creating layer layer_19_2_5_mbox_conf_new
I0123 08:15:27.716352    77 net.cpp:262] Creating Layer layer_19_2_5_mbox_conf_new
I0123 08:15:27.716358    77 net.cpp:1712] layer_19_2_5_mbox_conf_new <- layer_19_2_5_mbox_conf/depthwise
I0123 08:15:27.716368    77 net.cpp:1686] layer_19_2_5_mbox_conf_new -> layer_19_2_5_mbox_conf_new
I0123 08:15:27.716524    77 net.cpp:331] Setting up layer_19_2_5_mbox_conf_new
I0123 08:15:27.716531    77 net.cpp:338] Top shape: 8 126 1 1 (1008)
I0123 08:15:27.716536    77 net.cpp:347] Memory required for data: 558652832
I0123 08:15:27.716539    77 net.cpp:349] Biggest Memory of single blob: 69120000
I0123 08:15:27.716545    77 layer_factory.hpp:114] Creating layer layer_19_2_5_mbox_conf_perm
I0123 08:15:27.716552    77 net.cpp:262] Creating Layer layer_19_2_5_mbox_conf_perm
I0123 08:15:27.716563    77 net.cpp:1712] layer_19_2_5_mbox_conf_perm <- layer_19_2_5_mbox_conf_new
I0123 08:15:27.716572    77 net.cpp:1686] layer_19_2_5_mbox_conf_perm -> layer_19_2_5_mbox_conf_perm
I0123 08:15:27.716583    77 net.cpp:331] Setting up layer_19_2_5_mbox_conf_perm
I0123 08:15:27.716591    77 net.cpp:338] Top shape: 8 1 1 126 (1008)
I0123 08:15:27.716596    77 net.cpp:347] Memory required for data: 558656864
I0123 08:15:27.716600    77 net.cpp:349] Biggest Memory of single blob: 69120000
I0123 08:15:27.716605    77 layer_factory.hpp:114] Creating layer layer_19_2_5_mbox_conf_flat
I0123 08:15:27.716611    77 net.cpp:262] Creating Layer layer_19_2_5_mbox_conf_flat
I0123 08:15:27.716616    77 net.cpp:1712] layer_19_2_5_mbox_conf_flat <- layer_19_2_5_mbox_conf_perm
I0123 08:15:27.716624    77 net.cpp:1686] layer_19_2_5_mbox_conf_flat -> layer_19_2_5_mbox_conf_flat
I0123 08:15:27.716637    77 net.cpp:331] Setting up layer_19_2_5_mbox_conf_flat
I0123 08:15:27.716646    77 net.cpp:338] Top shape: 8 126 (1008)
I0123 08:15:27.716652    77 net.cpp:347] Memory required for data: 558660896
I0123 08:15:27.716656    77 net.cpp:349] Biggest Memory of single blob: 69120000
I0123 08:15:27.716663    77 layer_factory.hpp:114] Creating layer layer_19_2_5_mbox_priorbox
I0123 08:15:27.716673    77 net.cpp:262] Creating Layer layer_19_2_5_mbox_priorbox
I0123 08:15:27.716679    77 net.cpp:1712] layer_19_2_5_mbox_priorbox <- layer_19_2_5_layer_19_2_5/relu_0_split_2
I0123 08:15:27.716689    77 net.cpp:1712] layer_19_2_5_mbox_priorbox <- data_data_0_split_6
I0123 08:15:27.716696    77 net.cpp:1686] layer_19_2_5_mbox_priorbox -> layer_19_2_5_mbox_priorbox
I0123 08:15:27.716706    77 net.cpp:331] Setting up layer_19_2_5_mbox_priorbox
I0123 08:15:27.716712    77 net.cpp:338] Top shape: 1 2 24 (48)
I0123 08:15:27.716717    77 net.cpp:347] Memory required for data: 558661088
I0123 08:15:27.716720    77 net.cpp:349] Biggest Memory of single blob: 69120000
I0123 08:15:27.716725    77 layer_factory.hpp:114] Creating layer mbox_loc
I0123 08:15:27.716734    77 net.cpp:262] Creating Layer mbox_loc
I0123 08:15:27.716742    77 net.cpp:1712] mbox_loc <- conv_13/expand_mbox_loc_flat
I0123 08:15:27.716750    77 net.cpp:1712] mbox_loc <- Conv_1_mbox_loc_flat
I0123 08:15:27.716756    77 net.cpp:1712] mbox_loc <- layer_19_2_2_mbox_loc_flat
I0123 08:15:27.716763    77 net.cpp:1712] mbox_loc <- layer_19_2_3_mbox_loc_flat
I0123 08:15:27.716766    77 net.cpp:1712] mbox_loc <- layer_19_2_4_mbox_loc_flat
I0123 08:15:27.716774    77 net.cpp:1712] mbox_loc <- layer_19_2_5_mbox_loc_flat
I0123 08:15:27.716784    77 net.cpp:1686] mbox_loc -> mbox_loc
I0123 08:15:27.716794    77 net.cpp:331] Setting up mbox_loc
I0123 08:15:27.716804    77 net.cpp:338] Top shape: 8 7668 (61344)
I0123 08:15:27.716810    77 net.cpp:347] Memory required for data: 558906464
I0123 08:15:27.716814    77 net.cpp:349] Biggest Memory of single blob: 69120000
I0123 08:15:27.716820    77 layer_factory.hpp:114] Creating layer mbox_conf
I0123 08:15:27.716828    77 net.cpp:262] Creating Layer mbox_conf
I0123 08:15:27.716835    77 net.cpp:1712] mbox_conf <- conv_13/expand_mbox_conf_flat
I0123 08:15:27.716840    77 net.cpp:1712] mbox_conf <- Conv_1_mbox_conf_flat
I0123 08:15:27.716845    77 net.cpp:1712] mbox_conf <- layer_19_2_2_mbox_conf_flat
I0123 08:15:27.716850    77 net.cpp:1712] mbox_conf <- layer_19_2_3_mbox_conf_flat
I0123 08:15:27.716856    77 net.cpp:1712] mbox_conf <- layer_19_2_4_mbox_conf_flat
I0123 08:15:27.716861    77 net.cpp:1712] mbox_conf <- layer_19_2_5_mbox_conf_flat
I0123 08:15:27.716866    77 net.cpp:1686] mbox_conf -> mbox_conf
I0123 08:15:27.716878    77 net.cpp:331] Setting up mbox_conf
I0123 08:15:27.716886    77 net.cpp:338] Top shape: 8 40257 (322056)
I0123 08:15:27.716890    77 net.cpp:347] Memory required for data: 560194688
I0123 08:15:27.716894    77 net.cpp:349] Biggest Memory of single blob: 69120000
I0123 08:15:27.716898    77 layer_factory.hpp:114] Creating layer mbox_priorbox
I0123 08:15:27.716909    77 net.cpp:262] Creating Layer mbox_priorbox
I0123 08:15:27.716924    77 net.cpp:1712] mbox_priorbox <- conv_13/expand_mbox_priorbox
I0123 08:15:27.716931    77 net.cpp:1712] mbox_priorbox <- Conv_1_mbox_priorbox
I0123 08:15:27.716936    77 net.cpp:1712] mbox_priorbox <- layer_19_2_2_mbox_priorbox
I0123 08:15:27.716943    77 net.cpp:1712] mbox_priorbox <- layer_19_2_3_mbox_priorbox
I0123 08:15:27.716953    77 net.cpp:1712] mbox_priorbox <- layer_19_2_4_mbox_priorbox
I0123 08:15:27.716958    77 net.cpp:1712] mbox_priorbox <- layer_19_2_5_mbox_priorbox
I0123 08:15:27.716965    77 net.cpp:1686] mbox_priorbox -> mbox_priorbox
I0123 08:15:27.716974    77 net.cpp:331] Setting up mbox_priorbox
I0123 08:15:27.716980    77 net.cpp:338] Top shape: 1 2 7668 (15336)
I0123 08:15:27.716985    77 net.cpp:347] Memory required for data: 560256032
I0123 08:15:27.716989    77 net.cpp:349] Biggest Memory of single blob: 69120000
I0123 08:15:27.716996    77 layer_factory.hpp:114] Creating layer mbox_conf_reshape
I0123 08:15:27.717005    77 net.cpp:262] Creating Layer mbox_conf_reshape
I0123 08:15:27.717010    77 net.cpp:1712] mbox_conf_reshape <- mbox_conf
I0123 08:15:27.717021    77 net.cpp:1686] mbox_conf_reshape -> mbox_conf_reshape
I0123 08:15:27.717834    77 net.cpp:331] Setting up mbox_conf_reshape
I0123 08:15:27.717844    77 net.cpp:338] Top shape: 8 1917 21 (322056)
I0123 08:15:27.717850    77 net.cpp:347] Memory required for data: 561544256
I0123 08:15:27.717857    77 net.cpp:349] Biggest Memory of single blob: 69120000
I0123 08:15:27.717865    77 layer_factory.hpp:114] Creating layer mbox_conf_sigmoid
I0123 08:15:27.717875    77 net.cpp:262] Creating Layer mbox_conf_sigmoid
I0123 08:15:27.717882    77 net.cpp:1712] mbox_conf_sigmoid <- mbox_conf_reshape
I0123 08:15:27.717893    77 net.cpp:1686] mbox_conf_sigmoid -> mbox_conf_sigmoid
I0123 08:15:27.717906    77 net.cpp:331] Setting up mbox_conf_sigmoid
I0123 08:15:27.717916    77 net.cpp:338] Top shape: 8 1917 21 (322056)
I0123 08:15:27.717923    77 net.cpp:347] Memory required for data: 562832480
I0123 08:15:27.717929    77 net.cpp:349] Biggest Memory of single blob: 69120000
I0123 08:15:27.717936    77 layer_factory.hpp:114] Creating layer mbox_conf_flatten
I0123 08:15:27.717947    77 net.cpp:262] Creating Layer mbox_conf_flatten
I0123 08:15:27.717953    77 net.cpp:1712] mbox_conf_flatten <- mbox_conf_sigmoid
I0123 08:15:27.717967    77 net.cpp:1686] mbox_conf_flatten -> mbox_conf_flatten
I0123 08:15:27.717979    77 net.cpp:331] Setting up mbox_conf_flatten
I0123 08:15:27.717988    77 net.cpp:338] Top shape: 8 40257 (322056)
I0123 08:15:27.717996    77 net.cpp:347] Memory required for data: 564120704
I0123 08:15:27.718004    77 net.cpp:349] Biggest Memory of single blob: 69120000
I0123 08:15:27.718009    77 layer_factory.hpp:114] Creating layer detection_out
I0123 08:15:27.718025    77 net.cpp:262] Creating Layer detection_out
I0123 08:15:27.718031    77 net.cpp:1712] detection_out <- mbox_loc
I0123 08:15:27.718040    77 net.cpp:1712] detection_out <- mbox_conf_flatten
I0123 08:15:27.718046    77 net.cpp:1712] detection_out <- mbox_priorbox
I0123 08:15:27.718052    77 net.cpp:1686] detection_out -> detection_out
I0123 08:15:27.718065    77 net.cpp:331] Setting up detection_out
I0123 08:15:27.718070    77 net.cpp:338] Top shape: 1 1 1 7 (7)
I0123 08:15:27.718075    77 net.cpp:347] Memory required for data: 564120732
I0123 08:15:27.718078    77 net.cpp:349] Biggest Memory of single blob: 69120000
I0123 08:15:27.718086    77 layer_factory.hpp:114] Creating layer detection_eval
I0123 08:15:27.718096    77 net.cpp:262] Creating Layer detection_eval
I0123 08:15:27.718099    77 net.cpp:1712] detection_eval <- detection_out
I0123 08:15:27.718104    77 net.cpp:1712] detection_eval <- label
I0123 08:15:27.718112    77 net.cpp:1686] detection_eval -> detection_eval
I0123 08:15:27.718127    77 net.cpp:331] Setting up detection_eval
I0123 08:15:27.718132    77 net.cpp:338] Top shape: 1 1 21 5 (105)
I0123 08:15:27.718137    77 net.cpp:347] Memory required for data: 564121152
I0123 08:15:27.718142    77 net.cpp:349] Biggest Memory of single blob: 69120000
I0123 08:15:27.718155    77 net.cpp:417] detection_eval does not need backward computation.
I0123 08:15:27.718160    77 net.cpp:417] detection_out does not need backward computation.
I0123 08:15:27.718168    77 net.cpp:417] mbox_conf_flatten does not need backward computation.
…
